predict_omitted/ctrl_embeddings_1_iter/3/ckpt/999.ckpt (torch_old, 352682 bytes, 25 tensors)

mp.layer0.post_layer.0.weight f4 [154]
-0.0025028381 0.39676696 0.5453836 0.71120864 -6.698741e-15 -1.1804427e-11 -0.00035547276 0.777287
0.7969764 0.3412271 0.68938166 -7.794922e-35 1.0757713 0.52475905 0.6836867 0.9133361
0.32964388 0.35948488 0.5603561 -5.3690465e-18 -2.7809247e-21 0.5701781 0.684042 0.96803546
-0.0045805327 0.41236308 -2.7006406e-28 0.45685145 0.97413677 0.56434387 0.42346033 0.9761005
-0.00018309355 0.01587785 1.0920824 1.9206777 0.6506077 0.6809743 -0.014024943 0.56249505
0.8923122 7.082189e-05 0.68738747 -0.0014314014 0.42564598 0.5491622 0.75859404 -0.0012595882
-0.00085454475 0.5674145 0.0050880113 0.48264274 0.71922153 0.30663082 0.5372916 0.8221412
0.58509713 -0.040541578 -0.0062710596 -0.0012014459 0.5586774 0.36897147 -0.0016352165 1.083002
-4.0148894e-24 -1.2515369e-21 0.84465694 0.96823204 0.5562923 -0.00034853508 0.57642335 -8.25981e-18
-2.6563035e-05 -0.0068365554 0.00038100115 0.3857472 -0.0002736205 -0.0059571587 -0.00018879006 4.465069e-26
9.4639026e-11 0.62187916 0.89776844 0.81653714 4.2027114e-05 0.9685929 5.114161e-13 -0.003516939
-0.00017506865 -0.0005481911 0.22909461 -0.0036573198 4.759949e-06 -0.004641307 6.5653077e-14 1.3714226e-15
0.6710142 1.0145873 0.90652543 -0.0033046207 0.99707425 2.6320259e-20 -0.00013798785 -0.019782992
-4.8450278e-05 -0.0014428879 -0.007892784 -0.0010867526 -0.005650697 2.4050105e-18 9.232227e-13 0.5351981
1.1666676 0.7175555 -6.727562e-05 0.91406745 -5.8191956e-14 -0.007863205 -0.0004898237 -0.00038038928
-0.00034652866 -0.005433872 -0.0025597592 -0.00050300267 1.0156198 1.9683765 0.86654854 1.1215094
-0.0008646294 -4.483157e-05 0.2903529 1.8614527 -0.0016511935 -0.0052222456 -0.0014004289 -0.004155974
-0.0020176314 0.71796584 1.2772557 1.2619592 1.2982558 1.3647788 0.69272625 1.0798358
0.6162968 0.25564948 0.42427808 0.0008109728 0.41111377 -0.0006155755 0.80561656 0.5123974
0.00016728533 1.3018502
00000000: a806 24bb 0a25 cb3e 429e 0b3f c511 363f
00000010: fb58 f1a7 6aaa 4fad bf5e bab9 48fc 463f
00000020: a506 4c3f 52b5 ae3e 517b 303f 7d39 cf86
00000030: e0b2 893f 9c56 063f 1706 2f3f 65d0 693f
00000040: 15c7 a83e 670e b83e 7f73 0f3f 3615 c6a2
00000050: e81e 529d 31f7 113f 601d 2f3f 2cd1 773f
00000060: 4b18 96bb 4121 d33e 662c ab91 6fe8 e93e
00000070: 0761 793f d778 103f cbcf d83e b9e1 793f
00000080: cdfc 3fb9 4412 823c 5bc9 8b3f c4d8 f53f
00000090: 3a8e 263f 5554 2e3f e0c8 65bc adff 0f3f
000000a0: 936e 643f 3686 9438 a0f8 2f3f dc9d bbba
000000b0: 45ee d93e e595 0c3f 3833 423f c418 a5ba
000000c0: 8703 60ba 1442 113f 55b9 a63b f31c f73e
000000d0: e71e 383f b7fe 9c3e f18b 093f d877 523f
000000e0: edc8 153f ed0e 26bd 767d cdbb d679 9dba
000000f0: 7b05 0f3f d4e9 bc3e c354 d6ba cf9f 8a3f
00000100: 8a51 9b98 7d20 bd9c 703b 583f 0ede 773f
00000110: 2c69 0e3f 96bb b6b9 7b90 133f da5d 18a3
00000120: afd3 deb7 2f05 e0bb 1cc1 c739 a880 c53e
00000130: b974 8fb9 4534 c3bb f2f5 45b9 7919 5d15
00000140: 091d d02e 7933 1f3f 27d4 653f 9408 513f
00000150: 4546 3038 b4f5 773f 6af3 0f2b 727c 66bb
00000160: a292 37b9 7bb4 0fba c797 6a3e a5af 6fbb
00000170: a7b7 9f36 1b16 98bb 6cd6 9329 90a4 c526
00000180: 96c7 2b3f ffdd 813f 0d12 683f 5692 58bb
00000190: 4240 7f3f 7b96 f81e d5b0 10b9 f10f a2bc
000001a0: 1737 4bb8 491f bdba bc50 01bc 5e71 8eba
000001b0: 7b29 b9bb 5d75 3122 9aee 812b be02 093f
000001c0: 5d55 953f b8b1 373f 5316 8db8 5300 6a3f
000001d0: 6109 83a9 acd4 00bc 8367 00ba fc6e c7b9
000001e0: 4aae b5b9 9f0e b2bb a2c1 27bb f0db 03ba
000001f0: d4ff 813f c3f3 fb3f 20d6 5d3f 9f8d 8f3f
00000200: 4ca8 62ba 8809 3cb8 23a9 943e 1544 ee3f
00000210: dc6c d8ba 5f1f abbb 998e b7ba d62e 88bb
00000220: 3d3a 04bb 9ccc 373f 1d7d a33f e187 a13f
00000230: 3f2d a63f 12b1 ae3f 8256 313f 0f38 8a3f
00000240: a1c5 1d3f 7de4 823e fa3a d93e 7797 543a
00000250: 817d d23e 935e 21ba e33c 4e3f 7a2c 033f
00000260: 5069 2f39 07a3 a63f

mp.layer0.post_layer.0.bias f4 [154]
0.000991896 -0.5031344 -0.13947557 0.82549936 1.515164e-12 3.4992493e-09 0.026072904 0.3072119
0.046593513 -1.2078726 0.5980373 1.6650016e-32 0.8119953 -0.96230227 -0.02190863 0.12392843
-0.40005854 -0.004458248 0.7083386 1.2372382e-15 6.9651585e-19 0.7070587 0.19231386 0.5446542
0.012697156 -0.0957285 7.263003e-26 -1.0377872 0.5835905 -0.18515672 -0.62055904 0.36150068
0.000496817 -0.038076617 0.18745779 0.28144118 0.19646077 -0.010337564 0.0008521979 0.24445575
0.74288875 1.28383435e-05 0.2755926 0.004632718 -0.30867454 0.08862272 0.5462428 0.0063714
0.0036624458 -0.8317938 0.01678753 -0.23853797 0.20435342 -0.2737857 -0.76933956 0.6835094
0.9837485 0.018009204 0.008706894 0.006653135 0.30728355 -0.46846524 0.0055602714 0.6841015
7.294292e-17 2.6291498e-14 0.2532049 0.7223707 0.065243766 0.0030340438 -0.11252871 2.0567073e-10
0.0077145062 0.001457195 0.00183654 -0.27214232 0.00062787475 0.004061631 0.0047235833 1.2143236e-21
2.1030392e-06 -0.23746414 0.24017353 0.41924945 0.0023602063 0.71197766 2.5116156e-08 0.015106616
0.0006399056 0.00600556 -0.24132116 0.012868654 0.0054047066 0.020948557 1.2055402e-11 3.9760743e-13
-0.20373935 0.6761284 0.54086024 0.017306188 0.27335358 4.3244105e-18 0.00096936704 0.015925812
0.0006520263 0.004163934 0.0024836094 0.0029867757 0.012704409 3.2772753e-16 7.97181e-11 -0.50789094
0.61625975 0.29554754 0.00052878296 0.09183906 5.4587444e-13 0.009555843 0.0014975374 0.00044070574
0.0043145227 0.00072407845 0.009954651 0.007248935 0.11453891 0.22056861 -0.056746226 0.55330414
0.0027062239 0.00064185687 -0.83438045 0.20889984 0.010672362 0.009863644 0.007543016 0.018715858
0.015728107 -0.5838867 0.28900927 -0.2134487 -0.021479277 0.34666535 -0.39725676 0.35612905
-0.73220086 0.024551572 0.04614317 7.188177e-05 0.0035499122 0.0016625109 -0.0591624 -0.22907369
0.0049214773 0.9449184
00000000: 8202 823a 6bcd 00bf afd2 0ebe ed53 533f
00000010: 893d d52b 7277 7031 d896 d53c e14a 9d3e
00000020: d7d8 3e3d 929b 9abf f918 193f 56e7 ac0a
00000030: edde 4f3f 7159 76bf ba79 b3bc 30ce fd3d
00000040: 79d4 ccbe 7f16 92bb ae55 353f 084e b226
00000050: 4093 4d21 cd01 353f eded 443e 756e 0b3f
00000060: bb07 503c 4e0d c4bd c0d2 b315 36d6 84bf
00000070: 3066 153f b999 3dbe f5dc 1ebf 9e16 b93e
00000080: d33c 023a 3af6 1bbd eff4 3f3e 0f19 903e
00000090: 032d 493e e35e 29bc 0866 5f3a 9c52 7a3e
000000a0: f52d 3e3f 4464 5737 791a 8d3e 0ece 973b
000000b0: 970a 9ebe d47f b53d 91d6 0b3f 2dc7 d03b
000000c0: a505 703b 70f0 54bf 0186 893c 4c43 74be
000000d0: 0642 513e a42d 8cbe 70f3 44bf 79fa 2e3f
000000e0: f1d6 7b3f 0a88 933c 5ca7 0e3c 8b02 da3b
000000f0: 4554 9d3e adda efbe f032 b63b 4721 2f3f
00000100: e631 a824 11d0 ec28 13a4 813e 49ed 383f
00000110: 869e 853d cfd6 463b 7475 e6bd 2a23 622f
00000120: f8c9 fc3b 5aff be3a 0eb8 f03a 3d56 8bbe
00000130: f697 243a 6e17 853b 4ac8 9a3b de80 b71c
00000140: f021 0d36 cd29 73be 0df0 753e dda7 d63e
00000150: b1ad 1a3b 2b44 363f 03bf d732 bd81 773c
00000160: 56bf 273a 4aca c43b e51c 77be 0cd7 523c
00000170: f719 b13b 4f9c ab3c b414 542d 45d5 df2a
00000180: 0ca1 50be c016 2d3f d175 0a3f b5c5 8d3c
00000190: 00f5 8b3e e78a 9f22 1f1d 7e3a d976 823c
000001a0: bfec 2a3a 9c71 883b 0dc4 223b c8bd 433b
000001b0: 2726 503c 0cec bc25 4d4d af2e 2405 02bf
000001c0: 33c3 1d3f 0252 973e 069e 0a3a 1e16 bc3d
000001d0: 66a6 192b 1c90 1c3c 0449 c43a 860e e739
000001e0: d760 8d3b 15d0 3d3a d518 233c 7988 ed3b
000001f0: 6093 ea3d bddc 613e bb6e 68bd 57a5 0d3f
00000200: e75a 313b 4942 283a f599 55bf d7e9 553e
00000210: 21db 2e3c 1f9b 213c 682b f73b 0052 993c
00000220: 3bd8 803c 9979 15bf 06f9 933e 4c92 5abe
00000230: 4ff5 afbc 1f7e b13e 3d65 cbbe 8c56 b63e
00000240: 8471 3bbf 6120 c93c 9f00 3d3d 3bbf 9638
00000250: a5a5 683b 9ce8 d93a 4654 72bd 4b92 6abe
00000260: 5844 a13b 2ce6 713f

mp.layer0.post_layer.0.running_mean f4 [154]
3.9570913 3.9570913 14.401984 14.401984 4.376147e-09 4.376147e-09 3.2758808 3.2758808
3.9570913 14.401984 3.2758808 4.376147e-09 5.955335 5.955335 5.955335 5.0086446
5.0086446 25.620975 25.620975 2.0206627e-08 2.0206627e-08 3.6607358 3.6607358 5.0086446
25.620975 3.6607358 2.0206627e-08 19.476988 19.476988 19.476988 7.108101 7.108101
51.316093 51.316093 3.7133887e-05 3.7133887e-05 3.9653811 3.9653811 7.108101 51.316093
3.9653811 3.7133887e-05 102.52797 102.52797 102.52797 9.306857 9.306857 75.5227
75.5227 0.0037401742 0.0037401742 4.084577 4.084577 9.306857 75.5227 4.084577
0.0037401742 143.18192 143.18192 143.18192 7.044639 7.044639 46.542953 46.542953
2.949522e-14 2.949522e-14 4.286557 4.286557 7.044639 46.542953 4.286557 2.949522e-14
94.58011 94.58011 94.58011 10.013343 10.013343 91.161064 91.161064 2.2169823e-10
2.2169823e-10 4.058391 4.058391 10.013343 91.161064 4.058391 2.2169823e-10 138.16501
138.16501 138.16501 15.572573 15.572573 137.66928 137.66928 1.017129e-08 1.017129e-08
4.8505807 4.8505807 15.572573 137.66928 4.8505807 1.017129e-08 153.94789 153.94789
153.94789 22.953001 22.953001 130.28397 130.28397 8.2779707e-07 8.2779707e-07 4.9072804
4.9072804 22.953001 130.28397 4.9072804 8.2779707e-07 160.8487 160.8487 160.8487
27.80948 27.80948 113.869125 113.869125 3.9360213e-05 3.9360213e-05 4.870406 4.870406
27.80948 113.869125 4.870406 3.9360213e-05 162.76274 162.76274 162.76274 164.60898
357.5283 1.8251657 0.6820822 0.8265972 0.92448694 1.0185021 27.162327 24.366756
15.175165 0.00045560236 7.613525e-05 0.00036439553 0.99910384 374.23502 41.667767 1002.84283
112622.23 2.44276
00000000: fc40 7d40 fc40 7d40 876e 6641 876e 6641
00000010: ff5c 9631 ff5c 9631 08a8 5140 08a8 5140
00000020: fc40 7d40 876e 6641 08a8 5140 ff5c 9631
00000030: 1b92 be40 1b92 be40 1b92 be40 d146 a040
00000040: d146 a040 c2f7 cc41 c2f7 cc41 d892 ad32
00000050: d892 ad32 7f49 6a40 7f49 6a40 d146 a040
00000060: c2f7 cc41 7f49 6a40 d892 ad32 dfd0 9b41
00000070: dfd0 9b41 dfd0 9b41 9075 e340 9075 e340
00000080: ae43 4d42 ae43 4d42 35c0 1b38 35c0 1b38
00000090: cec8 7d40 cec8 7d40 9075 e340 ae43 4d42
000000a0: cec8 7d40 35c0 1b38 520e cd42 520e cd42
000000b0: 520e cd42 e3e8 1441 e3e8 1441 9f0b 9742
000000c0: 9f0b 9742 b61d 753b b61d 753b dbb4 8240
000000d0: dbb4 8240 e3e8 1441 9f0b 9742 dbb4 8240
000000e0: b61d 753b 922e 0f43 922e 0f43 922e 0f43
000000f0: af6d e140 af6d e140 fc2b 3a42 fc2b 3a42
00000100: acd5 0429 acd5 0429 7a2b 8940 7a2b 8940
00000110: af6d e140 fc2b 3a42 7a2b 8940 acd5 0429
00000120: 0429 bd42 0429 bd42 0429 bd42 a736 2041
00000130: a736 2041 7752 b642 7752 b642 81c2 732f
00000140: 81c2 732f 57de 8140 57de 8140 a736 2041
00000150: 7752 b642 57de 8140 81c2 732f 3e2a 0a43
00000160: 3e2a 0a43 3e2a 0a43 4229 7941 4229 7941
00000170: 56ab 0943 56ab 0943 cebd 2e32 cebd 2e32
00000180: f537 9b40 f537 9b40 4229 7941 56ab 0943
00000190: f537 9b40 cebd 2e32 a9f2 1943 a9f2 1943
000001a0: a9f2 1943 bf9f b741 bf9f b741 b248 0243
000001b0: b248 0243 c835 5e35 c835 5e35 7108 9d40
000001c0: 7108 9d40 bf9f b741 b248 0243 7108 9d40
000001d0: c835 5e35 44d9 2043 44d9 2043 44d9 2043
000001e0: d179 de41 d179 de41 febc e342 febc e342
000001f0: b516 2538 b516 2538 5eda 9b40 5eda 9b40
00000200: d179 de41 febc e342 5eda 9b40 b516 2538
00000210: 43c3 2243 43c3 2243 43c3 2243 e69b 2443
00000220: 9fc3 b243 089f e93f f09c 2e3f e09b 533f
00000230: 2dab 6c3f 475e 823f 724c d941 1eef c241
00000240: 7acd 7241 eadd ee39 cdaa 9f38 570c bf39
00000250: 45c5 7f3f 151e bb43 cbab 2642 f1b5 7a44
00000260: 1df7 db47 2e56 1c40

mp.layer0.post_layer.0.running_var f4 [154]
12.240663 12.240663 2.396058 2.396058 3.0342542e-13 3.0342542e-13 10.295429 10.295429
12.240663 2.396058 10.295429 3.0342542e-13 1.9238272 1.9238272 1.9238272 12.563909
12.563909 13.9724655 13.9724655 1.4465431e-12 1.4465431e-12 9.171077 9.171077 12.563909
13.9724655 9.171077 1.4465431e-12 64.765755 64.765755 64.765755 11.48275 11.48275
196.55135 196.55135 6.210899e-07 6.210899e-07 7.3334293 7.3334293 11.48275 196.55135
7.3334293 6.210899e-07 10249.654 10249.654 10249.654 15.317249 15.317249 865.67285
865.67285 0.0010782604 0.0010782604 8.651777 8.651777 15.317249 865.67285 8.651777
0.0010782604 19490.785 19490.785 19490.785 27.915373 27.915373 1144.2844 1144.2844
1.3841013e-23 1.3841013e-23 16.87457 16.87457 27.915373 1144.2844 16.87457 1.3841013e-23
21963.672 21963.672 21963.672 42.21437 42.21437 5512.2163 5512.2163 5.871459e-16
5.871459e-16 9.233324 9.233324 42.21437 5512.2163 9.233324 5.871459e-16 21351.629
21351.629 21351.629 115.25415 115.25415 13600.678 13600.678 1.5518869e-13 1.5518869e-13
17.171133 17.171133 115.25415 13600.678 17.171133 1.5518869e-13 20368.574 20368.574
20368.574 285.4293 285.4293 12412.674 12412.674 7.555551e-11 7.555551e-11 8.805317
8.805317 285.4293 12412.674 8.805317 7.555551e-11 19813.396 19813.396 19813.396
445.91745 445.91745 9472.4795 9472.4795 1.1952561e-07 1.1952561e-07 12.673793 12.673793
445.91745 9472.4795 12.673793 1.1952561e-07 19609.396 19609.396 19609.396 19431.098
76636.734 1.6711799 0.07858651 0.12682542 0.18690887 0.25039703 440.28882 319.17044
64.33397 0.00045450125 7.586671e-05 0.00036341895 0.0008924129 78525.44 809.5227 1.7441469e+06
5.8454925e+10 7.7209215
00000000: c1d9 4341 c1d9 4341 0459 1940 0459 1940
00000010: 36d0 aa2a 36d0 aa2a 14ba 2441 14ba 2441
00000020: c1d9 4341 0459 1940 14ba 2441 36d0 aa2a
00000030: f83f f63f f83f f63f f83f f63f c505 4941
00000040: c505 4941 388f 5f41 388f 5f41 3595 cb2b
00000050: 3595 cb2b bbbc 1241 bbbc 1241 c505 4941
00000060: 388f 5f41 bbbc 1241 3595 cb2b 1188 8142
00000070: 1188 8142 1188 8142 58b9 3741 58b9 3741
00000080: 258d 4443 258d 4443 f9b8 2635 f9b8 2635
00000090: 74ab ea40 74ab ea40 58b9 3741 258d 4443
000000a0: 74ab ea40 f9b8 2635 9e26 2046 9e26 2046
000000b0: 9e26 2046 7413 7541 7413 7541 106b 5844
000000c0: 106b 5844 6a54 8d3a 6a54 8d3a ae6d 0a41
000000d0: ae6d 0a41 7413 7541 106b 5844 ae6d 0a41
000000e0: 6a54 8d3a 9245 9846 9245 9846 9245 9846
000000f0: af52 df41 af52 df41 1a09 8f44 1a09 8f44
00000100: b0dc 8519 b0dc 8519 1fff 8641 1fff 8641
00000110: af52 df41 1a09 8f44 1fff 8641 b0dc 8519
00000120: 5897 ab46 5897 ab46 5897 ab46 84db 2842
00000130: 84db 2842 bb41 ac45 bb41 ac45 b83b 2926
00000140: b83b 2926 b2bb 1341 b2bb 1341 84db 2842
00000150: bb41 ac45 b2bb 1341 b83b 2926 42cf a646
00000160: 42cf a646 42cf a646 2082 e642 2082 e642
00000170: b682 5446 b682 5446 18ba 2e2a 18ba 2e2a
00000180: 7b5e 8941 7b5e 8941 2082 e642 b682 5446
00000190: 7b5e 8941 18ba 2e2a 2621 9f46 2621 9f46
000001a0: 2621 9f46 f3b6 8e43 f3b6 8e43 b2f2 4146
000001b0: b2f2 4146 f925 a62e f925 a62e 94e2 0c41
000001c0: 94e2 0c41 f3b6 8e43 b2f2 4146 94e2 0c41
000001d0: f925 a62e cbca 9a46 cbca 9a46 cbca 9a46
000001e0: 6ff5 de43 6ff5 de43 eb01 1446 eb01 1446
000001f0: f356 0034 f356 0034 dbc7 4a41 dbc7 4a41
00000200: 6ff5 de43 eb01 1446 dbc7 4a41 f356 0034
00000210: cb32 9946 cb32 9946 cb32 9946 32ce 9746
00000220: 5eae 9547 39e9 d53f f7f1 a03d 86de 013e
00000230: 0a65 3f3e 0a34 803e f824 dc43 d195 9f43
00000240: feaa 8042 204a ee39 a11a 9f38 4489 be39
00000250: d1f0 693a b85e 9947 7461 4a44 97e8 d449
00000260: f6c2 5951 ca11 f740

post_mp.layer_post_mp.model.0.Layer_0.layer.model.weight f4 [154, 154]
0.0003600277 -0.29588634 0.098446906 0.18409722 -1.1092612e-12 -3.2728223e-10 0.0033007169 0.2341983
-0.2101718 0.2734285 0.03130518 -1.2136267e-32 0.33302066 -0.28869528 0.07106286 -0.07985669
0.11363962 -0.40609396 -0.4432857 -8.352544e-16 -3.7486104e-19 0.029835833 -0.3524691 -0.23863785
-0.00042005576 -0.044517554 -4.0471785e-26 -0.18477184 0.13715498 -0.084183164 0.19367163 0.0048502684
9.246276e-05 -0.013173847 0.046235375 0.10138647 -0.2550507 -0.071777925 0.0006021279 0.11451918
-0.08065737 7.566175e-06 0.10100847 0.0013947756 0.035299275 0.03382773 0.06456921 0.00030774676
0.00035151522 0.45044467 -0.0043534725 -0.09031309 -0.0066048503 -0.23039633 0.35460302 0.24572475
-0.25273186 -0.009557056 0.0024788082 0.00032801408 -0.05425465 0.058304984 0.001014406 -0.13167195
-5.1317772e-17 -2.0459727e-14 -0.27647242 0.006476798 -0.053308118 5.3460815e-05 -0.031843584 -2.317368e-11
0.00050663104 -0.002171356 -0.00032813378 -0.015091412 0.0001563173 -0.0029195915 4.919862e-05 -7.37372e-22
-3.5834861e-07 -0.07673165 -0.47826245 -0.12794252 -8.952247e-05 0.104758054 -1.0653073e-08 0.00023584094
5.2739895e-05 -0.00041118465 0.017459534 0.00088758656 -0.00015918454 -0.0004052279 -6.4594046e-12 -7.426014e-14
0.31708062 -0.23415868 0.378144 0.00049206754 -0.063696854 -5.45003e-19 6.615159e-05 0.008167631
4.5536003e-06 0.0007593466 -0.008285037 0.0007015118 0.0009100179 -7.979022e-17 -1.3455685e-11 -0.04552656
0.20034657 -0.19795969 3.4233537e-05 -0.06948993 -2.8925901e-13 0.0039170794 0.00033909787 0.00021928886
-5.6153734e-05 -0.0057814657 0.00041205116 -8.8286855e-05 -0.16001557 -0.30657566 0.0052255266 0.13992687
0.0003803844 1.39206395e-05 -0.11622073 -0.2898615 0.00020787188 0.0035930232 0.00031064896 -0.000499602
-0.0010429178 0.20684019 0.32673287 -0.3643369 -0.16144998 -0.047211718 -0.1284163 0.119110145
-0.16754086 -0.019271597 0.019255308 7.3949916e-05 0.103623465 0.0004167099 -0.059795838 -0.09628006
-0.00028977875 -0.3499203 -0.00110173 0.22175978 -0.19617333 0.5152843 5.514685e-14 -3.016008e-10
0.0012269607 -0.025979938 0.23157108 -0.1781783 -0.045439187 -4.0822568e-33 -0.44589263 0.39250368
0.06553779 -0.5338464 0.06345778 -0.005196389 0.041882362 4.5115658e-17 -2.2507389e-21 -0.02480877
-0.2684796 -0.14135048 5.2915795e-05 0.036067884 -3.6205104e-28 0.028522579 -0.34029025 0.1627059
-0.26235554 0.21621597 2.9239949e-05 -0.014920017 0.16301423 0.27585316 0.14230515 0.03063335
0.0028163192 -0.07116069 0.089166954 -3.4602763e-07 -0.0057032574 -4.9198843e-05 -0.17317235 -0.009692997
-0.17136241 -0.00025105415 -0.00010840752 -0.0016367888 0.003974984 0.2783989 0.038303338 0.16741031
0.032280434 -0.3204825 -0.08224408 0.02261882 0.001111146 -0.00046196821 0.07551477 -0.041960146
-0.00025065453 -0.12772132 2.004482e-18 5.671644e-16 -0.0013503924 -0.076806284 -0.08314427 -0.0001251952
0.061594807 -2.0209357e-11 -4.668408e-05 0.0025383066 -0.00028192837 -0.023823364 -4.8255726e-05 0.0011092026
-0.00025088468 -5.5422534e-23 -3.993348e-08 0.1613632 0.19485761 0.33596548 -0.00021478349 -0.27777395
-1.5244177e-09 0.000895481 -7.804057e-05 0.0003754042 -0.008976143 -0.0011946241 -0.0005367824 -0.0012335657
3.305734e-13 -1.9306839e-14 -0.06542417 0.0046108817 0.25146893 4.4272374e-06 0.17762606 7.984994e-19
00000000: 1ac2 bc39 6a7e 97be 889e c93d fb83 3c3e
00000010: 591d 9cab e1ec b3af d750 583b aed1 6f3e
00000020: 4737 57be d2fe 8b3e dc39 003d 770f 7c8a
00000030: af81 aa3e decf 93be 6889 913d e78b a3bd
00000040: e4bb e83d 8ceb cfbe 58f6 e2be e6be 70a6
00000050: 6647 dda0 476a f43c d476 b4be 7b5d 74be
00000060: ee3a dcb9 0a58 36bd 1568 4895 d434 3dbe
00000070: 5b72 0c3e 3968 acbd db51 463e 00ef 9e3b
00000080: 91e8 c138 1fd7 57bc 4e61 3d3d b6a3 cf3d
00000090: 0196 82be 4e00 93bd 1fd8 1d3a 0889 ea3d
000000a0: b12f a5bd f3e0 fd36 87dd ce3d e7d0 b63a
000000b0: f995 103d f28e 0a3d dd3c 843d 1259 a139
000000c0: 934b b839 afa0 e63e 93a7 8ebb 12f6 b8bd
000000d0: 806d d8bb 04ed 6bbe 878e b53e 459f 7b3e
000000e0: 1266 81be 3395 1cbc 8073 223b 4ef9 ab39
000000f0: 203a 5ebd 35d1 6e3d d1f5 843a 03d5 06be
00000100: 55a9 6ca4 eb48 b8a8 cb8d 8dbe 523b d43b
00000110: 9d59 5abd 1d3b 6038 6b6e 02bd 7dd6 cbad
00000120: 6fcf 043a 4f4d 0ebb 5f09 acb9 f841 77bc
00000130: 1be9 2339 9e56 3fbb 9e5a 4e38 65db 5e9c
00000140: 0f63 c0b4 7c25 9dbd d1de f4be 5d03 03be
00000150: 03be bbb8 648b d63d b604 37b2 124c 7739
00000160: 0835 5d38 4594 d7b9 4c07 8f3c edac 683a
00000170: c6ea 26b9 c574 d4b9 2545 e3ac 0e38 a7a9
00000180: 6458 a23e 4bc7 6fbe 179c c13e 18fe 003a
00000190: 7f73 82bd 43db 20a1 ddba 8a38 87d1 053c
000001a0: 21cb 9836 e30e 473a f7bd 07bc a9e5 373a
000001b0: 448e 6e3a d5fb b7a4 05b7 6cad 0f7a 3abd
000001c0: a727 4d3e f2b5 4abe fb95 0f38 bd50 8ebd
000001d0: 9ed6 a2aa d85a 803b f2c8 b139 e8f0 6539
000001e0: 9d86 6bb8 7372 bdbb 9208 d839 a526 b9b8
000001f0: 1fdb 23be 7cf7 9cbe e53a ab3b fd48 0f3e
00000200: 546e c739 b18c 6937 2205 eebd ba68 94be
00000210: 2ff8 5939 ed78 6b3b 99de a239 b9f7 02ba
00000220: 84b2 88ba eacd 533e 8849 a73e 5e8a babe
00000230: 2553 25be 1361 41bd 907f 03be 05f0 f33d
00000240: d58f 2bbe 78df 9dbc 4fbd 9d3c 8f15 9b38
00000250: 8a38 d43d db79 da39 7bec 74bd 7b2e c5bd
00000260: 72ed 97b9 c128 b3be ed67 90ba ff14 633e
00000270: a9e1 48be ace9 033f fd5b 7829 8ace a5af
00000280: f8d1 a03a e1d3 d4bc f820 6d3e 5f74 36be
00000290: 711e 3abd 0092 a989 0a4c e4be 3ef6 c83e
000002a0: ad38 863d 28aa 08bf 27f6 813d 7846 aabb
000002b0: d78c 2b3d 2b0f 5024 9f0f 2a9d c33b cbbc
000002c0: 2876 89be 2ebe 10be e7f1 5d38 ebbb 133d
000002d0: 247a e591 2fa8 e93c 863a aebe 609c 263e
000002e0: 7753 86be b867 5d3e 5048 f537 1673 74bc
000002f0: 34ed 263e a03c 8d3e 71b8 113e cbf2 fa3c
00000300: ff91 383b b2bc 91bd 2a9d b63d adc5 b9b4
00000310: 64e2 babb db5a 4eb8 1854 31be 60cf 1ebc
00000320: a179 2fbe eb9f 83b9 d858 e3b8 8589 d6ba
00000330: 9540 823b 4d8a 8e3e f6e3 1c3d 9c6d 2b3e
00000340: 7d38 043d 4816 a4be 966f a8bd 1b4b b93c
00000350: dfa3 913a 5334 f2b9 7da7 9a3d 67de 2bbd
00000360: 486a 83b9 61c9 02be 98e7 1322 5979 2326
00000370: a6ff b0ba 9d4c 9dbd 8b47 aabd d546 03b9
00000380: d64a 7c3d 6dc3 b1ad a6ce 43b8 b859 263b
00000390: c9cf 93b9 3729 c3bc 3166 4ab8 aa62 913a
000003a0: 2c89 83b9 e300 869a 5383 2bb3 653c 253e
000003b0: c188 473e ab03 ac3e 8137 61b9 6338 8ebe
000003c0: ae83 d1b0 b6be 6a3a b6a9 a3b8 e6d1 c439
000003d0: ac10 13bc ef94 9cba dbb6 0cba 99af a1ba
000003e0: a618 ba2a 8ae6 ada8 1bfd 85bd e116 973b
000003f0: 89c0 803e ae8d 9436 9be3 353e e9ac 6b21

post_mp.layer_post_mp.model.0.Layer_0.post_layer.0.weight f4 [154]
0.7784852 0.91191727 0.73161864 0.7606893 0.7693379 0.8857495 0.7407242 0.8654041
0.6805211 0.5709392 0.7518744 0.7962286 0.83323413 0.7857857 0.92465657 0.7395543
0.7669618 0.9473676 0.82105553 0.70975643 0.6874391 0.7655538 0.8004698 0.864382
0.8427251 0.8187389 0.83310276 0.7402239 0.6381128 0.6558909 0.6971447 0.7722616
0.7626127 0.6861143 0.83543557 0.7902707 0.7463469 0.75096035 0.8702311 0.7958201
0.8177129 0.87752265 0.87570673 0.72162986 0.7126024 0.8156494 0.6830633 0.767651
0.8335362 0.86507595 0.747396 0.8702607 0.8407392 0.8338104 0.7815595 0.7679161
0.7995399 0.7829878 0.78712684 0.75118834 0.809448 0.77020884 0.88635343 0.8049936
0.7062089 0.76100534 0.83669984 0.89963603 0.88418835 0.80992085 0.757722 0.8411027
0.711146 0.8627649 0.8789222 0.76697785 0.74863404 0.8144035 0.81087965 0.82352304
0.83382213 0.7426801 0.7781053 0.7525448 0.79723495 0.68119556 0.76458186 0.7946943
0.74343675 0.9380041 0.7553224 0.792437 0.75272906 0.81421345 0.84228736 0.9150287
0.8350449 0.8430706 0.5882493 0.885158 0.62796277 0.8494501 0.83055043 0.82571816
0.8677711 0.71632427 0.76936376 0.90718406 0.88930357 0.6568241 0.8613446 0.7632108
0.66004175 0.6668929 0.71449983 0.8096639 0.83193964 0.8299929 0.7979335 0.88472927
0.781128 0.70696396 0.7720217 0.79993117 0.89011675 0.6391959 0.7459193 0.8670327
0.8395121 0.60981137 0.79558957 0.84584165 0.7142227 0.83405733 0.79552853 0.8451907
0.8262964 0.7854099 0.80212194 0.8308402 0.83091784 0.84626055 0.80218 0.8138932
0.76493806 0.89319605 0.81925744 0.822327 0.7090179 0.73519 0.80221546 0.75022525
0.7514679 0.6657893
00000000: ce4a 473f 6973 693f 5c4b 3b3f 89bc 423f
00000010: 54f3 443f 7bc0 623f 1aa0 3d3f 208b 5d3f
00000020: a136 2e3f 1229 123f d77a 403f a3d5 4b3f
00000030: d54e 553f 4029 493f 4bb6 6c3f 6e53 3d3f
00000040: 9c57 443f af86 723f b230 523f 99b2 353f
00000050: 02fc 2f3f 55fb 433f 97eb 4c3f 2448 5d3f
00000060: d5bc 573f df98 513f 3946 553f 507f 3d3f
00000070: 5c5b 233f 77e8 273f 1378 323f f0b2 453f
00000080: 963a 433f 30a5 2f3f 1bdf 553f 2e4f 4a3f
00000090: 9710 3f3f f03e 403f 77c7 5e3f deba 4b3f
000000a0: a255 513f 53a5 603f 512e 603f bcbc 383f
000000b0: 1c6d 363f 66ce 503f 3ddd 2e3f c784 443f
000000c0: a162 553f 9e75 5d3f 5855 3f3f 68c9 5e3f
000000d0: af3a 573f 9974 553f 4914 483f 2696 443f
000000e0: a6ae 4c3f e371 483f 2581 493f e14d 403f
000000f0: fc37 4f3f 682c 453f 0fe8 623f 1014 4e3f
00000100: 1bca 343f 3fd1 423f f631 563f 8c4e 663f
00000110: 2b5a 623f f956 4f3f 12fa 413f 8252 573f
00000120: aa0d 363f 29de 5c3f 0c01 613f a958 443f
00000130: 7ba6 3f3f bf7c 503f cf95 4f3f 68d2 523f
00000140: 5e75 553f 4820 3e3f e931 473f c7a6 403f
00000150: 9717 4c3f d562 2e3f a3bb 433f 1671 4b3f
00000160: df51 3e3f 0921 703f cf5c 413f 27dd 4a3f
00000170: dab2 403f 4b70 503f 25a0 573f 523f 6a3f
00000180: 81c5 553f 7ad3 573f 8297 163f b799 623f
00000190: 2bc2 203f 9075 593f f49e 543f 4462 533f
000001a0: 3f26 5e3f 0761 373f 06f5 443f 373d 683f
000001b0: 66a9 633f a025 283f 1481 5c3f c861 433f
000001c0: 7ff8 283f 7eb9 2a3f 76e9 363f 2246 4f3f
000001d0: fff9 543f 6a7a 543f 5f45 4c3f 9e7d 623f
000001e0: 01f8 473f 97fb 343f 37a3 453f 4ac8 4c3f
000001f0: b1de 633f 58a2 233f 91f4 3e3f dbf5 5d3f
00000200: 44ea 563f 991c 1c3f c2ab 4b3f 1489 583f
00000210: 4dd7 363f c884 553f c2a7 4b3f 6b5e 583f
00000220: 2988 533f a010 493f dd57 4d3f f1b1 543f
00000230: 08b7 543f 88a4 583f ab5b 4d3f 4e5b 503f
00000240: fbd2 433f 7fa8 643f dbba 513f 0684 523f
00000250: 3282 353f 6935 3c3f fe5d 4d3f c30e 403f
00000260: 3360 403f 2b71 2a3f

post_mp.layer_post_mp.model.0.Layer_0.post_layer.0.bias f4 [154]
0.23352729 0.44866696 0.21176852 0.367335 0.105597414 0.17587192 0.18735412 0.28473464
-0.09027298 -0.12830757 0.39133197 0.3643634 0.19912167 -0.14960752 0.49991396 0.42658347
-0.2480714 0.27154362 -0.15231535 0.14796714 -0.038317636 -0.0007931673 0.2812124 0.10480618
0.0341162 0.310459 0.25120214 0.17401639 0.089254655 0.06226425 -0.1796499 0.14618897
0.15262884 0.040844228 0.15628201 -0.03357642 -0.105149545 0.060750253 0.03933546 0.33579987
0.019884137 0.40904385 0.13952021 0.22360343 -0.011055544 0.1482016 -0.002244189 0.01855189
0.13384455 0.44191495 -0.087109566 0.021452956 0.08540704 0.28447616 -0.20455888 0.34300518
0.043626506 0.2028056 0.21852742 0.30244547 -0.033190805 0.26403058 0.18321034 0.31774706
0.28863415 0.51011676 0.3198785 0.17324808 0.41613588 0.077276 -0.031317193 0.13530909
0.20966628 0.22897358 0.20730668 0.36340386 0.061583035 0.51955855 0.3450761 -0.006211171
0.25660354 0.0732235 0.2566793 0.43024206 0.35739192 0.0014332685 -0.17624576 0.15806168
0.24763495 0.26603246 0.08100258 0.0042358274 0.20586209 0.37348068 0.1499468 0.09433313
0.10938477 0.33632427 0.1869542 0.33795592 -0.07033193 0.1943405 0.09265263 -0.019127319
0.50938493 0.3923398 -0.020878192 0.11423785 0.14455308 0.2763822 0.23975822 -0.06459007
0.29299253 -0.13916866 0.051737696 0.395721 0.18603006 0.0046081156 -0.15426141 0.43762875
0.101622045 0.14421694 0.2578157 -0.006437294 0.1351442 0.18601578 0.23943007 0.19754188
0.12503979 -0.021882541 0.20063043 0.24963641 -0.07858072 0.40741208 -0.076274596 -0.012050681
0.17416012 0.17308278 0.2053127 0.15951692 0.44854653 0.112821 0.40491995 0.2691679
0.26190108 0.23677823 0.24933386 0.13564898 0.041511558 0.31120986 0.41138175 0.084079035
0.15760516 0.15505719
00000000: c721 6f3e adb7 e53e d9d9 583e 5513 bc3e
00000010: 7543 d83d c517 343e c2d9 3f3e bdc8 913e
00000020: 0ae1 b8bd 0f63 03be aa5c c83e d78d ba3e
00000030: 8de6 4b3e b732 19be b9f4 ff3e 2669 da3e
00000040: 6e06 7ebe c407 8b3e 8ef8 1bbe b384 173e
00000050: f4f2 1cbd 8eec 4fba 12fb 8f3e 9fa4 d63d
00000060: 6ebd 0b3d 7bf4 9e3e 919d 803e 5a31 323e
00000070: 25cb b63d cc08 7f3d 25f6 37be 90b2 153e
00000080: bc4a 1c3e 474c 273d 6408 203e 6e87 09bd
00000090: a558 d7bd 42d5 783d 381e 213d f6ed ab3e
000000a0: 0fe4 a23c 326e d13e 63de 0e3e 4cf8 643e
000000b0: 5022 35bc 29c2 173e 3e13 13bb 22fa 973c
000000c0: 8c0e 093e ad42 e23e 8066 b2bd 1cbe af3c
000000d0: e3e9 ae3d dca6 913e e277 51be 609e af3e
000000e0: b5b1 323d 45ac 4f3e a7c5 5f3e 22da 9a3e
000000f0: 15f3 07bd 042f 873e 7e9b 3b3e beaf a23e
00000100: dbc7 933e 0397 023f 1dc7 a33e f267 313e
00000110: c30f d53e e142 9e3d 7546 00bd 778e 0a3e
00000120: c2b2 563e 0d78 6a3e 3448 543e 1210 ba3e
00000130: 7e3e 7c3d ca01 053f d1ad b03e 1487 cbbb
00000140: 8a61 833e 34f6 953d 786b 833e b048 dc3e
00000150: 13fc b63e 83dc bb3a c579 34be ecda 213e
00000160: 0494 7d3e 6835 883e aee4 a53d b2cc 8a3b
00000170: 83cd 523e dc38 bf3e a78b 193e ba31 c13d
00000180: 1f05 e03d b232 ac3e ec70 3f3e 8f08 ad3e
00000190: 300a 90bd 3201 473e a9c0 bd3d e5b0 9cbc
000001a0: 0d67 023f c3e0 c83e be08 abbc 89f5 e93d
000001b0: b905 143e f881 8d3e 2e83 753e cc47 84bd
000001c0: 1e03 963e 3b82 0ebe e8ea 533d f19b ca3e
000001d0: aa7e 3e3e adff 963b b4f6 1dbe e010 e03e
000001e0: 381f d03d 9bad 133e 6b00 843e f0ef d2bb
000001f0: 3e63 0a3e ec7a 3e3e 282d 753e 6b48 4a3e
00000200: 6e0a 003e 0443 b3bc 1072 4d3e b0a0 7f3e
00000210: eeee a0bd 5198 d03e db35 9cbd 3870 45bc
00000220: 0857 323e 9d3c 313e 7e3d 523e 6758 233e
00000230: e4a7 e53e b20e e73d ab51 cf3e 60d0 893e
00000240: e617 863e fe75 723e 6051 7f3e 91e7 0a3e
00000250: 0608 2a3d e656 9f3e a1a0 d23e a131 ac3d
00000260: 3f63 213e 50c7 1e3e

post_mp.layer_post_mp.model.0.Layer_0.post_layer.0.running_mean f4 [154]
-0.086255565 0.20151803 0.24052495 -0.15724109 0.09629732 0.01502865 -0.109882064 -0.1316841
-0.019712461 -0.09896576 0.06196685 -0.09876654 -0.0074369945 -0.29677784 0.077786826 0.11175447
0.045659322 -0.04372582 -0.09859742 -0.02441802 0.22781117 -0.06552365 -0.35126358 0.11428501
-0.039904013 -0.017776594 -0.2918219 0.04149646 0.04822456 -0.060571086 0.078459054 0.14570187
-0.09078905 0.1512222 0.2255569 -0.10993382 0.17029499 -0.04336063 -0.027884845 -0.02230143
-0.01772671 -0.27828872 -0.04692683 -0.015322507 0.08121269 0.16668253 -0.18646304 -0.051106285
0.06787523 0.041453734 -0.038883116 0.18470623 -0.16082409 -0.15838994 -0.10409522 0.033271767
0.16779822 0.010833097 -0.037561797 -0.18146388 0.17621946 -0.23298214 0.026614267 0.0068493644
-0.06754994 -0.23716374 -0.20900244 -0.13492754 -0.07355142 -0.08195161 -0.056648374 -0.07850321
0.12746474 -0.18663925 -0.10223373 -0.067988515 0.046718724 -0.1680684 -0.051341593 -0.102100745
-0.1871748 0.18723175 0.07239932 -0.085644305 0.0599364 -0.053078793 0.19905993 0.1929522
-0.25691703 0.03961831 0.21831176 0.0039069857 0.07755854 0.18527393 0.15953429 -0.12199373
-0.04122336 -0.04220606 -0.059985876 -0.16747686 -0.23256207 -0.059536222 -0.25651428 0.17418376
-0.09458636 -0.12648414 -0.2029865 0.015678313 -0.23691356 0.01521306 0.1990201 0.043958798
-0.098337345 0.23461594 0.16131796 -0.065628484 -0.39061633 0.08005673 -0.11490052 -0.29037556
-0.35038236 0.037710756 -0.065922506 0.12314445 -0.0056025083 0.031554155 -0.13626912 -0.1931086
0.040621478 -0.024521846 -0.22914791 -0.0057155187 -0.0377774 0.077317975 -0.18041262 0.093355276
-0.19222593 0.095110886 0.1708292 -0.19042602 0.0084579745 -0.23731488 0.14571169 -0.11099973
-0.058718365 0.029590007 0.03908794 0.034217875 0.064110935 -0.117360115 0.12334004 -0.13902129
-0.25338325 -0.12869802
00000000: c2a6 b0bd be5a 4e3e 2c4c 763e cf03 21be
00000010: 8837 c53d ba3a 763c d909 e1bd 32d8 06be
00000020: 077c a1bc 8fae cabd f4d0 7d3d 1d46 cabd
00000030: 08b2 f3bb 44f3 97be b34e 9f3d 87df e43d
00000040: 4505 3b3d d819 33bd 72ed c9bd 4d08 c8bc
00000050: 5547 693e 4331 86bd d2d8 b3be 420e ea3d
00000060: 6472 23bd 38a0 91bc ae69 95be 31f8 293d
00000070: 1e87 453d 6319 78bd 24af a03d df32 153e
00000080: 9cef b9bd fed9 1a3e 63f8 663e fc24 e1bd
00000090: cf61 2e3e ea9a 31bd c26e e4bc 7db1 b6bc
000000a0: 9b37 91bc dc7b 8ebe 5936 40bd 410b 7bbc
000000b0: d752 a63d d3ae 2a3e 2bf0 3ebe d354 51bd
000000c0: 2b02 8b3d 64cb 293d e743 1fbd a123 3d3e
000000d0: 12af 24be f930 22be e02f d5bd fa47 083d
000000e0: 4cd3 2b3e 4d7d 313c 66da 19bd abd1 39be
000000f0: e072 343e df92 6ebe 2a06 da3c a270 e03b
00000100: 9f57 8abd 0ddb 72be bc04 56be 722a 0abe
00000110: 20a2 96bd 3fd6 a7bd 2008 68bd 4ac6 a0bd
00000120: 1e86 023e 5c1e 3fbe eb5f d1bd 903d 8bbd
00000130: 225c 3f3d 1f1a 2cbe 904b 52bd 321a d1bd
00000140: c0aa 3fbe aeb9 3f3e 1846 943d 4866 afbd
00000150: df7f 753d 2669 59bd 5ed6 4b3e 4395 453e
00000160: a18a 83be cf46 223d 1e8d 5f3e 2c06 803b
00000170: 03d7 9e3d 73b8 3d3e f55c 233e d9d7 f9bd
00000180: d3d9 28bd 43e0 2cbd c0b3 75bd 0e7f 2bbe
00000190: c024 6ebe 41dc 73bd d755 83be 3a5d 323e
000001a0: 7eb6 c1bd 0f85 01be b1db 4fbe ce6f 803c
000001b0: 7899 72be 3340 793c edcb 4b3e 240e 343d
000001c0: 1765 c9bd 293f 703e 8930 253e 3a68 86bd
000001d0: ddfe c7be c8f4 a33d f750 ebbd 1bac 94be
000001e0: 5165 b3be 9876 1a3d 6102 87bd 2833 fc3d
000001f0: 3f95 b7bb ee3e 013d 228a 0bbe 43be 45be
00000200: b562 263d 0ae2 c8bc c0a5 6abe 3f49 bbbb
00000210: 7abc 1abd e358 9e3d 16be 38be 0d31 bf3d
00000220: e0d6 44be 7fc9 c23d daed 2e3e 0aff 42be
00000230: 5193 0a3c ac02 73be 7235 153e d453 e3bd
00000240: ab82 70bd be66 f23c ad1a 203d 0b28 0c3d
00000250: 984c 833d 805a f0bd b499 fc3d 995b 0ebe
00000260: 73bb 81be 6ac9 03be

post_mp.layer_post_mp.model.0.Layer_0.post_layer.0.running_var f4 [154]
0.00842026 0.010585193 0.008325623 0.009005299 0.005954923 0.009251084 0.0063701556 0.011976953
0.006553865 0.0057079466 0.007831673 0.008021361 0.007520541 0.013301959 0.00975294 0.0046199034
0.018007366 0.012541545 0.01092377 0.0065963967 0.008208844 0.011135687 0.009687849 0.012472035
0.009899546 0.008751344 0.010179139 0.009418866 0.0050632795 0.006648865 0.009258955 0.0075718393
0.006897305 0.0063287546 0.0087409485 0.008279184 0.009545358 0.008072593 0.010381432 0.007148276
0.009459832 0.011622531 0.009316146 0.008826446 0.0076340777 0.00660709 0.008529831 0.0094886795
0.009933274 0.008440109 0.009400044 0.011849854 0.0094925435 0.0100267995 0.0119998725 0.0066310014
0.011550703 0.008601998 0.009304715 0.0068027144 0.009517976 0.0076924018 0.010980802 0.006890809
0.0065150363 0.0061332397 0.0087548625 0.010030402 0.0074412427 0.0076539554 0.008308088 0.009821299
0.007927821 0.010353026 0.0098443795 0.008907969 0.007767628 0.008523629 0.0068695717 0.012263598
0.009589994 0.009129377 0.009482714 0.007021688 0.009384195 0.0052421535 0.01113711 0.006766413
0.006417639 0.010448275 0.008495748 0.009907794 0.0075693643 0.00861 0.011669458 0.012022741
0.011241233 0.010247529 0.008299418 0.008627132 0.00770879 0.014018771 0.013817689 0.009797732
0.010206051 0.0071409256 0.007352806 0.009377643 0.012408305 0.0077990093 0.007850372 0.011187278
0.0059515527 0.0092390785 0.00973319 0.007530415 0.007952592 0.011044295 0.008842035 0.011433987
0.007330511 0.006926541 0.0068398677 0.008875768 0.00959732 0.0053573637 0.008650876 0.007544478
0.009047451 0.0063988 0.010372437 0.008789602 0.008345727 0.0082896 0.011904813 0.011543272
0.008002421 0.008369159 0.009424061 0.0076611666 0.0073579256 0.009233704 0.0055402997 0.008145053
0.0048926696 0.009805905 0.009794475 0.006686107 0.007787005 0.0059956377 0.010300391 0.00766204
0.00756722 0.0056823413
00000000: 21f5 093c 846d 2d3c 3268 083c f68a 133c
00000010: 8421 c33b dc91 173c bdbc d03b fb3a 443c
00000020: cec1 d63b ba09 bb3b 6b50 003c 076c 033c
00000030: df6e f63b 76f0 593c ccca 1f3c 8f62 973b
00000040: 2f84 933c 0d7b 4d3c 9df9 323c 9626 d83b
00000050: 637e 063c 7572 363c c9b9 1e3c 8257 4c3c
00000060: b531 223c cc61 0f3c 67c6 263c 9651 1a3c
00000070: dee9 a53b b9de d93b dfb2 173c 311d f83b
00000080: ca02 e23b 7161 cf3b 3236 0f3c 6aa5 073c
00000090: 2264 1c3c e942 043c e216 2a3c 163c ea3b
000000a0: 69fd 1a3c 6e6c 3e3c c0a2 183c cc9c 103c
000000b0: 4927 fa3b 4a80 d83b b4c0 0b3c 6876 1b3c
000000c0: 2cbf 223c 6248 0a3c a402 1a3c e425 423c
000000d0: 9d86 1b3c 7247 243c 1d9b 443c df48 d93b
000000e0: 293f 3d3c 65ef 0c3c ce72 183c 4ee9 de3b
000000f0: 49f1 1b3c 8b10 fc3b d2e8 333c 4ccc e13b
00000100: 167c d53b 58f9 c83b 8e70 0f3c 8e56 243c
00000110: abd5 f33b 08ce fa3b a61e 083c 84e9 203c
00000120: b1e3 013c bd9f 293c 524a 213c bbf2 113c
00000130: 9687 fe3b b1a6 0b3c 251a e13b 42ed 483c
00000140: 5a1f 1d3c 6293 153c 635d 1b3c 3016 e63b
00000150: 2bc0 193c 5fc6 ab3b 6d78 363c c9b8 dd3b
00000160: 0f4b d23b 3e2f 2b3c c031 0b3c 4d54 223c
00000170: 6e08 f83b f510 0d3c 4131 3f3c 08fb 443c
00000180: 262d 383c 40e5 273c 48fa 073c d058 0d3c
00000190: 049a fc3b fdae 653c 9763 623c ab86 203c
000001a0: 4837 273c 6dfe e93b cfef f03b afa4 193c
000001b0: 344c 4b3c d58e ff3b d99e 003c d84a 373c
000001c0: 3e05 c33b 815f 173c f577 1f3c b3c1 f63b
000001d0: 974b 023c 21f3 343c 2fde 103c 9e55 3b3c
000001e0: c934 f03b 0af8 e23b f820 e03b ab6b 113c
000001f0: 143e 1d3c d38c af3b 67bc 0d3c ab37 f73b
00000200: c33b 143c 06ad d13b 27f1 293c 4302 103c
00000210: 84bc 083c 1ad1 073c 680c 433c fe1f 3d3c
00000220: 961c 033c cc1e 093c 6067 1a3c 860a fb3b
00000230: c11a f13b f648 173c 678b b53b d472 053c
00000240: b052 a03b f2a8 203c 0179 203c 2117 db3b
00000250: 222a ff3b 0e77 c43b f9c2 283c da11 fb3b
00000260: 71f6 f73b ef32 ba3b

post_mp.layer_post_mp.model.1.model.weight f4 [28, 154]
-0.00996692 -0.009587316 -0.009547378 -0.009541616 -0.008303514 -0.012387463 -0.008867335 -0.010075699
-0.011376912 -0.01272073 -0.008793222 -0.010210656 -0.0099594295 -0.026015807 -0.011892744 -0.008675796
-0.01117296 -0.0113369785 -0.012029029 -0.011348365 -0.00819855 -0.012887943 -0.011592119 -0.013297973
-0.0128821265 -0.007970114 -0.010960603 -0.010247369 -0.008625685 -0.008809535 -0.007992938 -0.010989791
-0.008621723 -0.009526375 -0.011696664 -0.01172179 -0.009345307 -0.010687621 -0.009830319 -0.012185723
-0.014652507 -0.013194651 -0.008870456 -0.0075453464 -0.010920108 -0.010238842 -0.013399308 -0.013210771
-0.013239222 -0.011009541 -0.01746412 -0.009535801 -0.012069936 -0.010074061 -0.025739396 -0.009693465
-0.007819406 -0.0114556905 -0.01068374 -0.008208601 -0.009664716 -0.00852853 -0.012174079 -0.009162873
-0.00895939 -0.009021803 -0.012648575 -0.010716907 -0.011133077 -0.009798978 -0.010167907 -0.014087245
-0.009332441 -0.011148986 -0.011488041 -0.008370971 -0.009059023 -0.009855029 -0.011050974 -0.021350931
-0.008664684 -0.013228498 -0.012348827 -0.008917765 -0.01045 -0.010531417 -0.009160609 -0.009032739
-0.012859566 -0.011841294 -0.00984837 -0.011707592 -0.00845526 -0.008634675 -0.013684021 -0.011104261
-0.015403272 -0.011170789 -0.0062529785 -0.012760839 -0.013034748 -0.009760353 -0.012122374 -0.009469718
-0.010525857 -0.008868523 -0.0154179605 -0.012176872 -0.02480132 -0.008334803 -0.010820815 -0.010557281
-0.008316227 -0.008612831 -0.008467365 -0.010950294 -0.011621734 -0.01775231 -0.016382273 -0.010986188
-0.008422035 -0.0081763435 -0.010315557 -0.011712879 -0.009778943 -0.006987952 -0.009942365 -0.012993188
-0.009845589 -0.00795883 -0.011059632 -0.0090798475 -0.011264078 -0.009468389 -0.014511683 -0.01841477
-0.014956513 -0.010964485 -0.011340095 -0.012954496 -0.009180264 -0.018420773 -0.0102024125 -0.009569948
-0.009630215 -0.00913727 -0.011618436 -0.012035374 -0.009003265 -0.009133575 -0.009513464 -0.011571692
-0.009527453 -0.007208634 -0.29537603 0.24301277 0.5201958 0.1315824 0.14430661 -0.08209695
-0.22619249 0.23680338 0.3241033 0.23855524 -0.06068136 0.19100256 -0.087647974 -0.24058796
-0.2990083 -0.030518016 0.4179058 0.117712855 -0.0074545816 -0.09276831 0.68330884 0.09827139
-0.2156194 -0.3527397 -0.15594055 -0.020754037 0.21944846 0.4133258 -0.0935893 0.40092754
0.32793918 0.47115293 -0.28205538 0.002198793 0.06311147 -0.32528198 0.42810032 -0.08827924
-0.27127525 0.1710343 -0.08579388 0.16941145 -0.30916965 -0.20433226 0.4612715 0.41859153
-0.5428142 -0.38741922 0.22280458 -0.13206436 0.115149476 0.6050895 -0.34934402 0.018926857
-0.49792007 0.6729191 0.69903874 -0.45469904 -0.31894457 -0.29404926 -0.10530116 -0.16563511
-0.25655907 -0.19781539 -0.20480134 -0.22991876 -0.4936836 -0.39226046 -0.29082653 -0.13188554
0.16738425 0.19483483 -0.21556944 0.3400669 -0.2457947 -0.23535138 0.41985396 0.07471257
-0.42153493 -0.3941187 -0.03633985 0.1128202 0.5014339 -0.050046317 -0.256311 -0.1465834
0.20799866 0.7082111 -0.25110817 -0.34043375 -0.13266413 -0.16901632 0.29132572 -0.13211115
-0.35332793 0.22188903 0.09600171 0.63502836 0.32272425 0.23388498 0.01913444 0.45272213
00000000: 4b4c 23bc 1e14 1dbc 9b6c 1cbc 7054 1cbc
00000010: 760b 08bc c9f4 4abc 4c48 11bc 8b14 25bc
00000020: 3a66 3abc 9c6a 50bc 7211 10bc 984a 27bc
00000030: e02c 23bc 1a1f d5bc c9d9 42bc ed24 0ebc
00000040: ca0e 37bc bcbe 39bc 6815 45bc 7eee 39bc
00000050: 3653 06bc f327 53bc dfec 3dbc bedf 59bc
00000060: 8e0f 53bc 1595 02bc 1a94 33bc 95e4 27bc
00000070: bf52 0dbc de55 10bc d0f4 02bc 860e 34bc
00000080: 2142 0dbc 8314 1cbc 5da3 3fbc c00c 40bc
00000090: 0f1d 19bc 221b 2fbc 590f 21bc a0a6 47bc
000000a0: 1211 70bc 612e 58bc 6455 11bc f43e f7bb
000000b0: 41ea 32bc d1c0 27bc c588 5bbc fd71 58bc
000000c0: 52e9 58bc 5d61 34bc ea10 8fbc 0c3c 1cbc
000000d0: fbc0 45bc ad0d 25bc 6ddb d2bc 57d1 1ebc
000000e0: f71c 00bc a6b0 3bbc da0a 2fbc 5e7d 06bc
000000f0: c258 1ebc 3fbb 0bbc ca75 47bc e01f 16bc
00000100: 68ca 12bc 2fd0 13bc f83b 4fbc f795 2fbc
00000110: 8267 36bc e58b 20bc 4b97 26bc 30ce 66bc
00000120: 18e7 18bc 3daa 36bc 5638 3cbc 6626 09bc
00000130: 4c6c 14bc fd76 21bc 250f 35bc 26e8 aebc
00000140: 52f6 0dbc 58bc 58bc bc52 4abc d11b 12bc
00000150: 7a36 2bbc f78b 2cbc 6116 16bc 0efe 13bc
00000160: eeb0 52bc fd01 42bc 0f5b 21bc 33d1 3fbc
00000170: ee87 0abc 7478 0dbc f232 60bc a5ee 35bc
00000180: 015e 7cbc af05 37bc c9e5 ccbb d712 51bc
00000190: b28f 55bc e3e9 1fbc ec9c 46bc e026 1bbc
000001a0: a574 2cbc 484d 11bc 9d9b 7cbc 8181 47bc
000001b0: 232c cbbc b38e 08bc ca49 31bc 72f8 2cbc
000001c0: c940 08bc d51c 0dbc b4ba 0abc dd68 33bc
000001d0: 1669 3ebc 4b6d 91bc 1e34 86bc 6aff 33bc
000001e0: 93fc 09bc 12f6 05bc 9502 29bc 60e7 3fbc
000001f0: dc37 20bc 31fb e4bb 4de5 22bc 61e1 54bc
00000200: 654f 21bc c165 02bc 7533 35bc a4c3 14bc
00000210: f88c 38bc 4d21 1bbc 69c2 6dbc 92da 96bc
00000220: 2a0c 75bc 62a4 33bc cecb 39bc 183f 54bc
00000230: d168 16bc 29e7 96bc 0528 27bc 45cb 1cbc
00000240: 0dc8 1dbc 7db4 15bc 415b 3ebc 0430 45bc
00000250: 6e82 13bc fda4 15bc 5cde 1bbc 3297 3dbc
00000260: 0919 1cbc 6836 ecbb 873b 97be 57d8 783e
00000270: 8d2b 053f 89bd 063e 1dc5 133e 7222 a8bd
00000280: 019f 67be 967c 723e def0 a53e d347 743e
00000290: 058d 78bd 2d96 433e c880 b3bd b15c 76be
000002a0: 9e17 99be eb00 fabc c0f7 d53e 7013 f13d
000002b0: 9045 f4bb 50fd bdbd 54ed 2e3f 8342 c93d
000002c0: 55cb 5cbe 4c9a b4be e1ae 1fbe 5f04 aabc
000002d0: 19b7 603e 709f d33e bfab bfbd 6046 cd3e
000002e0: a5e7 a73e f53a f13e 9069 90be a019 103b
000002f0: 9640 813d 5c8b a6be f72f db3e bfcb b4bd
00000300: 97e4 8abe 9e23 2f3e b4b4 afbd 327a 2d3e
00000310: 7c4b 9ebe 7a3c 51be c72b ec3e a151 d63e
00000320: dff5 0abf d05b c6be e226 643e e13b 07be
00000330: 7dd3 eb3d 25e7 1a3f 38dd b2be 7f0c 9b3c
00000340: 61ef febe 6d44 2c3f 34f4 323f 50ce e8be
00000350: b44c a3be a08d 96be 22a8 d7bd 409c 29be
00000360: b65b 83be 1e90 4abe 71b7 51be d36f 6bbe
00000370: 19c4 fcbe 5dd6 c8be 37e7 94be 010d 07be
00000380: c766 2b3e c882 473e 3cbe 5cbe 401d ae3e
00000390: 9bb1 7bbe f4ff 70be 19f7 d63e e702 993d
000003a0: 6dd3 d7be edc9 c9be 18d9 14bd 470e e73d
000003b0: f95d 003f 5efd 4cbd 323b 83be f519 16be
000003c0: 9afd 543e 534d 353f 4091 80be 554d aebe
000003d0: 1bd9 07be 9d12 2dbe a528 953e 2548 07be
000003e0: 66e7 b4be e136 633e 8b9c c43d 3891 223f
000003f0: 1d3c a53e 8b7f 6f3e d4bf 9c3c 32cb e73e

post_mp.layer_post_mp.model.1.model.bias f4 [28]
-0.012950353 0.03204016 0.13356908 0.1503149 0.054436993 0.15398075 -0.01956872 -0.10540388
0.18257056 -0.27410138 -0.012950353 -0.012950355 0.13672891 -0.012950353 0.041311096 0.12056737
-0.05269321 0.11687235 -0.020092856 -0.012950353 -0.0035576827 -0.118831895 -0.07624685 -0.14224394
-0.023740944 -0.012950353 -0.012331371 -0.016661722
00000000: b82d 54bc 8b3c 033d 55c6 083e 26ec 193e
00000010: 53f9 5e3d 21ad 1d3e 954e a0bc fddd d7bd
00000020: c7f3 3a3e 0457 8cbe b82d 54bc ba2d 54bc
00000030: aa02 0c3e b82d 54bc d335 293d 06ec f63d
00000040: d6d4 57bd c55a ef3d c699 a4bc b82d 54bc
00000050: 0328 69bb 235e f3bd 4f27 9cbd 65a8 11be
00000060: 5e7c c2bc b82d 54bc 8509 4abc 2a7e 88bc

exp_avg f4 [154]
0.00036116032 0.021628538 0.03476023 -0.057969276 -3.3055217e-18 -5.6663357e-15 -0.00027220108 -0.0063977144
0.018965516 0.035257813 -0.020246504 -3.8220046e-38 -0.039876964 0.12970343 0.026645409 0.009025224
-0.0036008367 0.00812301 -0.010248931 -2.5458943e-21 -1.0440654e-24 0.003664494 -0.005829815 0.0024158903
-6.9797534e-05 0.00057271565 -1.2455801e-31 -0.008612429 0.023900578 -0.00231785 -0.012016204 0.011928979
-4.4759713e-06 -0.00232348 4.7050464e-05 0.00015075004 0.0040993695 0.017915415 -0.00032545242 -0.008420789
-0.004496916 -9.3639116e-08 -0.012141638 -2.7104472e-05 -0.021396054 0.030746328 -0.0062393304 -5.0788745e-05
-3.2170035e-05 0.005330133 1.8886474e-05 0.019641452 -0.0064884773 0.05758624 -0.059153385 -0.003966663
-0.00090284453 0.0021491 1.8749093e-05 -2.5848538e-05 0.007482032 -0.02133882 5.2853084e-05 0.002347661
-2.0163129e-27 -6.270072e-25 -0.025390157 0.045835238 -0.009179321 4.0442874e-06 -0.007431228 -4.065426e-21
9.595377e-06 9.098184e-05 -3.409287e-05 -0.038967956 6.7583355e-06 -0.00016902835 -1.3110817e-05 4.1485377e-29
-9.143329e-14 0.0135024125 -0.0047622737 0.009473036 -8.148925e-06 0.00075675716 6.811897e-16 2.9403778e-05
7.481103e-07 -3.484589e-05 -0.024014434 2.1317157e-05 -3.8136426e-05 0.00022178038 3.1877853e-17 7.1939117e-19
0.00794145 -0.0055109877 -0.010494515 9.118281e-06 0.04074355 1.6814679e-23 -1.0458964e-05 0.0001949439
-9.412951e-06 1.02420735e-07 2.3498153e-05 2.6740472e-05 0.00044578197 -2.584583e-20 -4.5992974e-15 -0.011834936
0.0073146005 -0.02027226 -2.4390642e-06 -0.011802474 -5.7141796e-17 6.1132945e-05 7.190476e-06 -3.621564e-06
5.6791696e-06 4.8474885e-05 3.9969724e-05 -3.8360155e-05 -0.00015941804 -0.00035394423 0.01495304 -0.020566015
2.678282e-05 -4.2846677e-06 0.017908914 -0.0003309764 -2.4480056e-05 0.00024832363 -4.2231244e-07 4.029502e-05
0.00020799549 -0.012107405 -0.018620526 -0.004879972 0.0089936955 -0.026142338 0.018058114 -0.0028656796
-0.0018197182 -0.00017339991 0.0002277241 -3.1982652e-06 -0.0030361528 1.1541139e-05 0.0036935427 0.01203578
8.401932e-05 0.056295894
00000000: 1e5a bd39 552e b13c be60 0e3d 3171 6dbd
00000010: 8ae7 73a2 b926 cca7 36b6 8eb9 eba3 d1bb
00000020: 925d 9b3c 7f6a 103d ffdb a5bc f816 5081
00000030: 0756 23bd fad0 043e 7947 da3c 88de 133c
00000040: 04fc 6bbb 6016 053c 22eb 27bc c25c 409d
00000050: b18f a197 0228 703b 0808 bfbb ea53 1e3b
00000060: 4460 92b8 4c22 163a 80af 218c 251b 0dbc
00000070: 25cb c33c 12e7 17bb 9ddf 44bc c471 433c
00000080: 4d30 96b6 8745 18bb 0d58 4538 a812 1e39
00000090: 0154 863b 59c3 923c 7ca1 aab9 59f7 09bc
000000a0: de5a 93bb a616 c9b3 b9ed 46bc 695e e3b7
000000b0: c746 afbc b9df fb3c 4c73 ccbb 0006 55b8
000000c0: 50ee 06b8 65a8 ae3b 656e 9e37 1ce7 a03c
000000d0: 4b9d d4bb 8ddf 6b3d d24a 72bd c8fa 81bb
000000e0: dfac 6cba ead7 0c3b 5f47 9d37 50d5 d8b7
000000f0: d52b f53b c0ce aebc 91ae 5d38 37db 193b
00000100: afbf 1f93 a10c 4297 05ff cfbc bbbd 3b3d
00000110: dd64 16bc 2ab4 8736 a981 f3bb 6396 999d
00000120: d5fb 2037 81cd be38 f1fe 0eb8 dd9c 1fbd
00000130: a9c5 e236 343d 31b9 88f6 5bb7 195b 5210
00000140: b4e3 cda9 3939 5d3c d90c 9cbb cb34 1b3c
00000150: 5eb7 08b7 1d61 463a ee56 4426 22a8 f637
00000160: c0d1 4835 7d27 12b8 ebb9 c4bc 3fd2 b237
00000170: adf4 1fb8 b88d 6839 ba02 1324 a953 5421
00000180: db1c 023c 8495 b4bb 30f1 2bbc b8fa 1837
00000190: b5e2 263d 219f a219 e978 2fb7 db69 4c39
000001a0: 51ec 1db7 65f2 db33 e61d c537 ba50 e037
000001b0: d8b7 e939 621b f49e 08b5 a5a7 52e7 41bc
000001c0: 51af ef3b 0312 a6bc ceae 23b6 2a5f 41bc
000001d0: 90c2 83a4 8034 8038 b845 f136 ff09 73b6
000001e0: b28f be36 8351 4b38 2aa5 2738 e7e4 20b8
000001f0: 7429 27b9 9791 b9b9 98fd 743c 0f7a a8bc
00000200: abab e037 04c5 8fb6 b7b5 923c e786 adb9
00000210: 855a cdb7 6f31 8239 2eba e2b4 7302 2938
00000220: 5d19 5a39 235e 46bc 138a 98bc 2ce8 9fbb
00000230: 4b5a 133c 7528 d6bc 9cee 933c 20ce 3bbb
00000240: 9c83 eeba afd2 35b9 39c9 6e39 c7a1 56b6
00000250: 31fa 46bb d1a0 4137 5d0f 723b b831 453c
00000260: 8733 b038 8696 663d
