predict_omitted/ctrl_embeddings_v2/1/ckpt/99.ckpt (torch_old, 352678 bytes, 25 tensors)

mp.layer0.post_layer.0.weight f4 [154]
0	0xba97a925	-0.0011570795
1	0x3cf0c974	0.029392935
2	0x3a7c1200	0.00096157193
3	0x3d243124	0.040085927
4	0xb2785866	-1.4455599e-08
5	0x21bb2e77	1.2683912e-18
6	0x3a99bc20	0.0011729039
7	0x39a010f0	0.00030530198
8	0x3d6a9639	0.05727217
9	0x3d94ed5a	0.07271834
10	0x3d80adff	0.06283187
11	0xaf3ebb83	-1.7347017e-10
12	0x3be62221	0.0070231115
13	0x3a135ea7	0.0005621709
14	0xb9972896	-0.00028831203
15	0x3b814f44	0.003946217
16	0x3c475219	0.01216557
17	0x3d4e182a	0.050316013
18	0x3c2595b4	0.010106493
19	0xa76708d1	-3.206247e-15
20	0xa858de7e	-1.2038654e-14
21	0x3c5edad9	0.013601982
22	0x3a76931c	0.0009406076
23	0x3d33ac49	0.043865476
24	0x3cd2a5f2	0.025713895
25	0x3e0ba562	0.13637307
26	0xb16fb2ea	-3.4880778e-09
27	0x3d39f132	0.045396037
28	0x3c43146e	0.011906726
29	0x3b8d70a4	0.0043164063
30	0x3bba64d0	0.0056882873
31	0x3d05af32	0.032637782
32	0x3d9c4034	0.07629433
33	0x3d3a2e2e	0.045454197
34	0x3d5c0c6f	0.053722795
35	0xae824cd4	-5.925363e-11
36	0x38e2483c	0.000107899745
37	0x3c926829	0.017871933
38	0x3c0f8f9d	0.008762267
39	0x3dbbf737	0.09178012
40	0x3c68b062	0.014202209
41	0x3c451a9c	0.01203027
42	0x3c12f873	0.008970368
43	0x3ca80de0	0.020514429
44	0x3dc11d10	0.09429371
45	0x3b38f353	0.0028221204
46	0x3c74bfd6	0.014938315
47	0x3c3fb669	0.011701205
48	0x3c298840	0.010347426
49	0x3e568a28	0.2095114
50	0x3d8efb08	0.06981474
51	0x3c74da8b	0.014944683
52	0x3d82877b	0.06373497
53	0x3cfdf19b	0.030998996
54	0x3947bb6e	0.00019047942
55	0x3c44608f	0.011985912
56	0x3e557197	0.20844112
57	0x3ca9223c	0.020646207
58	0x3bb83ba9	0.0056223464
59	0x3c21b33c	0.009869393
60	0x3b1e5154	0.0024157362
61	0x3c1bfefc	0.009521242
62	0x3dd748cd	0.105119325
63	0x3b7e488f	0.0038800573
64	0xb20bbe01	-8.134067e-09
65	0x2565a025	1.9916843e-16
66	0xbbb89fa8	-0.005634267
67	0x3c5f1b2d	0.013617319
68	0x3adc6cd4	0.0016817101
69	0x3bedcb41	0.007256896
70	0x3b81fcf2	0.003966921
71	0xa8bc5c74	-2.0912288e-14
72	0x3b940ad8	0.0045178942
73	0x3a9556b0	0.0011393633
74	0x3b215937	0.0024619827
75	0x3b205ee3	0.002447062
76	0xb743ecbb	-1.1678024e-05
77	0x3d3faab7	0.046793666
78	0x3c40f2a3	0.011776599
79	0x21659b30	7.7793607e-19
80	0x2211c080	1.9753073e-18
81	0x3bfd4a07	0.007729772
82	0x3cae7f6e	0.021300998
83	0x3b2f06da	0.0026706965
84	0x3c1acadb	0.009447779
85	0x3d05b10b	0.032639544
86	0xac4d5e23	-2.9184509e-12
87	0x3b8353da	0.0040077986
88	0x3dbd493d	0.09242485
89	0x3cc77f05	0.02435256
90	0x3cf16865	0.029468725
91	0x3bfa1408	0.0076317824
92	0x3c6ced88	0.014460929
93	0x3bd18377	0.0063938457
94	0xb4392d6d	-1.7245993e-07
95	0xa16699c7	-7.8130554e-19
96	0x39b28aa7	0.0003405411
97	0x3cb4541d	0.022012765
98	0x3db0bfe7	0.086303525
99	0x3dc606dc	0.09669277
100	0x3b92f426	0.004484671
101	0xaf92e0ed	-2.6717065e-10
102	0x3b7dc8eb	0.0038724493
103	0x3bd08c48	0.006364379
104	0x3b62d338	0.003461076
105	0x3a4f4384	0.0007906484
106	0x3b559597	0.0032590383
107	0x3b641563	0.0034802787
108	0x3c2c8feb	0.01053236
109	0xb62efced	-2.6075243e-06
110	0xaf118c75	-1.3237574e-10
111	0x3bf8ffa9	0.0075988364
112	0x3c0f8133	0.008758831
113	0x3a8e4ee4	0.0010857251
114	0x3bef2e29	0.007299204
115	0x3b41c026	0.0029563992
116	0xb28bbf9b	-1.6268862e-08
117	0x3a58be9a	0.0008268148
118	0x3d125283	0.03572322
119	0x3c41c421	0.011826546
120	0x3dd341e9	0.10315306
121	0x3d945d55	0.07244364
122	0x3d811a9e	0.06303905
123	0x3b80d611	0.0039317687
124	0x3d10165a	0.035177566
125	0x33a5b864	7.716952e-08
126	0x3c2bfdf6	0.010497561
127	0x3b3c3094	0.0028715478
128	0x3d8787eb	0.06617721
129	0x3c7b4b37	0.015337757
130	0x3ba69ed5	0.005084852
131	0x37bb9826	2.2362987e-05
132	0x3cfdf99a	0.031002808
133	0x3c2b9f4e	0.010474993
134	0x3c8789ca	0.016545195
135	0x3c2f8b36	0.010714343
136	0x3b774f9f	0.0037736667
137	0x3db9c5cd	0.09070931
138	0x3e08d8a2	0.13363889
139	0x3ddf493c	0.1090264
140	0x3d41f58d	0.047353316
141	0x3eabb97f	0.3353996
142	0x3d03a259	0.03213725
143	0x3c20a5b9	0.009805136
144	0x3bce297e	0.0062915673
145	0x3e6cf511	0.2314036
146	0x9ee00500	-2.371899e-20
147	0x34fb45f8	4.6803302e-07
148	0xb81bf9e7	-3.718762e-05
149	0x3cf498cc	0.029858015
150	0x3c23f3d9	0.010006868
151	0x3c707da9	0.014678397
152	0x3e283bb2	0.16429022
153	0x3bb0f35a	0.0054001035

mp.layer0.post_layer.0.bias f4 [154]
0	0x3c0b66eb	0.008508424
1	0xbcd58dca	-0.026068587
2	0xbaa18cf1	-0.0012325329
3	0x3d2588a9	0.040413532
4	0xb8ce5a38	-9.83965e-05
5	0xb82dcb3b	-4.1435687e-05
6	0xbbdac0b0	-0.006675802
7	0xbb705c4b	-0.0036676105
8	0xbcb7d0a0	-0.022438347
9	0x3d0f52de	0.034991138
10	0xbcc9a4af	-0.02461466
11	0xb82425a4	-3.9135703e-05
12	0x3a28b10f	0.0006435075
13	0xbc243bda	-0.010024035
14	0xbba70f5c	-0.0050982665
15	0x3b28ba26	0.0025745719
16	0xbc9186a8	-0.017764404
17	0x3d4ccc55	0.049999554
18	0x3b325aa5	0.0027214673
19	0xaa2d2af7	-1.5380393e-13
20	0xb6d1163b	-6.2312733e-06
21	0x3c85db22	0.016339842
22	0x3b4f64d6	0.0031645796
23	0xbac939e5	-0.0015352337
24	0x3c0c37fb	0.008558269
25	0xbd49f55d	-0.049306262
26	0xb8d12e58	-9.974529e-05
27	0x3cd10236	0.02551375
28	0xbc145c9d	-0.009055284
29	0xbc1ac3b4	-0.009446073
30	0xba2fc326	-0.00067047996
31	0x3c92d493	0.017923629
32	0x3d1bc48f	0.03802925
33	0x3cd2dab7	0.025739057
34	0x3c796441	0.015221656
35	0xb32b27e5	-3.9850324e-08
36	0xba6ec3d8	-0.00091081625
37	0x3a3141d7	0.0006761825
38	0x3b881bc5	0.004153701
39	0x3d6c99f0	0.057763994
40	0x3c0922da	0.008370126
41	0xbb569fd6	-0.0032749078
42	0x3c061a08	0.008184917
43	0x3c397a5d	0.011320678
44	0xbb9913ee	-0.0046715653
45	0xb99f5851	-0.00030392644
46	0xbba933c7	-0.005163643
47	0x3be3ea3f	0.0069554145
48	0x3bea0374	0.007141525
49	0xbd025596	-0.031819902
50	0x39ca75d6	0.00038616237
51	0xbb9ac377	-0.0047230083
52	0x3c95f4ad	0.018305147
53	0x3cb7b5d2	0.022425566
54	0xbb4bfe06	-0.0031126752
55	0x3d18d299	0.037310217
56	0xbc6417cf	-0.013921692
57	0xba2447bc	-0.0006266793
58	0x3b71dcc6	0.0036905273
59	0xbbab0356	-0.0052189035
60	0xba02a101	-0.0004983098
61	0xbb259974	-0.0025268467
62	0x3c862c3c	0.016378514
63	0xbb0dcee5	-0.0021638211
64	0xbafaa318	-0.0019122092
65	0xbb7f4915	-0.0038953472
66	0x3d861547	0.06547027
67	0xbb984b7d	-0.004647671
68	0x3abe9d32	0.0014542697
69	0xbba72315	-0.0051006177
70	0xbc8d7770	-0.017268866
71	0xb330a41f	-4.112746e-08
72	0xbc15b137	-0.00913649
73	0x39024238	0.00012422435
74	0xbc2331f9	-0.009960645
75	0x3b07ff93	0.00207517
76	0xb9a77e0d	-0.00031946637
77	0xbc209c32	-0.009802865
78	0x3be07e33	0.0068509816
79	0xa657b9b4	-7.4844784e-16
80	0xb9675ee5	-0.00022065228
81	0x3b3ebf14	0.002910559
82	0xbc46047f	-0.012086033
83	0xba52e8a4	-0.00080455304
84	0x3a630f73	0.0008661665
85	0xbc15395e	-0.009107916
86	0xb7c7b021	-2.3804665e-05
87	0xbab5e822	-0.0013878385
88	0xbc4df057	-0.0125695085
89	0xbbea9e43	-0.0071599795
90	0xbc2acc78	-0.010424726
91	0xbb159ac8	-0.0022827853
92	0xbb1390ba	-0.0022516684
93	0x3bac3c2d	0.005256197
94	0xb99e9be2	-0.0003025225
95	0xabf8e416	-1.7684766e-12
96	0xba47cd9e	-0.0007621887
97	0x3b781cbc	0.0037858924
98	0xbc407761	-0.011747212
99	0xba748a46	-0.00093284657
100	0xbb44e919	-0.0030046164
101	0xb5fc9a34	-1.8820342e-06
102	0xbb1daf20	-0.0024060681
103	0x3b715fb4	0.0036830725
104	0xb9947ac6	-0.00028320233
105	0xba0da205	-0.0005402866
106	0xba88507b	-0.0010399962
107	0xba9e125f	-0.0012059918
108	0xbb632185	-0.003465743
109	0xba1d6dc3	-0.00060054305
110	0xb9d99531	-0.00041500622
111	0x3bba9922	0.0056945244
112	0xbac216a8	-0.0014807777
113	0xb98910c5	-0.0002614317
114	0xbb39d73c	-0.002835705
115	0x3b1e784a	0.0024180585
116	0xb6bb8b74	-5.5892688e-06
117	0xba561411	-0.0008166442
118	0xba59202f	-0.0008282689
119	0xbb172aa1	-0.002306618
120	0xbc970633	-0.018435573
121	0xbc03a766	-0.008035516
122	0xbb08578d	-0.0020804137
123	0x3b559113	0.0032587692
124	0x3cec9d7b	0.028883686
125	0xb9e9fe32	-0.00044630613
126	0xbbe2238c	-0.00690121
127	0xbb0e263b	-0.0021690268
128	0xbbb00529	-0.005371709
129	0xbb3f94f0	-0.002923306
130	0x3b4b864a	0.0031055384
131	0xb82394d9	-3.9000854e-05
132	0x3a1250a6	0.00055814756
133	0xba123297	-0.00055769965
134	0xbb0f0584	-0.0021823356
135	0xba8cc3ee	-0.0010739544
136	0x3b06b1e7	0.0020552815
137	0xbd67c4e1	-0.056584243
138	0xbd45fe1e	-0.04833805
139	0xbd375005	-0.044754047
140	0xbd3aed4f	-0.04563647
141	0xbde90e5d	-0.11379693
142	0xbadbad01	-0.0016759933
143	0xbb4c193c	-0.003114297
144	0x3ab913b7	0.0014120255
145	0xb99cd171	-0.00029910685
146	0xb0ea4630	-1.7045689e-09
147	0xb59ce58d	-1.1689714e-06
148	0xb9e16ef6	-0.00042998017
149	0x3b6567c9	0.0035004488
150	0xbb5aeee5	-0.0033406552
151	0x3b202dfb	0.002444147
152	0xbc37ac26	-0.011210477
153	0x3b0b183e	0.0021224166

mp.layer0.post_layer.0.running_mean f4 [154]
0	0x411a9cd3	9.663287
1	0x3fcdf2ed	1.608976
2	0x416234d0	14.137894
3	0x414f7d53	12.968097
4	0x339d5f09	7.328169e-08
5	0xa5d88baa	-3.7564667e-16
6	0x4107c9a1	8.486726
7	0x3fa4931c	1.2857394
8	0x4068bec4	3.6366434
9	0x415b7454	13.7159
10	0x4042ba53	3.0426223
11	0x312800b1	2.444761e-09
12	0x40b92f21	5.787003
13	0x409cca78	4.8997154
14	0x40d44b14	6.634165
15	0x41398501	11.594972
16	0x4013b9f8	2.3082256
17	0x41c067dc	24.050713
18	0x41b051fd	22.040033
19	0x358f234f	1.0664606e-06
20	0x2d49e8a1	1.1477181e-11
21	0x411b3e0b	9.702647
22	0x3fcc99d3	1.5984443
23	0x408e52c2	4.4476023
24	0x41ba8161	23.313173
25	0x4051c07c	3.2773733
26	0x33ad7439	8.077081e-08
27	0x418ae0ae	17.359707
28	0x413f92f2	11.973375
29	0x41aa1959	21.262377
30	0x4155c96b	13.361674
31	0x407b6168	3.9278202
32	0x422c45df	43.068233
33	0x4221605c	40.3441
34	0x3aca3338	0.0015426641
35	0x364eccdb	3.0815634e-06
36	0x411970a8	9.590004
37	0x3ff77d2b	1.9335073
38	0x40ce60f6	6.449336
39	0x4228c294	42.190018
40	0x406a20f8	3.6582623
41	0x39ba665f	0.00035552957
42	0x42713134	60.29805
43	0x42458767	49.38223
44	0x428a7e94	69.24722
45	0x415f8b58	13.971519
46	0x40aac5e5	5.336657
47	0x4262be45	56.68581
48	0x425722d1	53.784
49	0x3cf95dce	0.030440237
50	0x3c16825e	0.009186355
51	0x4105bdfb	8.358882
52	0x3fff59dd	1.9949299
53	0x4101f283	8.121707
54	0x425f0775	55.757282
55	0x4069c4e1	3.6526415
56	0x3c8fcde3	0.01755423
57	0x4298c1b9	76.378365
58	0x428aa295	69.31754
59	0x42a1cda7	80.901665
60	0x414e4ac2	12.893251
61	0x402640a6	2.5976958
62	0x41eb1bd5	29.38859
63	0x41d880f2	27.062962
64	0x30a228d7	1.1798659e-09
65	0xa5f658c3	-4.2734345e-16
66	0x41290350	10.563309
67	0x3fcd0da9	1.6019794
68	0x40a03cb0	5.007408
69	0x41e46c96	28.55302
70	0x40604f00	3.5048218
71	0x2ea75c60	7.61069e-11
72	0x420d3e48	35.31082
73	0x41d13a05	26.15333
74	0x4227c628	41.943512
75	0x41584164	13.5159645
76	0x40859665	4.1746087
77	0x4251e985	52.478046
78	0x4243638d	48.847218
79	0x32b5b5fe	2.1153934e-08
80	0xa58ccc88	-2.4424724e-16
81	0x41164f88	9.394417
82	0x3ff18587	1.8868874
83	0x40dbbf08	6.8670692
84	0x424ce15f	51.22009
85	0x4070945e	3.7590556
86	0x3041da3d	7.0523126e-10
87	0x428430f5	66.09562
88	0x42646112	57.094795
89	0x4290d328	72.412415
90	0x417d49f5	15.830556
91	0x40cd4f84	6.4159565
92	0x42961fd7	75.06219
93	0x428e1ee4	71.06033
94	0x353f45cc	7.125461e-07
95	0x2e06eaf0	3.067674e-11
96	0x410d9ea0	8.851227
97	0x400542c2	2.0821996
98	0x411b543e	9.708067
99	0x429372a2	73.72389
100	0x40832eb8	4.099453
101	0x33a06243	7.468454e-08
102	0x429dc453	78.883446
103	0x4293aaaf	73.83337
104	0x42a57d24	82.744415
105	0x419263bd	18.2987
106	0x411fe038	9.992241
107	0x42898c01	68.773445
108	0x4284eddb	66.46456
109	0x38187ae3	3.635407e-05
110	0x33079008	3.1563133e-08
111	0x40e953b5	7.291468
112	0x40100a8a	2.2506433
113	0x4157028f	13.438125
114	0x42886f7b	68.217735
115	0x408136db	4.037946
116	0x36cd7526	6.123114e-06
117	0x42a90195	84.50309
118	0x42a41d3f	82.05712
119	0x42abdc74	85.93057
120	0x419aff3f	19.374632
121	0x4145f019	12.371118
122	0x4270c275	60.1899
123	0x42674615	57.81844
124	0x3a09e651	0.0005260455
125	0x36326384	2.6581993e-06
126	0x40c211ac	6.064657
127	0x4016dda9	2.357279
128	0x41796c8a	15.588999
129	0x426e5af9	59.58884
130	0x4074d80a	3.825686
131	0x38f0ec7d	0.00011488141
132	0x42abb4a6	85.85283
133	0x42a90b4e	84.52208
134	0x42acf282	86.47365
135	0x42ae2645	87.074745
136	0x433886fa	184.52725
137	0x3fdedce4	1.741116
138	0x3f2956be	0.66147983
139	0x3f5cfbe2	0.8632184
140	0x3f82a614	1.0206933
141	0x3f95c9f8	1.1702261
142	0x41956cd8	18.678146
143	0x41879e35	16.95225
144	0x41364ad4	11.393269
145	0x3b38a49a	0.0028174282
146	0x00000000	0.0
147	0x39ec418a	0.00045062258
148	0x3f7f29d2	0.9967319
149	0x43460be1	198.0464
150	0x41e8c8e2	29.098087
151	0x43d0451a	416.53986
152	0x46a36877	20916.232
153	0x40319cbf	2.775192

mp.layer0.post_layer.0.running_var f4 [154]
0	0x4201f0d5	32.485188
1	0x3e44c22d	0.19214697
2	0x40792f8b	3.8935268
3	0x40aceeb3	5.404138
4	0x2cfe4510	7.2267817e-12
5	0x0bdd4bfb	8.5240426e-32
6	0x41d90cfd	27.131342
7	0x3e0182f5	0.12647612
8	0x3eaf9716	0.34294957
9	0x40841683	4.127748
10	0x3e8a444f	0.2700524
11	0x2810e488	8.043161e-15
12	0x40034ebf	2.0516813
13	0x3fbe24b6	1.4854953
14	0x402ace84	2.6688547
15	0x428800cd	68.001564
16	0x3e625e8d	0.22106381
17	0x42039a47	32.90066
18	0x42139282	36.893074
19	0x2ebd57a8	8.610296e-11
20	0x1fa3290f	6.910111e-20
21	0x42721cb7	60.52804
22	0x3de882d6	0.1135308
23	0x3ef19850	0.47186518
24	0x4201a3da	32.41001
25	0x3e977f88	0.29589486
26	0x2b3b9f3f	6.6656744e-13
27	0x42925412	73.1642
28	0x41ff77ee	31.93356
29	0x42d3b7fc	105.859344
30	0x429be657	77.94988
31	0x3f694d90	0.91133976
32	0x43b0015a	352.01056
33	0x43a11f0a	322.2425
34	0x3889ba8c	6.567416e-05
35	0x30a951e9	1.2319649e-09
36	0x42805978	64.17474
37	0x3e2c8579	0.16847791
38	0x4046e109	3.107485
39	0x43a809e4	336.07727
40	0x3fa9726e	1.3238046
41	0x366cb141	3.5269916e-06
42	0x44cfb8f5	1661.7799
43	0x449b3caa	1241.8958
44	0x4504574c	2117.456
45	0x429f826d	79.75474
46	0x40667b5c	3.6012793
47	0x448eed97	1143.4247
48	0x4481f022	1039.5042
49	0x3c243651	0.010022716
50	0x3b83f7bf	0.0040273364
51	0x4259d14f	54.454403
52	0x3eac2a39	0.33625963
53	0x4116e57d	9.431027
54	0x44895b7b	1098.8588
55	0x4023a289	2.5567954
56	0x3ba866db	0.0051392145
57	0x4527ebd7	2686.74
58	0x450f04e8	2288.3066
59	0x453b2bb7	2994.7322
60	0x42acd4d7	86.4157
61	0x3fb6b49a	1.4273865
62	0x437fff1a	255.99649
63	0x43696a8f	233.41624
64	0x27e2910a	6.2884853e-15
65	0x0c47b2a6	1.5384162e-31
66	0x428858bd	68.17332
67	0x3e6ca868	0.23111117
68	0x403f67ea	2.9907174
69	0x4377ea2f	247.91478
70	0x3f790d6c	0.97286105
71	0x24016ca0	2.8064425e-17
72	0x44c35608	1562.6885
73	0x447d5141	1013.2696
74	0x44fdd029	2030.505
75	0x4272ab2d	60.667164
76	0x409bacee	4.8648596
77	0x4486da4b	1078.8217
78	0x4478a50d	994.5789
79	0x2c1442fa	2.1069244e-12
80	0x0b3a600a	3.589455e-32
81	0x42258424	41.379044
82	0x3e8c8cb6	0.27451104
83	0x41004843	8.017642
84	0x4482caf4	1046.3423
85	0x3f6ea445	0.93219405
86	0x2728b13e	2.3410767e-15
87	0x45536ce4	3382.8057
88	0x453ebf05	3051.9387
89	0x456070b1	3591.0432
90	0x42a03790	80.10852
91	0x416f2a23	14.947787
92	0x452397c0	2617.4844
93	0x45175947	2421.5798
94	0x2e3d6537	4.306352e-11
95	0x217b478e	8.513681e-19
96	0x42097be9	34.371006
97	0x3e82f2ac	0.2557577
98	0x41d09dbd	26.07702
99	0x451e1c1b	2529.7566
100	0x401b53b3	2.4269836
101	0x2b3554ca	6.4421786e-13
102	0x455d4acc	3540.6748
103	0x455e170c	3553.4404
104	0x455e5217	3557.1306
105	0x42dbf8b4	109.98575
106	0x423367d6	44.851402
107	0x45107292	2311.1606
108	0x450c65a4	2246.3525
109	0x33391f27	4.3102002e-08
110	0x299a8797	6.862495e-14
111	0x41962a1c	18.770561
112	0x3ed843b6	0.4223916
113	0x42843565	66.10429
114	0x450ef14c	2287.081
115	0x405c2366	3.4396605
116	0x3095955f	1.0883631e-09
117	0x455fb259	3579.1467
118	0x455f6d57	3574.8337
119	0x45601a0a	3585.6274
120	0x43096b40	137.41895
121	0x4292192d	73.04917
122	0x44dd19d1	1768.8068
123	0x44d4c086	1702.0164
124	0x364c1a93	3.0413837e-06
125	0x2eab45d9	7.788587e-11
126	0x41492f9e	12.574125
127	0x3f93a63b	1.1535105
128	0x42cb2476	101.57121
129	0x44d965d0	1739.1816
130	0x408b357a	4.350278
131	0x3406ce20	1.255471e-07
132	0x4560851f	3592.32
133	0x456164aa	3606.2915
134	0x45607293	3591.161
135	0x455ff3f2	3583.2466
136	0x46881715	17419.541
137	0x3fb2f5a2	1.3981211
138	0x3e0047c0	0.1252737
139	0x3e4198fd	0.18906017
140	0x3e8cfd1b	0.27536854
141	0x3ecc4080	0.3989296
142	0x4374212d	244.1296
143	0x43557481	213.4551
144	0x421ebc7a	39.68406
145	0x3b379c49	0.0028016737
146	0x00000004	6e-45
147	0x39eaceaf	0.0004478595
148	0x3b54a9e5	0.0032449898
149	0x46a8cd5e	21606.684
150	0x43b3a544	359.29114
151	0x480916aa	140378.66
152	0x4e2ad524	7.165238e+08
153	0x41cfcc0c	25.974632

post_mp.layer_post_mp.model.0.Layer_0.layer.model.weight f4 [154, 154]
0	0x3a77f3f0	0.0009458652
1	0xba23cf2d	-0.0006248828
2	0xb8d81193	-0.00010302956
3	0xba5b6555	-0.00083692867
4	0x35a1fe73	1.2069489e-06
5	0x3506bd4c	5.0194353e-07
6	0x3905adb5	0.0001274858
7	0x3b315bf8	0.0027062874
8	0x3a0a9f68	0.00052880356
9	0x3ae94169	0.0017795983
10	0x3b254be4	0.0025222236
11	0x34ff812b	4.7591433e-07
12	0x3a51e7fe	0.0008007287
13	0x392cf523	0.00016494519
14	0x3937302a	0.00017470183
15	0x3999c350	0.00029327953
16	0xb905212e	-0.00012696229
17	0xbb5a90f2	-0.0033350554
18	0x3828fbd4	4.0288855e-05
19	0x270abdef	1.925431e-15
20	0x33bffae4	8.939767e-08
21	0x3b1e1f50	0.002412755
22	0xbabab338	-0.0014244085
23	0x3aa5d69d	0.0012652461
24	0x3931d5bf	0.00016959662
25	0x3afef62a	0.0019452025
26	0x35cb5633	1.5149766e-06
27	0xba8cee6c	-0.0010752208
28	0xba1868a2	-0.00058139313
29	0xb9896809	-0.00026208189
30	0x39d4e3ff	0.0004060566
31	0xba74852c	-0.00093277055
32	0x3b1c9b0a	0.0023896121
33	0x3a05a9c9	0.00050988473
34	0xbd2f2d86	-0.042768024
35	0x3048fc33	7.3117973e-10
36	0x375c7c50	1.3141966e-05
37	0x39aab7cd	0.0003256187
38	0x39fe5bc0	0.00048515014
39	0x3a649558	0.0008719764
40	0xb88cb66e	-6.7097004e-05
41	0x3b51bee4	0.0032004649
42	0xba5fe289	-0.0008540531
43	0xba9a7ffa	-0.0011787408
44	0xbba4ff85	-0.005035343
45	0x39494a8c	0.00019196625
46	0x39fa0726	0.00047689042
47	0x399d6e51	0.00030027566
48	0x36ac478a	5.1343277e-06
49	0xbc3ec14c	-0.011642765
50	0xbc3aca69	-0.011400797
51	0x3a7916ae	0.0009501976
52	0x3a7bab11	0.0009600381
53	0xb92d801f	-0.00016546295
54	0xb7c848ec	-2.3875815e-05
55	0x3acb37b4	0.0015504272
56	0x3cf85b7f	0.030317066
57	0xbafdf0b3	-0.0019374102
58	0xb9fe0308	-0.00048448914
59	0xba9fbf8c	-0.0012187823
60	0x3a2b3cb6	0.0006532179
61	0xba7e75d5	-0.00097068894
62	0xbbd6f4aa	-0.006559928
63	0xba78b4bf	-0.00094873825
64	0x37c26961	2.3175673e-05
65	0x384b3f50	4.8457936e-05
66	0x3c5a984b	0.013341974
67	0xba6d4895	-0.0009051648
68	0xb81a586c	-3.679881e-05
69	0xbb16bb80	-0.0022999942
70	0x39aba3b0	0.00032737618
71	0x300fd1b3	5.23211e-10
72	0xbb5bb397	-0.0033523792
73	0xba95fad0	-0.0011442546
74	0xbb8d3a44	-0.0043099243
75	0x38b42c9e	8.5913794e-05
76	0xb87e7cca	-6.0674538e-05
77	0xbb8e4abe	-0.004342406
78	0xba972dc9	-0.0011534031
79	0x232de4bd	9.426786e-18
80	0x365f0854	3.3234437e-06
81	0x3a3f34b9	0.0007293928
82	0x3ac19df5	0.0014771806
83	0xb97cf167	-0.00024122522
84	0xba8d224e	-0.001076767
85	0x3a4ca637	0.00078067504
86	0x34ad57b1	3.2287565e-07
87	0xba960b4a	-0.0011447456
88	0xbc229c07	-0.009924895
89	0xbb384e72	-0.002812293
90	0x3a45ac0e	0.0007540592
91	0xba6df212	-0.0009076904
92	0xbacc224c	-0.0015574186
93	0xba138bcc	-0.00056284363
94	0x367cf579	3.769381e-06
95	0x28c5dd87	2.1967466e-14
96	0x3a233fa6	0.0006227441
97	0x386a26ff	5.5826265e-05
98	0xbbb55dbc	-0.0055348556
99	0xbbe257bd	-0.006907432
100	0x39968b84	0.00028714177
101	0x32cf215f	2.4113147e-08
102	0xba1d3469	-0.00059968844
103	0xba77892f	-0.0009442744
104	0xb9cb35a8	-0.00038759154
105	0xb6e54892	-6.83318e-06
106	0xba17799f	-0.0005778316
107	0xb9abf8a6	-0.0003280092
108	0xbaa476e5	-0.001254764
109	0x371a4710	9.195661e-06
110	0x36d4f181	6.346207e-06
111	0x3a461f8e	0.00075578026
112	0x39ad497c	0.00033051881
113	0xb90e67c4	-0.00013580831
114	0xba5ce040	-0.000842575
115	0x3951a5a2	0.00019993496
116	0x33bf39a8	8.904618e-08
117	0xb8e39df7	-0.00010853627
118	0xbb4cd98e	-0.0031257602
119	0xbab35a96	-0.0013683613
120	0xbba1ead6	-0.0049413247
121	0xbbd095a6	-0.0063654957
122	0xbba1db30	-0.0049394593
123	0xb9cce971	-0.0003908384
124	0x3c5ee1a2	0.0136036
125	0x36e36340	6.7766814e-06
126	0x3a9ea238	0.0012102788
127	0x392e0062	0.00016594076
128	0xbb99f3b9	-0.0046982435
129	0xbac3b764	-0.0014931974
130	0x39decfd5	0.00042497987
131	0x3530c1ee	6.5847314e-07
132	0xbb30b321	-0.0026962238
133	0xba94f16e	-0.0011363456
134	0xbaf6477c	-0.0018789615
135	0xbaa092d3	-0.0012250788
136	0xb7274b3a	-9.971491e-06
137	0x3b772ba9	0.0037715232
138	0x3ad5f136	0.0016322497
139	0x39a1cbe3	0.0003086022
140	0x3a28d3f3	0.00064402743
141	0x3b59d521	0.0033238607
142	0x3afae8ce	0.0019142868
143	0x3a2498be	0.0006278864
144	0x3b3327a3	0.0027336858
145	0x3b9871ec	0.0046522524
146	0x2dc48433	2.2341328e-11
147	0x3312cb18	3.4177987e-08
148	0x36caabb4	6.040058e-06
149	0xb980af8c	-0.00024544855
150	0x3950ebfb	0.00019924335
151	0xbaa08720	-0.0012247302
152	0xbca2b708	-0.019862667
153	0x39d93be9	0.00041434102
154	0x3b2f1e8f	0.0026721095
155	0x3a85a6be	0.0010196788
156	0x3749d79c	1.2030734e-05
157	0x3b0e90db	0.002175382
158	0x34219b76	1.505085e-07
159	0x33e29497	1.05509734e-07
160	0x3af35ed8	0.0018567694
161	0xbab44b72	-0.0013755395
162	0x3b267a81	0.0025402608
163	0x3a5ad55c	0.0008347833
164	0x3c06a5ec	0.00821827
165	0x33c9365b	9.369679e-08
166	0x395ddc78	0.00021158333
167	0x3b2f91a4	0.002678969
168	0x3925dcfe	0.00015817952
169	0x393fd7bb	0.00018295545
170	0x3a587290	0.0008256817
171	0x3b801b14	0.003909478
172	0x3a5d6981	0.0008446202
173	0x25e31b86	3.9396874e-16
174	0xb2a8769b	-1.961171e-08
175	0x3b336e9b	0.0027379158
176	0x39998f23	0.0002928908
177	0x390906f9	0.00013067936
178	0x3afbd949	0.0019214536
179	0x3ba20d2e	0.004945419
180	0x34a03cd0	2.984657e-07
181	0x3b97a046	0.0046272604
182	0x3b0f663a	0.0021881
183	0x3ae552a3	0.0017495941
184	0xb8aea2b8	-8.327275e-05
185	0x3a32c8eb	0.00068201
186	0x3b328945	0.0027242464
187	0x3a11013b	0.00055314944
188	0xbbba77c2	-0.005690546
189	0x2eed39c3	1.0787773e-10
190	0x37ccb8a6	2.4404679e-05
191	0x3c0f4d7a	0.008746499
192	0x3afc18df	0.0019233486
193	0x3af42885	0.0018627798
194	0x3b062dfa	0.0020474182
195	0xbabbe1e4	-0.0014334288
196	0xbba4ebba	-0.0050329836
197	0x3be4d50d	0.0069834054
198	0x3b352fac	0.0027646823
199	0x39136a53	0.00014058621
200	0x3a5d1499	0.000843355
201	0xba5b34bc	-0.0008362045
202	0xbb056d4c	-0.0020359335
203	0x3ad66204	0.0016356115
204	0xbc75aac3	-0.014994326
205	0x3a12ce21	0.00056001736
206	0x3bd26a68	0.006421376
207	0x3b787b67	0.003791535
208	0xbb41ebee	-0.0029590088
209	0x3b9c2002	0.004764558
210	0xbcbf1206	-0.023324024
211	0x3b891e86	0.004184547
212	0x3ba6052f	0.005066536
213	0x3ba5ea10	0.005063303
214	0xb97a3aa3	-0.00023863702
215	0xb90ab7f8	-0.00013229239
216	0x3bbb37d7	0.0057134437
217	0xbb0ce0e5	-0.0021496352
218	0x36137ef1	2.1978597e-06
219	0x372d1365	1.0316119e-05
220	0x3bba4836	0.0056848777
221	0x3b22fb31	0.002486896
222	0x3a0a983e	0.0005286968
223	0x3a0c7a42	0.0005358794
224	0x3a0e2bbb	0.00054233865
225	0xae85125a	-6.0514e-11
226	0xba881bfa	-0.0010384314
227	0xbb056fbb	-0.0020360786
228	0x3b06ce66	0.00205698
229	0xb93bbb67	-0.00017903523
230	0xba2beb85	-0.00065582275
231	0x3af20c9f	0.0018466896
232	0xba7f1781	-0.00097309804
233	0x22160c45	2.0335286e-18
234	0x3528ea30	6.2925665e-07
235	0x3856dcfd	5.1227387e-05
236	0xb8be1eb3	-9.065624e-05
237	0x395eb11d	0.0002123755
238	0xbb1ce025	-0.0023937311
239	0x3af9adc8	0.0019048983
240	0x339ae29a	7.2124024e-08
241	0xb9a7870b	-0.00031953337
242	0x3bc67069	0.006055881
243	0xbb2cf353	-0.002639015
244	0xba8f5803	-0.0010936264
245	0xb902f722	-0.0001248983
246	0xb99fe8e2	-0.00030500354
247	0x387913dd	5.9384725e-05
248	0x35593a94	8.092404e-07
249	0x26b5214a	1.2568421e-15
250	0x39da9d74	0.00041697512
251	0x3c033b9a	0.008009816
252	0x3b4b175d	0.0030989267
253	0x3af58bb1	0.0018733648
254	0xb9000314	-0.00012208178
255	0x30663d8d	8.376098e-10

post_mp.layer_post_mp.model.0.Layer_0.post_layer.0.weight f4 [154]
0	0x3ef1fcb5	0.47263113
1	0x3e1d29d2	0.15347984
2	0x3e4aa389	0.19788946
3	0x3e03ea42	0.12882331
4	0x3df41ae0	0.119191885
5	0x3e500789	0.20315374
6	0x3e38b128	0.1803633
7	0x3efcdb15	0.49385896
8	0x3e81e2da	0.25368387
9	0x3e671636	0.22567067
10	0x3ef486af	0.47759005
11	0x3ed55431	0.41665795
12	0x3e65a1e8	0.22425044
13	0x3df2d89a	0.1185772
14	0x3de9f8cb	0.114244066
15	0x3ef72357	0.4826915
16	0x3ee6497a	0.44977933
17	0x3d813fa7	0.06310969
18	0x3ef1b345	0.47207084
19	0x3ed25a57	0.4108455
20	0x3e916eb9	0.28404787
21	0x3ea4d2ea	0.32192165
22	0x3e204f62	0.15655282
23	0x3f0a2732	0.5396606
24	0x3ef88de9	0.4854577
25	0x3e7f754b	0.24947087
26	0x3eab7f87	0.33495733
27	0x3e844819	0.25836256
28	0x3e8f78bb	0.28021798
29	0x3f08aaff	0.5338592
30	0x3ec804ce	0.39066166
31	0x3bea678a	0.007153456
32	0x3ea932bc	0.3304652
33	0x3eabe089	0.33569744
34	0x3f2d1363	0.67607707
35	0x3f3e37d2	0.74303925
36	0x3e50d98d	0.20395489
37	0x3f3ed825	0.7454856
38	0x3d6001b5	0.054689128
39	0x3ef12583	0.47098932
40	0x3e8a7cb4	0.27048266
41	0x3f03fba5	0.51555854
42	0x3f263ed9	0.6493965
43	0x3f24a5a7	0.64315265
44	0x3f28af18	0.6589217
45	0x3edeef5f	0.43542
46	0x3ec86333	0.39138183
47	0x3eb232a4	0.3480426
48	0x3e2f1eec	0.1710164
49	0x3e4e0b62	0.2012153
50	0x3eb1a7d7	0.34698364
51	0x3e3ad399	0.1824478
52	0x3f34581a	0.7044693
53	0x3f41e7e8	0.75744486
54	0x3f21c93b	0.6319768
55	0x3ee4a3bd	0.44656172
56	0x3f29af9e	0.66283596
57	0x3ec498a2	0.383977
58	0x3f0501f5	0.5195611
59	0x3eef749b	0.4676865
60	0x3eb80481	0.35940936
61	0x3dd171ab	0.102267586
62	0x3e6bb986	0.2301999
63	0x3f47f3b0	0.7810621
64	0x3db65b6a	0.089041546
65	0x3f32e2ef	0.69877523
66	0x3f1ce4b5	0.6128648
67	0x3ea9fdc7	0.3320143
68	0x3baecef1	0.005334728
69	0x3deba5eb	0.11506256
70	0x3f41721e	0.75564754
71	0x3f2fa0f6	0.6860498
72	0x3eff6bb2	0.49886853
73	0x3edff879	0.43744257
74	0x3f336061	0.7006894
75	0x3edb437f	0.42824933
76	0x3ee6ca41	0.45076182
77	0x3e5fdd3a	0.21861735
78	0x3e6321c4	0.2218085
79	0x3e86e287	0.26344702
80	0x3dec469d	0.11536906
81	0x3eafb44c	0.34317243
82	0x3ee7ae89	0.45250347
83	0x3e16e36a	0.14735189
84	0x3e69c85d	0.22830339
85	0x3dfcefdd	0.12350438
86	0x3ebb594a	0.3659156
87	0x3e05151d	0.12996335
88	0x3ed6c0d8	0.41944003
89	0x3d74a629	0.059728775
90	0x3e40a544	0.18813044
91	0x3f1b060d	0.6055611
92	0x3f31ca02	0.69448864
93	0x3e5f0771	0.21780182
94	0x3def2fad	0.11679015
95	0x3f04e35d	0.5190943
96	0x3f2e81c5	0.6816676
97	0x3f188691	0.5958033
98	0x3ec404b1	0.3828483
99	0x3f01a6d1	0.50645167
100	0x3ed04183	0.4067498
101	0x3ebe2efa	0.37145215
102	0x3ec6b053	0.388064
103	0x3e3f79bd	0.18698783
104	0x3ed91986	0.42402285
105	0x3ef2f2b2	0.47450787
106	0x3e3cb3d7	0.18427978
107	0x3e854452	0.26028687
108	0x3e12a4da	0.14320698
109	0x3eb5add3	0.3548418
110	0x3ec57f2e	0.38573593
111	0x3e2bef03	0.16790394
112	0x3f379445	0.71710616
113	0x3ef0bfc9	0.4702132
114	0x3ec5f08e	0.3866009
115	0x3eb26296	0.3484084
116	0x3ed4cd86	0.41563052
117	0x3e910c91	0.283299
118	0x3ebc49b1	0.36774972
119	0x3ec03d5a	0.37546808
120	0x3eb459ed	0.35224858
121	0x3e56edc1	0.20989133
122	0x3d56e002	0.052459724
123	0x3f31d699	0.69468075
124	0x3e34dadd	0.17661615
125	0x3ec17125	0.37781635
126	0x3eb635e9	0.35588005
127	0x3ee91b2c	0.45528543
128	0x3e8910e7	0.26770708
129	0x3f00c985	0.50307494
130	0x3ec2c6a1	0.38042167
131	0x3eaa6aa6	0.3328449
132	0x3ebcd6eb	0.3688272
133	0x3ec69555	0.38785806
134	0x3f1bc954	0.6085408
135	0x3f2a073a	0.66417277
136	0x3efe63a1	0.49685386
137	0x3eec9507	0.4620745
138	0x3e45b1a2	0.19306043
139	0x3f152dee	0.5827321
140	0x3cc63522	0.024195258
141	0x3f501afe	0.81291187
142	0x3e80fe93	0.25194225
143	0x3f2ff92a	0.6873957
144	0x3ecb083c	0.3965472
145	0x3e340120	0.17578554
146	0x3e28b93b	0.1647691
147	0x3f44e5d7	0.7691321
148	0x3de9bcc2	0.11412956
149	0x3df3ed2b	0.119104706
150	0x3f0daf50	0.5534563
151	0x3eaa7b7c	0.33297336
152	0x3e6f3533	0.23360138
153	0x3e1a0415	0.1504062

post_mp.layer_post_mp.model.0.Layer_0.post_layer.0.bias f4 [154]
0	0xbde74cbf	-0.11293935
1	0x3e2e4ef7	0.1702231
2	0x3e53d544	0.20686823
3	0x3e3c9271	0.18415238
4	0x3dba9c01	0.09111787
5	0xbbd3def8	-0.006465789
6	0x3e5b3dd4	0.21410304
7	0xbdd003b3	-0.101569556
8	0xbc50ebdf	-0.012751549
9	0x3e8c7bf7	0.27438328
10	0xbdc8e24e	-0.09808789
11	0xbd2aaaf8	-0.041666955
12	0x3e826c68	0.25473332
13	0x3e937cc9	0.2880614
14	0x3df2d8aa	0.11857732
15	0xbde35256	-0.11099689
16	0xbdc982e9	-0.09839422
17	0x3ea30262	0.31837755
18	0xbdef40d9	-0.116822906
19	0xbdb782ee	-0.0896052
20	0x3e64e836	0.22354206
21	0xbbef36d9	-0.0073002395
22	0x3e6f20dc	0.23352379
23	0x3e5cc251	0.21558501
24	0xbdbf37fc	-0.0933685
25	0xbc8690f2	-0.016426537
26	0x3e5c92c5	0.21540363
27	0xbd724a2c	-0.059152767
28	0x3e6dc220	0.23218584
29	0x3e55b3ee	0.20869419
30	0xbda98e29	-0.08279068
31	0x3e8b6af0	0.27230024
32	0xbd7741ac	-0.060365364
33	0xbc271fa2	-0.010200413
34	0x3e5b296a	0.21402517
35	0x3e4da178	0.20081127
36	0x3bd1f2ab	0.006407102
37	0x3e62964c	0.22127646
38	0x3e4824ed	0.19545336
39	0x3e64f2af	0.22358201
40	0xbc44ccf4	-0.012011755
41	0xbdd7ba94	-0.10533634
42	0x3e543cfd	0.2072639
43	0x3e5af79c	0.21383518
44	0x3e66b2c8	0.22529137
45	0xbdda6f00	-0.10665703
46	0xbda1f49b	-0.07907983
47	0x3e5e5f63	0.21716075
48	0x3e2fa36c	0.17152184
49	0x3bbd4b0b	0.005776768
50	0x3e54f953	0.20798235
51	0x3e7d01c2	0.24707702
52	0x3e5bf773	0.21481113
53	0x3e5cde46	0.21569166
54	0x3e60d45a	0.21956006
55	0xbdcf6761	-0.1012714
56	0x3e5b7580	0.21431541
57	0xbd9e88b9	-0.077409215
58	0x3e737b88	0.23777592
59	0x3e5e4c55	0.21708806
60	0x3e61fdea	0.22069517
61	0x3e37ee0c	0.17961901
62	0x3d9b9804	0.07597354
63	0x3e481a2b	0.19541232
64	0x3e7af748	0.24508393
65	0x3e5d5005	0.21612556
66	0x3e6aa24d	0.22913475
67	0xbd7647a8	-0.06012693
68	0x3e885e22	0.26634318
69	0x3e0cd541	0.13753225
70	0x3e5f7d10	0.21825051
71	0x3e5743a9	0.21021904
72	0x3e6278f6	0.22116455
73	0xbdc74d06	-0.09731488
74	0x3e45a159	0.1929983
75	0x3e5d4ab4	0.21610528
76	0xbdc0d872	-0.09416284
77	0x3bba8c5f	0.005693003
78	0x3b6d0792	0.0036167842
79	0x3e7ae609	0.24501814
80	0x3e5c5911	0.21518351
81	0xbd87036f	-0.06592452
82	0x3e7d4ee0	0.2473712
83	0x3e890b1f	0.26766297
84	0x3e80bd98	0.2514465
85	0x3e73cc18	0.23808324
86	0xbdc480a4	-0.09594849
87	0x3e7699ba	0.2408208
88	0xbdb2c0b1	-0.08728159
89	0x3e9af834	0.3026749
90	0x3c2b97a3	0.010473165
91	0x3e657b63	0.2241035
92	0x3e53a1d1	0.20667197
93	0x3e647524	0.2231031
94	0x3e9069fa	0.28205854
95	0x3e4ef27a	0.20209685
96	0x3e4b2ed4	0.19842082
97	0x3e7cddb8	0.24693954
98	0xbd63565e	-0.055502288
99	0x3e6c37c2	0.23068145
100	0x3e6d49da	0.23172703
101	0xbdadaaf9	-0.08479876
102	0xbd3cc262	-0.046083815
103	0x3c3a8338	0.011383824
104	0xbdab13fa	-0.083534196
105	0xbdce7442	-0.10080768
106	0xbc27ebea	-0.010249117
107	0x3aa5b851	0.0012643432
108	0x3ea22f36	0.31676644
109	0x3e61918e	0.22028181
110	0xbd1a23fc	-0.037631974
111	0x3e811298	0.25209498
112	0x3e5e5424	0.21711785
113	0xbdceedca	-0.101039484
114	0xbdcd9d55	-0.10039774
115	0x3e542438	0.20716941
116	0xbdb35eca	-0.08758314
117	0x3bfe3e5f	0.0077589
118	0xbdb189e9	-0.086688824
119	0xbdcaa209	-0.09894187
120	0xbd8dd996	-0.06926267
121	0xbb3ceacc	-0.0028826473
122	0x3e7783ee	0.24171421
123	0x3e602d31	0.21892239
124	0x3dd1af57	0.102385215
125	0x3e5d84e1	0.2163272
126	0xbd9f84ce	-0.07789002
127	0xbdbed795	-0.09318463
128	0x3c130644	0.008973662
129	0x3e5b7038	0.21429527
130	0xbd78ea98	-0.0607706
131	0xbd900264	-0.07031706
132	0xbd6b10d7	-0.057389107
133	0xbd5ee7b3	-0.054420184
134	0x3e77134a	0.24128452
135	0x3e5ceb02	0.21574023
136	0x3e59f7f8	0.21285999
137	0xbdc935d0	-0.09824717
138	0x3c8891a3	0.016671007
139	0x3e415e17	0.18883549
140	0x3e8ee579	0.2790945
141	0x3e459655	0.19295628
142	0x3e0f8bf6	0.14018235
143	0x3e686b02	0.2269707
144	0xbd819460	-0.063271284
145	0x3e84eb4b	0.25960764
146	0x3e8d17be	0.27557176
147	0x3e4fb610	0.20284295
148	0x3e100f66	0.14068374
149	0x3e75cc80	0.24003792
150	0xbdd9ffd7	-0.10644501
151	0xbda7753b	-0.08176657
152	0x3c6f2dd7	0.014598331
153	0x3e87c4fa	0.2651747

post_mp.layer_post_mp.model.0.Layer_0.post_layer.0.running_mean f4 [154]
0	0x3b34cc76	0.0027587689
1	0x3c19a145	0.009376829
2	0x3b751472	0.003739622
3	0x3b4ad091	0.003094707
4	0x3c0757a1	0.008260638
5	0x3a274c55	0.0006381919
6	0x3c5fb217	0.0136533
7	0xb8588f6a	-5.1631978e-05
8	0x3bb0783c	0.005385427
9	0x3c84673a	0.016162504
10	0xbbb54e5c	-0.005533023
11	0xbc954e4d	-0.018225813
12	0x3c89b512	0.016809974
13	0x3c7fedaf	0.015620633
14	0x3adba98d	0.0016758904
15	0xbab72bc5	-0.0013974836
16	0xbce3df89	-0.02781655
17	0x3b9b6e26	0.0047433553
18	0x3a117004	0.00055480027
19	0x3ac925f1	0.001534639
20	0x38d830a2	0.00010308741
21	0x3bdadedf	0.0066794003
22	0x3c0e1d5d	0.008673993
23	0x3bbcf1a9	0.005766113
24	0x39a51ce6	0.00031492783
25	0x3c8269c8	0.015919581
26	0xbb56843a	-0.0032732622
27	0xbb4ddceb	-0.0031412195
28	0x3c077325	0.008267199
29	0x3d45bf97	0.048278417
30	0x39713d81	0.00023006463
31	0xb98c78b1	-0.00026792803
32	0x3c379f72	0.011207448
33	0xb889c229	-6.568834e-05
34	0x3c8a5dcb	0.016890427
35	0x3c9acd9b	0.018896868
36	0x3baf05e7	0.00534128
37	0xbc54744d	-0.012967181
38	0x3b9488f0	0.004532926
39	0x3ca03261	0.019555273
40	0xbb24e804	-0.0025162706
41	0x3a0184a5	0.0004940725
42	0x3bc67068	0.0060558803
43	0xbc1381e4	-0.009003136
44	0x3c6a670a	0.014306793
45	0xba0d2afc	-0.00053851283
46	0x3b15bc91	0.002284799
47	0x3bad4bc9	0.0052885753
48	0x3ba6178a	0.005068724
49	0x3be7b321	0.0070709144
50	0xbc1fab2d	-0.009745401
51	0x3c8c9794	0.017162122
52	0xbc4a132b	-0.012333672
53	0x3ca24a36	0.019810777
54	0x3bc13858	0.0058966093
55	0xbb518441	-0.0031969699
56	0x3cc649fa	0.024205197
57	0xba10e5a8	-0.00055273855
58	0x3ccfa406	0.025346767
59	0x3c2e3503	0.010632756
60	0xbb70b129	-0.003672669
61	0x3baf6817	0.0053529846
62	0x3bdab560	0.0066744536
63	0xbc080096	-0.008300921
64	0x3bea2a2e	0.0071461415
65	0xbb894687	-0.0041893157
66	0x3cc825fb	0.024432173
67	0x3bfa25c4	0.0076338965
68	0xbb21bd58	-0.0024679508
69	0x3c0d8ea5	0.008639966
70	0x3c63062f	0.013856455
71	0xbb85a628	-0.0040786453
72	0x3c81f9b8	0.015866145
73	0x3b28dfe7	0.0025768222
74	0x3ca01861	0.019542875
75	0x3ccf3376	0.025293093
76	0x3a17970c	0.00057827006
77	0x3baaaef4	0.0052088443
78	0xbb7c3af4	-0.0038487287
79	0x3c398114	0.0113222785
80	0x3c07a415	0.008278866
81	0x3c0815da	0.008305991
82	0x3c7db22c	0.015484374
83	0x3c3f682c	0.011682551
84	0x3c7cbdfe	0.015426157
85	0x3c529995	0.012854
86	0x3a050613	0.00050744525
87	0x3b6f8fac	0.003655414
88	0xbbb0ba3b	-0.005393294
89	0x3a6b9a55	0.0008987536
90	0x3b8f4cf7	0.0043731886
91	0x3ab3f239	0.0013728804
92	0x3d070c8d	0.032970954
93	0x3abab924	0.001424585
94	0x3c87def5	0.016585806
95	0x3c4ad047	0.012378759
96	0x3c844a3c	0.016148679
97	0x3a9a0bc5	0.0011752775
98	0xbc0fcb21	-0.008776457
99	0xbc6ca37f	-0.014443277
100	0xba6fb4ff	-0.0009144097
101	0xbbcf4e4b	-0.006326472
102	0xbbfa0b9f	-0.00763078
103	0x3bcc421a	0.006233466
104	0x3c1b6c4b	0.009486268
105	0x3b172020	0.002305992
106	0xbc0a4233	-0.008438635
107	0xba96be48	-0.00115008
108	0x3c0fc4dd	0.008774963
109	0x3b9b1376	0.0047325445
110	0x3b02d2ca	0.0019962066
111	0x3bd5de56	0.0065267486
112	0xb91f5096	-0.00015193442
113	0xb9a76f38	-0.00031935587
114	0xb8b964e7	-8.840282e-05
115	0xbb9d13a6	-0.004793602
116	0x3cbe2c48	0.023214474
117	0xbb5116e0	-0.0031904504
118	0x3b631013	0.0034647032
119	0x3a6ac823	0.00089562143
120	0xb9537031	-0.00020164323
121	0x3bbeb5cb	0.0058200113
122	0x3b2064c9	0.0024474135
123	0x3b6cd611	0.0036138336
124	0x3a8c9ce8	0.0010727914
125	0x3baa6f89	0.0052012843
126	0x3bbbcb06	0.0057309894
127	0x3bc844ff	0.0061117406
128	0x3aab43cd	0.0013066471
129	0xbbcdba4b	-0.0062783114
130	0xba934903	-0.0011236969
131	0x3c179fb0	0.009254381
132	0x3b8d6cbf	0.004315942
133	0xbbd33043	-0.006444962
134	0x3b55100f	0.0032510792
135	0x3acd2a48	0.001565286
136	0xbc7386c7	-0.014863676
137	0xbaa15285	-0.0012307918
138	0x3b5abc7e	0.003337651
139	0x3c81d679	0.015849339
140	0xbb079452	-0.002068777
141	0x3cc28bb1	0.02374825
142	0xbc20ddf5	-0.009818544
143	0xbc1c83a5	-0.009552871
144	0x3be6e981	0.007046879
145	0x3bc91bf3	0.006137365
146	0x3c2b107e	0.010440944
147	0x3d10e622	0.03537572
148	0x3c46e8e4	0.012140486
149	0x3c0b9bee	0.008521063
150	0x3a766c88	0.00094003277
151	0x3957c5e7	0.00020577722
152	0x3b63ebb1	0.0034777934
153	0x3c154798	0.009111308

post_mp.layer_post_mp.model.0.Layer_0.post_layer.0.running_var f4 [154]
0	0x38241387	3.9118833e-05
1	0x38edcf67	0.00011339672
2	0x396436ad	0.00021764143
3	0x38bfc56a	9.144361e-05
4	0x393d8a03	0.00018075858
5	0x3906d83c	0.0001285979
6	0x38ab1e32	8.15954e-05
7	0x3634e100	2.6953057e-06
8	0x39452769	0.00018802065
9	0x38debfcc	0.0001062151
10	0x38c0194c	9.159985e-05
11	0x3a5bf98f	0.0008391374
12	0x38deb957	0.00010620307
13	0x3866fc9b	5.507153e-05
14	0x38f0944f	0.000114717164
15	0x38125a27	3.4893073e-05
16	0x39bca8d7	0.0003598395
17	0x37d9fbef	2.5985732e-05
18	0x338f775d	6.6806685e-08
19	0x38673ddc	5.5132303e-05
20	0x39aeb188	0.00033320137
21	0x39003675	0.00012227318
22	0x38a96f86	8.079321e-05
23	0x3a087d14	0.00052066264
24	0x33b73924	8.5319954e-08
25	0x391c3188	0.00014895771
26	0x39bc4f3e	0.00035917194
27	0x38dba9a0	0.00010474329
28	0x392148c5	0.00015381265
29	0x3a3c8814	0.0007191908
30	0x33c2529b	9.048855e-08
31	0x36cea064	6.1579503e-06
32	0x38ec9474	0.000112810085
33	0x38deec88	0.00010629842
34	0x39f7a37b	0.00047233314
35	0x3a391ada	0.0007061191
36	0x3936cfb3	0.00017434247
37	0x3a5b0748	0.0008355272
38	0x37781b09	1.47882465e-05
39	0x399bcf6e	0.0002971845
40	0x3935cf8d	0.00017338824
41	0x33c81897	9.3176986e-08
42	0x39eb54f7	0.00044885997
43	0x3ac73eb9	0.0015201188
44	0x39dabe1a	0.00041721837
45	0x3423e294	1.5262987e-07
46	0x38a24dff	7.73929e-05
47	0x39ff12f2	0.00048651505
48	0x38cf4a43	9.8843615e-05
49	0x3932e7a3	0.00017061694
50	0x39d13e71	0.0003991011
51	0x3911e20b	0.00013912485
52	0x3a2929e1	0.0006453079
53	0x3a159ca1	0.00057072385
54	0x3a595548	0.0008290601
55	0x379a6762	1.8406372e-05
56	0x39e15b9f	0.00042983607
57	0x3911505c	0.00013858214
58	0x39c194a6	0.0003692258
59	0x3956f1a5	0.0002049865
60	0x39b84fa6	0.00035154558
61	0x383cbc1d	4.4997887e-05
62	0x398f9f39	0.00027393716
63	0x3a86932d	0.001026725
64	0x3817d2da	3.6197576e-05
65	0x3a02d33f	0.00049905846
66	0x3b39f434	0.0028374316
67	0x38f84b36	0.00011839571
68	0x3720149c	9.541542e-06
69	0x38b9b16f	8.854537e-05
70	0x39e9b773	0.00044577903
71	0x3a3e006e	0.0007247989
72	0x39b0863c	0.00033669348
73	0x3836b4fe	4.3560744e-05
74	0x3a0d4e76	0.0005390415
75	0x39cff5fd	0.00039665392
76	0x3442d9f5	1.814695e-07
77	0x3920c635	0.00015332627
78	0x390bf1c4	0.00013346138
79	0x3913d17c	0.00014097051
80	0x386598e8	5.474026e-05
81	0x38ef4d12	0.000114107635
82	0x398e70a2	0.0002716827
83	0x388c837e	6.7002125e-05
84	0x39039d35	0.00012551698
85	0x388d1a6d	6.728326e-05
86	0x33dd69f2	1.0310386e-07
87	0x388e2fa2	6.77996e-05
88	0x385dcd89	5.2881926e-05
89	0x3821a3c7	3.853792e-05
90	0x39125d55	0.00013958414
91	0x39b1a896	0.00033885677
92	0x3a912798	0.0011074422
93	0x39093848	0.00013086305
94	0x38c780ff	9.513087e-05
95	0x39d0d1d3	0.00039829183
96	0x39c979aa	0.00038428354
97	0x3a4294cc	0.0007422685
98	0x38c786cc	9.514167e-05
99	0x3a6ca932	0.00090278976
100	0x39e3c9f1	0.00043447272
101	0x390899db	0.00013027286
102	0x3920a914	0.00015321776
103	0x38f5ea50	0.000117261545
104	0x39074136	0.00012898896
105	0x3841448c	4.6078625e-05
106	0x390a1bf4	0.00013171119
107	0x38f863be	0.0001184414
108	0x388bdc02	6.669016e-05
109	0x396f9dd6	0.00022851615
110	0x39142072	0.00014126467
111	0x38b4d325	8.6223976e-05
112	0x39c54e8b	0.00037633287
113	0x3508d402	5.097246e-07
114	0x3465607a	2.1362385e-07
115	0x39c6dc85	0.00037929803
116	0x398ed1bc	0.00027240615
117	0x3954ac66	0.00020282119
118	0x340ec300	1.3295721e-07
119	0x3464207f	2.1245977e-07
120	0x38a656c6	7.93166e-05
121	0x3899a4cc	7.326304e-05
122	0x37c0c454	2.2979606e-05
123	0x3a2818d7	0.0006412393
124	0x39096613	0.00013103364
125	0x39a2d120	0.00031054858
126	0x38f4ad16	0.000116670664
127	0x39235041	0.00015574788
128	0x39231c6c	0.0001555548
129	0x3a145c19	0.00056594756
130	0x390ee9c3	0.00013629258
131	0x390d810a	0.00013494879
132	0x392e296d	0.00016609365
133	0x39226399	0.00015486627
134	0x3a10f646	0.00055298617
135	0x3a25112a	0.0006296808
136	0x39f86e1c	0.00047384284
137	0x354fbcf0	7.738845e-07
138	0x394da11f	0.00019610346
139	0x39943586	0.00028268638
140	0x37d9c3d4	2.5959605e-05
141	0x3a1121e8	0.00055363635
142	0x397dd47d	0.00024207118
143	0x3a7a2385	0.0009542036
144	0x39a8f773	0.0003222782
145	0x38a56fd8	7.8886456e-05
146	0x38beeb7f	9.1037706e-05
147	0x3a0f761e	0.0005472618
148	0x388f65ed	6.8377565e-05
149	0x38dc5b64	0.0001050744
150	0x3711c8ac	8.689396e-06
151	0x34aca073	3.215424e-07
152	0x393f1fc4	0.00018227013
153	0x3889cf24	6.571252e-05

post_mp.layer_post_mp.model.1.model.weight f4 [28, 154]
0	0xbd1f5aeb	-0.038905066
1	0x3e20613d	0.15662093
2	0x3e44fa40	0.19236088
3	0x3e17cd47	0.14824401
4	0x3dde17ea	0.10844405
5	0x3d8b08f0	0.06788814
6	0x3e33a4da	0.17543355
7	0xbce1bb68	-0.027555183
8	0x3dc55f5d	0.0963733
9	0x3e7ccd70	0.24687743
10	0x3b8a5ada	0.004222256
11	0x3d840416	0.06446092
12	0x3e85ad34	0.26108706
13	0x3e6bec21	0.23039295
14	0x3dd2ca98	0.10292548
15	0xbd547113	-0.05186565
16	0x3a91b8d0	0.00111177
17	0x3e6a639e	0.22889563
18	0xbd8cf6bc	-0.06882998
19	0x39dd5fc0	0.00042223744
20	0x3e7c616e	0.24646541
21	0x3e0175d5	0.12642606
22	0x3e534630	0.20632243
23	0x3eb3a9ff	0.35090634
24	0xbcc83c7c	-0.024442904
25	0x3de1f870	0.11033714
26	0x3e6fb9b6	0.23410687
27	0x3cd144bb	0.025545469
28	0x3e69a921	0.22818424
29	0x3ea8e2f4	0.32985651
30	0xbcc6b477	-0.024255974
31	0x3e37ca1a	0.1794819
32	0x3d2bbe6e	0.041929655
33	0x3dfa4b16	0.12221353
34	0x3ed29f02	0.41136938
35	0x3ed313e9	0.41226128
36	0x3dd80d76	0.105494425
37	0x3ee02966	0.43781585
38	0x3e0c5926	0.13705882
39	0x3e9a193d	0.3009738
40	0x3dc310d9	0.09524698
41	0xbd5cf164	-0.053941146
42	0x3ebba885	0.36652008
43	0x3ecb10b4	0.3966118
44	0x3ec92654	0.39287055
45	0xbccba5a4	-0.024859257
46	0x3bc0b1fe	0.0058805933
47	0x3e939704	0.28826153
48	0x3e278975	0.1636103
49	0x3df749a0	0.1207459
50	0x3e77eb7e	0.24210927
51	0x3e71d9a2	0.23618177
52	0x3ed54988	0.41657662
53	0x3ee192e9	0.44057396
54	0x3ec0f063	0.376834
55	0xbd051f31	-0.03250045
56	0x3ec964c9	0.39334705
57	0x3d252f5f	0.04032838
58	0x3eb3fb1f	0.35152528
59	0x3e989829	0.2980359
60	0x3e7516e2	0.2393451
61	0x3e102713	0.14077406
62	0x3e17a085	0.14807327
63	0x3ed3ac6f	0.41342494
64	0x3e41387c	0.18869203
65	0x3ed27d44	0.41111195
66	0x3ed090a7	0.4073536
67	0x3d44e77c	0.048072323
68	0x3e27a74b	0.16372411
69	0x3e0ff253	0.14057283
70	0x3eded5ca	0.43522483
71	0x3ec77f08	0.38964105
72	0x3eb0f4cc	0.34561765
73	0xbd153d06	-0.03643515
74	0x3eaa3074	0.33240092
75	0x3e8fbbc4	0.2807294
76	0xbd269a8c	-0.04067473
77	0x3d93e613	0.072216175
78	0x3d8d0a85	0.06886772
79	0x3e887d20	0.26657963
80	0x3e28976d	0.16464014
81	0x3d23aec0	0.039961576
82	0x3eac4a92	0.33650643
83	0x3e5c2c09	0.21501173
84	0x3e82d559	0.25553396
85	0x3e4be772	0.19912508
86	0xbda4e691	-0.080517896
87	0x3e4ba319	0.19886436
88	0x3af2e9cf	0.0018532815
89	0x3e716598	0.23573911
90	0x3dc5e382	0.09662534
91	0x3ebcc0d6	0.36865872
92	0x3ec825f7	0.39091465
93	0x3e63762a	0.22213045
94	0x3e753eaf	0.23949693
95	0x3e97a82a	0.29620486
96	0x3ea4cc03	0.321869
97	0x3ec6624b	0.38746867
98	0x3d8fead2	0.0702721
99	0x3ec2cb30	0.38045645
100	0x3e949608	0.29020715
101	0xbcf46c79	-0.02983688
102	0x3d9068da	0.07051249
103	0x3d3f4425	0.046695847
104	0x3d17af1e	0.03703224
105	0xbce04586	-0.027376901
106	0x3d33e164	0.04391612
107	0x3dbb61fc	0.091495484
108	0x3e8371bf	0.2567272
109	0x3e7d4067	0.24731599
110	0x3d966d35	0.07345048
111	0x3e680c8d	0.22661038
112	0x3eda352d	0.42618695
113	0xbd131b93	-0.03591497
114	0xbd56d7c3	-0.05245186
115	0x3e781985	0.24228485
116	0xbb789bb5	-0.0037934605
117	0x3da65f3a	0.08123632
118	0xbcd743e1	-0.026277484
119	0xbd779fc1	-0.060455088
120	0x3ba0a7b5	0.0049028047
121	0x3d6569a6	0.056008957
122	0x3e2e1e08	0.17003644
123	0x3ec4c80b	0.3843387
124	0x3e1fc33f	0.15601824
125	0x3e82e960	0.25568676
126	0xbb2576f0	-0.0025247894
127	0x3ce38a94	0.02777604
128	0x3d9eff72	0.07763566
129	0x3e9e6f15	0.30944124
130	0x3cfaa87e	0.030597921
131	0x3ce11b3b	0.027478805
132	0x3d436ae6	0.04770937
133	0x3d95a461	0.073067434
134	0x3ed264bf	0.41092488
135	0x3ecd8b35	0.4014527
136	0x3e98d226	0.2984783
137	0xbc7c101e	-0.015384702
138	0x3dd03260	0.10165858
139	0x3e8d6a16	0.2762
140	0x3e45d5e2	0.19319871
141	0x3ed831e5	0.42225567
142	0x3e178250	0.14795804
143	0x3ed88dbd	0.42295638
144	0x3d9f3c06	0.077751204
145	0x3e5b5b4a	0.21421543
146	0x3e899a65	0.26875606
147	0x3ee02acf	0.4378266
148	0x3e140a90	0.14457154
149	0x3e47ca31	0.19510724
150	0xbc931dec	-0.017958604
151	0xbd242510	-0.040074408
152	0x3dc4ff2f	0.09618985
153	0x3e5e3b83	0.2170239
154	0xbbd58b6b	-0.006516864
155	0xbc399430	-0.011326835
156	0xbc7262e3	-0.014794084
157	0xbc522692	-0.012826579
158	0xbbd0e69e	-0.006375148
159	0xbbc8c0e4	-0.00612651
160	0xbc9fdfc3	-0.019515878
161	0xbbf78a7e	-0.0075543514
162	0xbbfc7a3d	-0.0077050016
163	0xbc983625	-0.018580506
164	0xbc3380c0	-0.010955989
165	0xbc369ba4	-0.011145506
166	0xbcc117b0	-0.023570865
167	0xbccaed26	-0.024771284
168	0xbc2a0a8d	-0.010378492
169	0xbc05298c	-0.008127581
170	0xbc145066	-0.009052372
171	0xbc95cc4b	-0.018285891
172	0xbab6885b	-0.0013926135
173	0xbc1583bc	-0.009125646
174	0xbc9725c7	-0.01845063
175	0xbc159679	-0.009130114
176	0xbc80f171	-0.015740128
177	0xbcc4138b	-0.0239351
178	0xbb11cabd	-0.0022246086
179	0xbbecf25f	-0.0072310413
180	0xbca07fa9	-0.019592123
181	0xbbd91081	-0.006624282
182	0xbcbfbe50	-0.023406178
183	0xbcbb9ca3	-0.022901839
184	0xba32474a	-0.0006800784
185	0xbc82c205	-0.015961656
186	0xbbb8383c	-0.005621938
187	0xbc2eb157	-0.010662398
188	0xbce5ff8e	-0.02807596
189	0xbceceef0	-0.028922528
190	0xbbe531d7	-0.0069944668
191	0xbcfdc94e	-0.030979779
192	0xbc6060fd	-0.013694999
193	0xbcd196e1	-0.02558464
194	0xbbf1ca6d	-0.0073788674
195	0xbb75acaf	-0.003748696
196	0xbcccc65a	-0.024996925
197	0xbce79c8f	-0.028272895
198	0xbcd318ca	-0.025768656
199	0xbb4c380e	-0.003116134
200	0xbc1a3dac	-0.009414118
201	0xbc978932	-0.018498037
202	0xbc3cd549	-0.0115254605
203	0xbbd4e7bf	-0.006497353
204	0xbc9bc055	-0.01901261
205	0xbc82be09	-0.015959756
206	0xbcdd97c0	-0.0270499
207	0xbce99f30	-0.02851829
208	0xbccf7bce	-0.02532759
209	0xbb97ce49	-0.0046327454
210	0xbcd52c15	-0.026021997
211	0xbc18a7c1	-0.009317339
212	0xbcda3306	-0.026635658
213	0xbcbdeade	-0.023183282
214	0xbca37c11	-0.01995662
215	0xbc342936	-0.010996154
216	0xbc1a5431	-0.009419487
217	0xbcf7ab86	-0.030233156
218	0xbc6a0b5f	-0.014284938
219	0xbcdfc570	-0.027315825
220	0xbcd79906	-0.026318084
221	0xbc126ffc	-0.008937832
222	0xbc296b24	-0.010340486
223	0xbc0969f1	-0.008387075
224	0xbcf98c5a	-0.030462433
225	0xbce72669	-0.028216558
226	0xbcb72e75	-0.02236102
227	0xbc12e5fa	-0.0089659635
228	0xbce23e52	-0.027617607
229	0xbcc4bf4a	-0.024016995
230	0xbb2d323d	-0.002642765
231	0xbc273caa	-0.0102073345
232	0xbbf060e7	-0.0073357704
233	0xbc974906	-0.018467437
234	0xbc89772e	-0.016780462
235	0xbc0ff85c	-0.008787241
236	0xbcd21f27	-0.02564962
237	0xbc98a336	-0.018632513
238	0xbcb0aa42	-0.02156556
239	0xbc70b2c2	-0.014691057
240	0xbb57a209	-0.0032902977
241	0xbc794355	-0.015213807
242	0xbc095c38	-0.008383803
243	0xbc8fadb2	-0.017538879
244	0xbbe2c922	-0.0069209496
245	0xbcd13c8e	-0.02554157
246	0xbcdd2c3c	-0.026998632
247	0xbc826ad2	-0.015920077
248	0xbc8cc79b	-0.017185023
249	0xbcbf11dc	-0.023323946
250	0xbcdd89ba	-0.027043212
251	0xbcc9cc17	-0.02463345
252	0xbc261211	-0.010136143
253	0xbcc6e98b	-0.024281284
254	0xbcb9181a	-0.0225945
255	0xbc6ae12b	-0.014335911

post_mp.layer_post_mp.model.1.model.bias f4 [28]
0	0x3e53d3ce	0.20686266
1	0xbd9cfd71	-0.076655276
2	0xbd9c8b25	-0.07643727
3	0xbd8e4996	-0.06947629
4	0xbd9e13a2	-0.077185884
5	0xbdd7452b	-0.105112396
6	0xbd94e07b	-0.07269379
7	0xbd9ccce8	-0.0765627
8	0xbda60549	-0.08106477
9	0xbd94b067	-0.072602086
10	0xbdba7df9	-0.091060586
11	0xbd890ae7	-0.066915326
12	0xbd9849c4	-0.07435945
13	0xbd8a82bf	-0.06763219
14	0xbd9bc0bd	-0.07605121
15	0xbdb2f97a	-0.0873899
16	0xbdd361a9	-0.103213616
17	0xbdb51502	-0.088418975
18	0xbd97a7c6	-0.07405047
19	0xbd93c7b5	-0.072158255
20	0xbd9a0bc0	-0.075217724
21	0xbd946771	-0.072462924
22	0xbdda1cd1	-0.106500275
23	0xbd9a420f	-0.07532131
24	0xbda00839	-0.07814068
25	0xbda4c7e0	-0.08045936
26	0xbd9e3cd1	-0.077264436
27	0xbdb190f5	-0.086702265
