predict_omitted/ctrl_embeddings/3/ckpt/999.ckpt (torch_old, 352682 bytes, 25 tensors)

mp.layer0.post_layer.0.weight f4 [154]
0.7485786 0.5747303 0.9823785 0.5724375 -6.839617e-15 -3.5599462e-24 0.7632678 0.87794346
0.975143 0.6037152 0.6794291 -5.7965145e-13 -0.013844407 0.8197454 0.9357088 0.74951714
0.8456129 -0.005923841 0.7503145 -2.204399e-10 1.8261137e-17 0.79152596 0.6417696 0.88348484
-0.0016355641 0.598052 -4.001267e-09 0.44158345 0.8266073 0.6840908 0.95723844 0.87041444
-0.0032155958 0.5741754 1.1284771 -1.6086433e-09 0.36215967 0.8534105 0.80510557 -0.007945128
0.9913107 1.8065245 -0.015939722 0.31953934 2.9749952e-05 1.1260911 0.6158387 0.65891737
0.86026233 0.4916805 0.80189407 1.2685698e-05 0.61267465 -0.032899864 0.0064981324 1.0213169
0.0015484921 -0.01612966 -0.022961134 0.003457403 1.0762284 0.23083569 -0.03358172 -0.041675154
-5.1303215e-07 -7.185692e-26 0.048575163 0.9057132 0.7736057 -1.8303175e-05 1.1039925 -2.4427235e-12
0.0014157582 0.03072501 -0.00065729866 0.66113275 -0.00457468 0.005426254 -0.01268063 -2.5311446e-16
6.2376617e-25 0.00015816723 0.9305256 0.29182735 -0.00092220877 1.16218 5.3312205e-10 -0.0034975896
-0.009422683 0.0022489515 0.9941115 -0.0031105482 -0.0017201869 -0.006753128 -5.0624718e-21 -1.2346026e-19
0.56839955 1.0013752 -0.004489079 -0.0001067304 1.0265919 -2.530183e-10 0.00018401074 -0.008057532
-0.00038291974 -0.043741677 -0.03006264 -0.055507485 0.010733371 -1.3911635e-11 -1.4162294e-10 0.8551837
1.2841158 0.0071034394 -0.0018174209 -5.3462976e-05 -7.8765506e-14 -0.0006074516 0.02818328 -0.021680908
0.0011876444 -0.020097656 0.010079582 0.0027784624 2.6352966 -5.5222855e-14 0.74940974 1.1683012
-0.022666013 0.0004401193 -0.0012284584 4.2071875e-09 0.00052077445 0.008622775 -0.048853643 -0.0040447908
-0.0017295589 0.78267175 1.1895697 1.3003114 1.0824832 1.3335204 0.00042614233 0.7572191
1.0786028 0.31761506 0.69381034 0.16782463 0.50164723 0.0051009334 1.1224141 0.40534875
0.013462845 1.0774219
00000000: d9a2 3f3f 8621 133f 287d 7b3f 448b 123f
00000010: 556c f6a7 00b8 8998 8565 433f e7c0 603f
00000020: f9a2 793f 148d 1a3f 11ef 2d3f 4a28 23ab
00000030: a7d3 62bc d6da 513f 9d8a 6f3f 5be0 3f3f
00000040: 167a 583f c81c c2bb 9c14 403f 5160 72af
00000050: e46d a823 72a1 4a3f 034b 243f 102c 623f
00000060: 6d60 d6ba f019 193f 847b 89b1 3a17 e23e
00000070: 899c 533f 9320 2f3f 940d 753f 7bd3 5e3f
00000080: bfbc 52bb 29fd 123f f071 903f 1b17 ddb0
00000090: fe6c b93e 1c79 5a3f 661b 4e3f 482c 02bc
000000a0: 8ac6 7d3f 323c e73f 0594 82bc a99a a33e
000000b0: 898f f937 c123 903f 9ba7 1d3f cfae 283f
000000c0: 273a 5c3f 8cbd fb3e ee48 4d3f a8d4 5437
000000d0: 3fd8 1c3f 02c2 06bd 49ee d43b 83ba 823f
000000e0: c6f6 ca3a 5922 84bc fd18 bcbc 9995 623b
000000f0: dac1 893f 3160 6c3e fc8c 09bd 91b3 2abd
00000100: 4db7 09b5 bce8 b195 c0f6 463d d2dc 673f
00000110: 060b 463f c589 99b7 a04f 8d3f 32e4 2bac
00000120: f690 b93a 04b3 fb3c 914e 2cba ff3f 293f
00000130: 32e7 95bb b8ce b13b 6bc2 4fbc 1ae9 91a5
00000140: d90b 4117 b1d9 2539 ed36 6e3f 656a 953e
00000150: 62c0 71ba 50c2 943f 218b 1230 d137 65bb
00000160: 9961 1abc 2563 133b 177e 7e3f 57da 4bbb
00000170: e577 e1ba 5849 ddbb 3941 bf9d 93c1 11a0
00000180: a282 113f 102d 803f 2019 93bb 72d4 dfb8
00000190: 5d67 833f 2919 8baf 02f3 4039 bd03 04bc
000001a0: 9ec2 c8b9 792a 33bd ed45 f6bc d15b 63bd
000001b0: 05db 2f3c 6fbc 74ad 50b7 1baf 52ed 5a3f
000001c0: e85d a43f f8c3 e83b 8736 eeba 6f3d 60b8
000001d0: 395d b1a9 633d 1fba 9fe0 e63c 299c b1bc
000001e0: bcaa 9b3a d7a3 a4bc d524 253c dd16 363b
000001f0: b3a8 2840 9eb3 78a9 51d9 3f3f e58a 953f
00000200: 13ae b9bc d0bf e639 3904 a1ba d08e 9031
00000210: 9584 083a 8a46 0d3c c21a 48bd 2a8a 84bb
00000220: 5eb2 e2ba 2d5d 483f d243 983f 9b70 a63f
00000230: cf8e 8a3f ccb0 aa3f db6b df39 1cd9 413f
00000240: a80f 8a3f 719e a23e 8e9d 313f 38da 2b3e
00000250: f46b 003f bb25 a73b 44ab 8f3f df89 cf3e
00000260: 4493 5c3c f6e8 893f

mp.layer0.post_layer.0.bias f4 [154]
-0.19655025 -0.68183637 0.621088 -0.09554842 4.4972537e-12 1.5743408e-12 0.56656593 0.24456424
0.5655943 -0.23672797 -0.5981777 3.4129357e-09 0.019826913 -0.3683256 -0.0058588013 0.91429055
0.1604263 0.010935042 0.41452616 5.992419e-08 1.3299498e-10 -0.038539577 -0.59253 0.44764316
0.0067408443 -0.4597993 2.8160187e-06 -0.8252046 0.060118355 0.08976463 0.13088675 0.10685774
0.0065146647 0.3730116 -0.41665 1.7713529e-07 -0.34741732 0.022038722 0.42292863 0.025246609
0.85432154 0.4403555 0.008734983 -0.078461 0.004385024 0.7062515 -0.06536114 -0.21957631
0.61640465 0.96556604 0.40426677 5.0705054e-05 -0.25342572 0.02265961 0.0007235458 0.63955605
0.0040708478 0.007544511 0.008109093 0.0020639482 0.41170505 0.026781937 0.003064338 -0.0038902697
9.59307e-05 2.3700074e-13 0.046189833 0.19583395 0.060579963 0.0006571094 0.59275705 6.678115e-09
0.008616812 0.00984146 -3.6844212e-05 -0.4129936 0.0001690865 0.0008428498 0.006684335 4.901083e-13
1.8794432e-12 0.0008420936 0.15291156 -0.22954348 0.0052658813 0.543885 -1.7264274e-06 -0.009889094
-0.0040327944 -2.5808095e-05 0.61410517 0.013381778 0.015682371 0.005878987 2.6769573e-18 7.2493386e-11
-0.2160629 0.32847348 -0.00067103136 0.0014922896 0.5485475 2.0006554e-07 0.0010102643 -0.0047600986
0.003826319 -0.00056041515 0.00025263458 0.008249038 0.00341866 1.9646342e-09 -2.2623055e-07 0.30933693
0.52813226 0.0020413606 0.008566986 0.00097291457 1.0460222e-11 0.0024525893 0.010364124 -0.0043031974
0.0036392626 -0.0051304726 0.0027147282 0.0025793263 -0.14945269 2.018237e-12 -0.022992888 0.42556956
0.006559968 0.0021321282 0.0006989003 6.139721e-06 0.0019222758 0.0075781406 -0.0161613 -0.00012133155
0.0049199965 -0.22315277 0.29741994 -0.17859681 -0.023395514 0.07626703 0.00072563346 0.15482539
0.5506911 0.03045628 0.011143807 0.009450094 0.0607514 0.0094372295 0.47913274 -0.051084585
0.006766766 0.69934195
00000000: 7844 49be d48c 2ebf a0ff 1e3f e4ae c3bd
00000010: a93b 9e2c 9b91 dd2b 770a 113f 0c6f 7a3e
00000020: caca 103f d168 72be 2c22 19bf 0089 6a31
00000030: 0d6c a23c 2c95 bcbe 30fb bfbb f20e 6a3f
00000040: cb46 243e e428 333c c63c d43e acaf 8033
00000050: c23a 122f addb 1dbd 0cb0 17bf 7c31 e53e
00000060: 4de2 dc3b d06a ebbe d5fa 3c36 9c40 53bf
00000070: aa3e 763d 85d6 b73d 2d07 063e 3bd8 da3d
00000080: f878 d53b 60fb be3e 2653 d5be 9432 3e34
00000090: afe0 b1be 8d8a b43c 1a8a d83e fad1 ce3c
000000a0: d1b4 5a3f 4776 e13e 2d1d 0f3c 29b0 a0bd
000000b0: 3fb0 8f3b e6cc 343f 10dc 85bd 9dd8 60be
000000c0: b2cc 1d3f 562f 773f 0efc ce3e 23ac 5438
000000d0: 04c1 81be a5a0 b93c 56ac 3d3a f2b9 233f
000000e0: bf64 853b f237 f73b 00dc 043c 4e43 073b
000000f0: 01cb d23e cb65 db3c 0fd3 483b e5f3 7ebb
00000100: 672e c938 686b 852a 8d31 3d3d b288 483e
00000110: b222 783d de41 2c3a edbe 173f 5275 e531
00000120: 872d 0d3c 133e 213c 2c89 1ab8 e673 d3be
00000130: d04c 3139 b1f2 5c3a 4408 db3b 06f4 092b
00000140: 0a41 042c f2bf 5c3a d994 1c3e 720d 6bbe
00000150: 6a8d ac3b 0c3c 0b3f 98b7 e7b5 de05 22bc
00000160: 8825 84bb 767e d8b7 ff35 1d3f 3f3f 5b3c
00000170: 5178 803c 84a4 c03b 4b86 4522 266a 9f2e
00000180: 983f 5dbe ad2d a83e 27e8 2fba ee98 c33a
00000190: 9c6d 0c3f 99d1 5634 d86a 843a 9afa 9bbb
000001a0: fbc2 7a3b d3e8 12ba 0a74 8439 f926 073c
000001b0: 990b 603b 3602 0731 c8e9 72b4 6961 9e3e
000001c0: ad33 073f 59c8 053b 8b5c 0c3c 310b 7f3a
000001d0: a704 382d 9fbb 203b 49ce 293c d601 8dbb
000001e0: b280 6e3b 861d a8bb 95e9 313b ea09 293b
000001f0: 200a 19be 5305 0e2c 955b bcbc 41e4 d93e
00000200: 00f5 d63b 2dbb 0b3b 6836 373a cd03 ce36
00000210: dff4 fb3a 0d52 f83b b464 84bc 6173 feb8
00000220: ec37 a13b 2982 64be 6d47 983e 15e2 36be
00000230: f3a7 bfbc e331 9c3d 7038 3e3a 8c8a 1e3e
00000240: 18fa 0c3f 737f f93c 8494 363c 91d4 1a3c
00000250: 76d6 783d 9c9e 1a3c e350 f53e 123e 51bd
00000260: bfbb dd3b 1308 333f

mp.layer0.post_layer.0.running_mean f4 [154]
12.843584 1.7267048 14.886518 13.716465 2.4981492e-08 -5.8378967e-16 11.254289 1.3874525
3.8632822 14.39698 3.1918156 9.001884e-10 5.9825997 5.2450414 6.798922 15.036554
2.5490785 26.340767 24.409895 1.2874794e-07 2.4490212e-12 12.531118 1.7538918 4.821924
25.603998 3.5080307 2.0534111e-08 19.427002 13.656872 23.858208 17.195753 4.367932
52.54104 49.08112 0.00020736834 3.3136718e-07 12.666734 2.1190379 7.117928 51.421165
3.9917266 4.761097e-05 103.28202 82.62811 117.9891 18.84617 6.312155 76.926285
72.67565 0.0062736967 0.00084804866 11.788182 2.2720451 9.663215 75.48251 4.3176503
0.0028633524 143.84212 133.55319 151.68451 17.314018 3.7737951 47.66065 44.688183
7.2266566e-09 -5.726156e-16 13.35857 1.8863741 6.4578896 46.67746 3.7954614 2.4248084e-10
95.2451 82.832 105.59197 20.635609 6.917729 92.85956 87.73228 9.491698e-09
-3.783331e-16 12.872251 2.19532 10.374828 91.105606 4.421903 3.4619632e-10 137.76437
127.26234 146.60376 23.8947 11.232342 139.74754 134.07803 1.0705275e-07 1.10330866e-13
11.096957 2.4160864 15.448674 137.68039 4.7534275 1.8069672e-08 153.71211 147.68758
158.22665 29.481081 18.394632 131.01534 128.44695 5.1664033e-06 1.2765895e-08 8.967456
2.66005 22.960358 130.2713 4.91766 1.0229036e-06 160.83005 158.19708 162.59111
32.822727 22.926098 114.59368 111.71421 0.00014184897 1.5132312e-06 7.6980352 2.7939692
27.527496 113.72301 4.7178445 3.4642308e-05 162.73073 161.15436 163.6885 164.60898
357.5283 1.8251657 0.6820822 0.8265972 0.92448694 1.0185021 27.162327 24.366756
15.175165 0.00045560236 7.613525e-05 0.00036439553 0.99910384 374.23502 41.667767 1002.84283
112622.23 2.44276
00000000: 527f 4d41 aa04 dd3f 2d2f 6e41 a476 5b41
00000010: e296 d632 1344 28a6 9111 3441 0b98 b13f
00000020: 0440 7740 085a 6641 b546 4c40 2171 7730
00000030: 7571 bf40 61d7 a740 c590 d940 ba95 7041
00000040: 1a24 2340 e4b9 d241 7747 c341 f73d 0a34
00000050: a555 2c2c 767f 4841 877f e03f 344d 9a40
00000060: fdd4 cc41 9383 6040 fd62 b032 806a 9b41
00000070: 8c82 5a41 9cdd be41 e790 8941 19c6 8b40
00000080: 062a 5242 1153 4442 0471 5939 c2e6 b134
00000090: f1aa 4a41 519e 0740 11c6 e340 46af 4d42
000000a0: 7378 7f40 e4b1 4738 6590 ce42 9841 a542
000000b0: 6bfa eb42 f5c4 9641 2cfd c940 42da 9942
000000c0: ef59 9142 9593 cd3b 954f 5e3a 659c 3c41
000000d0: 3069 1140 879c 1a41 0cf7 9642 312a 8a40
000000e0: 15a7 3b3b 95d7 0f43 9e8d 0543 3caf 1743
000000f0: 1c83 8a41 dc85 7140 81a4 3e42 b3c0 3242
00000100: 584e f831 930b 25a6 b4bc 5541 b574 f13f
00000110: 08a7 ce40 b8b5 3a42 d7e8 7240 254e 852f
00000120: 7e7d be42 fca9 a542 172f d342 ba15 a541
00000130: 095e dd40 18b8 b942 ed76 af42 ee10 2332
00000140: 1c18 daa5 bdf4 4d41 1f80 0c40 4cff 2541
00000150: 1236 b642 3b80 8d40 cd52 be2f aec3 0943
00000160: 5186 fe42 909a 1243 5828 bf41 acb7 3341
00000170: 5fbf 0b43 fa13 0643 dfe4 e533 6a71 f829
00000180: 238d 3141 29a1 1a40 c52d 7741 2eae 0943
00000190: 141c 9840 a137 9b32 4db6 1943 05b0 1343
000001a0: 063a 1e43 41d9 eb41 3528 9341 ed03 0343
000001b0: 6b72 0043 115b ad36 0051 5b32 b37a 0f41
000001c0: 423e 2a40 d0ae b741 7445 0243 795d 9d40
000001d0: b34a 8935 7ed4 2043 7432 1e43 5397 2243
000001e0: 794a 0342 a668 b741 f72f e542 ad6d df42
000001f0: 4bbd 1439 3a1a cb35 4e56 f640 64d0 3240
00000200: 5038 dc41 2e72 e342 95f8 9640 e54c 1138
00000210: 11bb 2243 8427 2143 42b0 2343 e69b 2443
00000220: 9fc3 b243 089f e93f f09c 2e3f e09b 533f
00000230: 2dab 6c3f 475e 823f 724c d941 1eef c241
00000240: 7acd 7241 eadd ee39 cdaa 9f38 570c bf39
00000250: 45c5 7f3f 151e bb43 cbab 2642 f1b5 7a44
00000260: 1df7 db47 2e56 1c40

mp.layer0.post_layer.0.running_var f4 [154]
100.01805 0.2531186 2.2228794 4.506062 2.2757657e-12 2.9049947e-31 84.33016 0.17404039
0.521073 2.0686529 0.3977103 2.9842135e-15 1.6679461 1.5126203 2.4386628 111.74711
0.2538002 14.112356 16.691475 1.1226792e-11 9.866653e-21 96.022736 0.13432874 0.68416584
13.814738 0.48607454 5.534057e-13 58.48315 33.867733 80.74809 126.347946 0.6341852
209.20049 188.60933 7.166645e-06 3.7518502e-11 110.18427 0.11767384 2.112818 198.60861
1.2112112 3.8496407e-07 10093.427 7640.2305 11339.901 113.31294 2.024703 895.7809
813.67096 0.0020346898 0.00033023692 90.110916 0.17396586 6.185859 860.0098 2.3377018
0.00064266304 19558.125 19470.959 19572.281 120.10745 4.862506 1161.2671 1129.4952
4.6966624e-13 2.2661262e-31 107.73669 0.2712238 6.7916346 1144.8405 1.2251524 5.281254e-16
21975.066 22246.688 21897.863 144.35204 26.958422 5573.7393 5406.5024 6.6909705e-13
1.1475681e-31 99.13416 0.22678035 32.885517 5500.2876 2.544202 8.718424e-16 21242.957
21788.992 20862.146 167.37045 83.229126 13792.091 13472.17 8.200136e-12 1.0637417e-23
62.11555 0.19921587 100.16743 13635.955 3.5352104 3.9235236e-13 20330.777 20758.219
20003.764 331.5309 248.80324 12453.212 12292.553 3.5624668e-09 4.7798315e-15 37.201763
0.4237566 274.0615 12384.68 5.237411 9.983318e-11 19798.006 20019.148 19645.598
498.88382 380.02374 9540.458 9330.776 5.3855024e-07 2.8426204e-11 23.90961 0.9348529
433.21417 9432.211 5.930824 1.4719415e-08 19615.805 19755.602 19530.957 19431.098
76636.734 1.6711799 0.07858651 0.12682542 0.18690887 0.25039703 440.28882 319.17044
64.33397 0.00045450125 7.586671e-05 0.00036341895 0.0008924129 78525.44 809.5227 1.7441469e+06
5.8454925e+10 7.7209215
00000000: 3e09 c842 c398 813e a843 0e40 a931 9040
00000010: 8d24 202c 818b bc0c 0ba9 a842 a537 323e
00000020: 0a65 053f cf64 0440 afa0 cb3e 0609 5727
00000030: 427f d53f 8b9d c13f 0d13 1c40 857e df42
00000040: 1af2 813e 36cc 6141 2488 8541 fa80 452d
00000050: 3560 3a1e a40b c042 798d 093e 7e25 2f3f
00000060: 2b09 5d41 c3de f83e 15c5 1b2b bfee 6942
00000070: 8f78 0742 067f a142 26b2 fc42 f659 223f
00000080: 5333 5143 fd9b 3c43 0379 f036 1402 252e
00000090: 595e dc42 fbfe f03d 6938 0740 ce9b 4643
000000a0: f808 9b3f 0fad ce34 b5b5 1d46 d8c1 ee45
000000b0: 9b2f 3146 3aa0 e242 bc94 0140 faf1 5f44
000000c0: f16a 4b44 6e58 053b a623 ad39 ca38 b442
000000d0: 1b24 323e 8ff2 c540 a100 5744 e89c 1540
000000e0: 6378 283a 40cc 9846 eb1d 9846 90e8 9846
000000f0: 0437 f042 a699 9b40 8c28 9144 d92f 8d44
00000100: 0533 042b 7b14 930c 2f79 d742 d9dd 8a3e
00000110: 1255 d940 e51a 8f44 cbd1 9c3f c738 1826
00000120: 22ae ab46 60cd ad46 ba13 ab46 1f5a 1043
00000130: d9aa d741 ea2d ae45 05f4 a845 8655 3c2b
00000140: 7ef6 140c b144 c642 1c39 683e c58a 0342
00000150: 4de2 ab45 35d4 2240 9d4a 7b26 eaf5 a546
00000160: fc39 aa46 4bfc a246 d65e 2743 5075 a642
00000170: 5d80 5746 ae80 5246 2142 102d f0c1 4d19
00000180: 5376 7842 3fff 4b3e b955 c842 d20f 5546
00000190: e340 6240 efdf dc2a 8ed5 9e46 702c a246
000001a0: 8747 9c46 f5c3 a543 a1cd 7843 d994 4246
000001b0: 3612 4046 94cf 7431 2a36 ac27 9bce 1442
000001c0: a0f6 d83e df07 8943 b882 4146 df98 a740
000001d0: 1689 db2e 03ac 9a46 4c66 9c46 327b 9946
000001e0: 2171 f943 0a03 be43 d511 1546 1bcb 1146
000001f0: e490 1035 1f0a fa2d e246 bf41 8552 6f3f
00000200: 6a9b d843 d860 1346 4fc9 bd40 ace0 7c32
00000210: 9c3f 9946 3457 9a46 ea95 9846 32ce 9746
00000220: 5eae 9547 39e9 d53f f7f1 a03d 86de 013e
00000230: 0a65 3f3e 0a34 803e f824 dc43 d195 9f43
00000240: feaa 8042 204a ee39 a11a 9f38 4489 be39
00000250: d1f0 693a b85e 9947 7461 4a44 97e8 d449
00000260: f6c2 5951 ca11 f740

post_mp.layer_post_mp.model.0.Layer_0.layer.model.weight f4 [154, 154]
-0.048406012 -0.18834181 -0.18415295 -0.2697837 -2.0590064e-12 -9.317282e-13 0.30591986 0.20036016
-0.1477852 -0.1481942 0.25589597 -2.0671238e-09 0.002474129 -0.004687893 -0.24253078 0.0724923
-0.18107459 0.00027472086 0.4296033 -3.4782634e-08 -8.0544356e-11 -0.2894444 0.08226665 -0.052245036
-0.0005613826 -0.0030569425 -1.3835281e-06 0.033436373 -0.087771915 0.15656736 0.2921066 0.013230474
-0.00014738415 0.15314123 0.122378826 -1.0280995e-07 -0.017730912 0.3097281 0.0035707892 0.0008322161
0.08813645 -0.011753049 0.0035605095 0.034868103 -0.0019485317 0.037254296 -0.011986589 0.027077103
-0.09462787 -0.1617791 -0.021526711 -8.257972e-06 -0.27690375 -0.004767067 0.0022501138 0.13933252
-0.0011051178 0.0016628205 -0.006052206 0.00095555215 -0.06884519 0.05039174 0.018919535 0.024786578
-5.857524e-05 -1.5340371e-13 0.0020082342 -0.08563154 -0.16302043 -0.00021684014 -0.17706737 -3.918043e-09
0.0006938533 0.0183182 9.095667e-05 -0.09329436 0.002733963 0.00217765 0.0005772036 -2.533126e-13
-1.1760653e-12 -0.00010760572 -0.19229922 -0.036514018 -0.00045199218 0.1253733 -1.8918521e-06 0.00081501773
0.008131908 0.0012450457 -0.09165898 -0.0040899725 -0.0051541054 -0.00014152007 -1.4245913e-18 -3.512968e-11
-0.031142917 0.07321397 0.0026590175 -0.0005237837 -0.07076268 -1.07506864e-07 -0.00030946024 0.0056514023
-0.0009961642 0.024322562 0.012986269 0.022205682 0.0054071243 -1.0074527e-09 -1.773086e-07 -0.07665165
-0.17894888 0.004642478 -0.00209002 -0.00020595118 -7.0639735e-12 -0.00053064927 0.0013461417 0.010454125
-0.0004058714 0.013564878 0.0066405674 0.0011356995 -0.0072421394 -1.0360249e-12 -0.03839036 -0.051615745
0.004872204 -0.00052702916 -0.00043490867 -2.7271183e-06 -0.00057056785 0.0054550515 0.031062316 0.0017166461
-0.0018545351 -0.011385692 -0.11676187 -0.22799216 0.019056777 0.16156206 -0.00028325434 -0.07619934
-0.065625675 -0.016334785 0.026561884 0.019727683 0.027827809 0.0046143727 -0.10176806 0.015241685
0.0069293687 0.63397306 0.083657034 0.11241478 0.20164803 0.003696171 4.534923e-13 -4.1451773e-14
0.2171547 0.208979 0.28755823 -0.20925818 -0.3288859 1.0465262e-10 -0.0076235007 -0.109248
0.4035251 0.11396431 -0.4316029 -0.00028629624 -0.22878975 4.6323068e-10 8.7138597e-13 0.06546037
-0.0332166 0.10622034 0.00012045309 -0.2201585 3.6522053e-07 0.08246615 -0.17160901 -0.022082625
0.22889432 0.037013832 9.650165e-05 0.063403904 0.21962136 1.2987141e-08 0.18082419 0.21818459
-0.04851148 0.0029982661 -0.2882445 0.081754476 0.001513944 0.022638772 0.00047948083 -0.007836668
-0.19330741 0.09750248 0.21659191 -0.023176916 -0.027879098 -4.564176e-06 0.18551455 -0.0019844384
0.00070013606 -0.2128939 0.0005568429 -0.0008577507 0.0033808604 0.00077662343 0.11936303 -0.012637047
-0.010447822 -0.0056637 5.454898e-06 -1.2763758e-15 0.00718017 -0.008483375 0.23098436 2.440473e-05
-0.120314986 6.4797515e-11 0.001059559 0.0012753969 -0.00016613034 -0.07770364 0.0028200308 0.00024471022
-0.0046632565 3.3005384e-14 -9.973127e-14 -0.00014202758 -0.030356316 -0.00072259334 -0.000630828 0.28692487
1.4472376e-07 0.0025659604 0.0077095944 -5.8774825e-05 -0.10753971 -0.0029560828 -0.008713069 -0.0031019389
4.09451e-20 1.0856612e-11 0.18348666 0.36138928 -0.0010995355 -0.00011496848 0.26780874 1.8920606e-08
00000000: 6245 46bd addc 40be 9792 3cbe 1721 8abe
00000010: c3e3 10ac 0c21 83ab 87a1 9c3e 372b 4d3e
00000020: 0155 17be 38c0 17be cc04 833e 3a0d 0eb1
00000030: ff24 223b e69c 99bb fd59 78be d876 943d
00000040: 9e6b 39be 6908 9039 f7f4 db3e e963 15b3
00000050: 711e b1ae 0e32 94be 6b7b a83d e4fe 55bd
00000060: c029 13ba fc56 48bb aab1 b9b5 94f4 083d
00000070: c3c1 b3bd 3253 203e ff8e 953e a1c4 583c
00000080: 228b 1ab9 0ed1 1c3e c0a1 fa3d 5ec8 dcb3
00000090: 6b40 91bc ae94 9e3e e703 6a3b 1429 5a3a
000000a0: e280 b43d dc8f 40bc 7057 693b dbd1 0e3d
000000b0: e065 ffba f697 183d 6663 44bc cdd0 dd3c
000000c0: 42cc c1bd 6ca9 25be c958 b0bc b88b 0ab7
000000d0: 54c6 8dbe 0e35 9cbb a576 133b 2fad 0e3e
000000e0: 9ad9 90ba fff2 d93a 9551 c6bb 057e 7a3a
000000f0: b5fe 8cbd 9267 4e3d 24fd 9a3c 390d cb3c
00000100: afae 75b8 9cb7 2caa 949c 033b 975f afbd
00000110: d4ee 26be 955f 63b9 2651 35be 789f 86b1
00000120: b5e3 353a 0d10 963c febf be38 1d11 bfbd
00000130: 4a2c 333b e8b6 0e3b 7a4f 173a 319a 8eaa
00000140: 3884 a5ab 62aa e1b8 16ea 44be b98f 15bd
00000150: 5df9 ecb9 dc61 003e 8beb fdb5 eaa6 553a
00000160: b23b 053c cd30 a33a b4b7 bbbd 2d05 86bb
00000170: c5e3 a8bb 0165 14b9 8a3b d2a1 8180 1aae
00000180: 6e1f ffbc 35f1 953d e942 2e3b 874e 09ba
00000190: 06ec 90bd 86de e6b3 0d3f a2b9 662f b93b
000001a0: b991 82ba 1c40 c73c 5cc4 543c b1e8 b53c
000001b0: 3f2e b13b 9776 8ab0 3862 3eb4 8afb 9cbd
000001c0: 603e 37be ee1f 983b b8f8 08bb 99f4 57b9
000001d0: 9e8a f8ac 451b 0bba 0571 b03a c747 2b3c
000001e0: 23cb d4b9 393f 5e3c 1e99 d93b c0db 943a
000001f0: 784f edbb bbce 91ab 363f 1dbd 086b 53bd
00000200: 02a7 9f3b 5428 0aba 7404 e4b9 8903 37b6
00000210: 2992 15ba 4ac0 b23b 6676 fe3c 1601 e13a
00000220: df13 f3ba 0e8b 3abc d920 efbd c776 69be
00000230: f51c 9c3c 8670 253e c181 94b9 660e 9cbd
00000240: c166 86bd 87d0 85bc 4f98 d93c f39b a13c
00000250: 25f7 e33c 2a34 973b c66b d0bd 43b8 793c
00000260: c20f e33b 0f4c 223f 6154 ab3d b839 e63d
00000270: d27c 4e3e 763b 723b 214b ff2a a4ae 3aa9
00000280: cd5d 5e3e 97fe 553e d53a 933e c747 56be
00000290: bc63 a8be 3022 e62e 8fce f9bb 6abd dfbd
000002a0: d89a ce3e 1f66 e93d 0efb dcbe 081a 96b9
000002b0: dc47 6abe eca9 fe2f fa45 752b 1610 863d
000002c0: 210e 08bd 0d8a d93d c39b fc38 3b71 61be
000002d0: 8713 c434 03e4 a83d 46ba 2fbe 9fe6 b4bc
000002e0: 4663 6a3e d19b 173d ee60 ca38 e8d9 813d
000002f0: 6ce4 603e 0d1e 5f32 fa29 393e c86b 5f3e
00000300: f9b3 46bd 8f7e 443b c894 93be e46e a73d
00000310: 886f c63a f274 b93c d462 fb39 5e65 00bc
00000320: 61f2 45be 61af c73d 45ca 5d3e 84dd bdbc
00000330: b562 e4bc f925 99b6 87f7 3d3e 5a0d 02bb
00000340: 5689 373a dc00 5abe 18f9 113a adda 60ba
00000350: 6d91 5d3b 5196 4b3a 9b74 f43d 9e0b 4fbc
00000360: 572d 2bbc 8f96 b9bb 3809 b736 f5f1 b7a6
00000370: a247 eb3b dbfd 0abc 2a87 6c3e c2b8 cc37
00000380: b467 f6bd c27d 8e2e e7e0 8a3a 382b a73a
00000390: 4633 2eb9 1623 9fbd 44d0 383b 734c 8039
000003a0: 3bce 98bb 9ea4 1429 2a93 e0a9 3ded 14b9
000003b0: cfad f8bc 6b6c 3dba 275e 25ba d1e7 923e
000003c0: 5d65 1b34 ac29 283b c4a0 fc3b fd84 76b8
000003d0: c83d dcbd d7ba 41bb 43c1 0ebc e649 4bbb
000003e0: 975b 411f d5fd 3e2d ede3 3b3e 0408 b93e
000003f0: 4a1e 90ba 3c1b f1b8 3a1e 893e da86 a232

post_mp.layer_post_mp.model.0.Layer_0.post_layer.0.weight f4 [154]
0.81345123 0.87422156 0.9059282 0.99411726 0.72558945 0.9104025 0.94322705 0.9122294
0.91742116 0.91784185 0.85788554 0.85073483 0.7993183 0.8341355 1.0633508 0.93709254
0.8538125 0.91868114 1.007693 0.826713 0.8113594 0.8404168 0.9968384 0.89644164
0.71480566 0.8908166 0.9083854 0.9576606 0.9049197 0.8601404 0.9178653 0.87487924
0.72463024 1.0474858 0.9341024 0.93417245 0.9703301 0.85742337 0.85478073 0.8498131
0.9232655 0.92655116 1.0922552 0.95609593 1.0234877 1.0171958 0.94713837 0.71804744
0.7731045 0.88319355 0.8645349 0.9070236 1.0238327 0.9116059 0.83854246 0.9765811
0.8989458 0.87295425 0.96853304 0.93876374 0.8949974 0.8600953 0.88121504 0.81441164
0.80987096 0.97633964 0.79666585 0.91875285 0.90852374 0.7983547 0.957969 1.0643754
0.87432235 0.9417438 0.948453 0.867511 0.82776123 0.9177524 0.72118104 0.9998973
0.76501054 0.64264244 0.8524604 1.1048129 0.98397267 0.9209921 0.9148525 1.0062201
0.80859816 0.9274988 0.92934364 0.90423477 0.86555296 0.84952086 0.90363586 0.9313901
0.9132047 0.95558816 0.9574332 1.070876 1.0224094 1.0023602 1.0665675 0.8755308
0.8257147 0.9345716 0.6467031 0.8833143 1.0109369 1.1178061 0.95915955 0.90489197
0.7756818 0.91127557 0.8932552 0.8728833 0.7758889 0.86365736 0.84126383 0.9976587
0.9552468 0.7436983 0.9839509 1.0443598 0.9181135 0.86564964 0.9732425 0.8001748
0.7920327 0.83587396 1.0747801 0.97199535 0.9474821 0.8258529 0.7318253 0.98768854
1.0618726 0.96864057 0.9389971 1.0256907 0.90382874 0.91431427 0.9089536 0.92220354
0.9875995 0.9317912 0.97132313 1.0250814 0.8864246 0.9387937 0.9557881 0.8703295
0.9639188 1.1358516
00000000: 573e 503f fccc 5f3f e9ea 673f 787e 7e3f
00000010: 3bc0 393f 2310 693f 5477 713f de87 693f
00000020: 1ddc 6a3f aff7 6a3f 639e 5b3f c2c9 593f
00000030: 20a0 4c3f e789 553f e11b 883f 4ce5 6f3f
00000040: 7593 5a3f b02e 6b3f 16fc 803f 77a3 533f
00000050: 40b5 4f3f 8e25 573f cd30 7f3f 337d 653f
00000060: 81fd 363f 8f0c 643f f28b 683f 3f29 753f
00000070: d1a8 673f 2932 5c3f 38f9 6a3f 16f8 5f3f
00000080: 5e81 393f 0414 863f 5621 6f3f ed25 6f3f
00000090: 8e67 783f 1980 5b3f e9d2 5a3f 5a8d 593f
000000a0: 215b 6c3f 7532 6d3f 05cf 8b3f b4c2 743f
000000b0: a501 833f 7933 823f a977 723f f5d1 373f
000000c0: 2dea 453f f918 623f 2952 5d3f b332 683f
000000d0: f30c 833f 015f 693f b8aa 563f 3801 7a3f
000000e0: 5021 663f ee79 5f3f c8f1 773f d252 703f
000000f0: 8d1e 653f 352f 5c3f 4f97 613f 487d 503f
00000100: b453 4f3f 65f1 793f 4bf2 4b3f 6333 6b3f
00000110: 0395 683f f960 4c3f 753d 753f 743d 883f
00000120: 97d3 5f3f 1f16 713f d1cd 723f 3315 5e3f
00000130: 29e8 533f d2f1 6a3f 529f 383f 45f9 7f3f
00000140: bbd7 433f 3784 243f d83a 5a3f 826a 8d3f
00000150: a2e5 7b3f 23c6 6b3f c633 6a3f d2cb 803f
00000160: 4a00 4f3f 9070 6d3f 77e9 6d3f ee7b 673f
00000170: e194 5d3f 337a 593f ae54 673f 956f 6e3f
00000180: c9c7 693f 6da1 743f 581a 753f 7712 893f
00000190: 50de 823f 574d 803f 4985 883f c922 603f
000001a0: 0a62 533f 1640 6f3f 568e 253f e320 623f
000001b0: 6166 813f 4514 8f3f 7b8b 753f 00a7 673f
000001c0: 1593 463f 5b49 693f 5fac 643f 4875 5f3f
000001d0: a8a0 463f a618 5d3f 115d 573f 9066 7f3f
000001e0: 0e8b 743f 0363 3e3f 35e4 7b3f 95ad 853f
000001f0: 7d09 6b3f 379b 5d3f 6c26 793f 41d8 4c3f
00000200: a8c2 4a3f d6fb 553f 6592 893f b0d4 783f
00000210: 308e 723f 186b 533f e758 3b3f 28d9 7c3f
00000220: 71eb 873f d4f8 773f 1d62 703f d549 833f
00000230: 5261 673f 8010 6a3f 2fb1 683f 8815 6c3f
00000240: 52d3 7c3f de89 6e3f a2a8 783f de35 833f
00000250: b9ec 623f c954 703f 87ae 743f eacd 5e3f
00000260: 62c3 763f 9663 913f

post_mp.layer_post_mp.model.0.Layer_0.post_layer.0.bias f4 [154]
0.6117973 -0.21288358 0.41211978 -0.16916348 -0.25420657 0.017078366 0.36032298 0.3119654
0.37896985 0.2787203 -0.15033899 0.41876307 -0.055478685 0.03962858 0.11979167 0.1492943
-0.062632985 -0.040813442 0.5992722 -0.6902397 0.08981228 -0.09463028 0.3385681 0.23618804
-0.2167459 0.34040272 0.007725951 -0.24954274 -0.058847997 -0.4724415 -0.1798796 0.034895957
-0.20512609 -0.065117255 0.4746895 0.17384852 0.15142636 -0.029034693 0.31949842 -0.4654868
-0.05210679 -0.00023597741 0.3800047 0.37576976 -0.13947219 0.46559715 0.06943353 0.14881217
0.28112158 -0.2966087 0.007975963 -0.35021654 0.1850272 0.1527299 -0.4789831 -0.20591004
0.38568985 0.30713367 -0.28012964 0.25870025 0.011952823 0.018568207 -0.22948465 -0.25417975
-0.008882369 0.35078442 0.23067483 0.10061129 0.15204431 0.4124939 -0.008123285 0.13990247
0.16738932 0.3315017 0.06986154 0.24022123 -0.14464867 -0.08280006 -0.038664035 -0.10422076
0.010629044 -0.07002501 0.5480759 0.31721666 0.29121956 0.50795454 0.15258336 0.74928707
-0.31021994 0.29430687 0.051347986 0.4355333 0.22754095 0.4370559 0.004105853 0.13931035
0.0762757 0.20539716 0.22161287 0.09265548 0.22470887 0.12031541 0.38516286 0.24406967
0.29893357 0.034179542 0.03130987 0.21929595 0.40362176 0.44839773 0.22041808 0.13062082
0.15908097 0.25503334 -0.25761047 0.19141392 0.38310975 0.3131221 -0.1583897 -0.04323816
0.018554844 0.41495386 0.16755918 0.26233888 -0.25062886 0.42363945 0.39625412 0.3681799
0.045500737 0.24532266 0.29209965 0.40481916 0.43920442 0.10244696 0.28192973 0.49729064
0.2178811 0.21244046 -0.009173245 0.2040676 0.115632206 0.11632397 -0.3540048 0.15292895
-0.035619628 0.005987243 0.24002947 0.53933954 0.42271498 0.11277673 0.31962544 -0.30771357
0.2972405 0.3902105
00000000: bf9e 1c3f 27fe 59be 5d01 d33e 3139 2dbe
00000010: 5d27 82be eee7 8b3c 417c b83e eeb9 9f3e
00000020: 5608 c23e 6db4 8e3e 77f2 19be 1d68 d63e
00000030: 9e3d 63bd 9451 223d 5655 f53d 9be0 183e
00000040: b945 80bd ff2b 27bd e769 193f 8db3 30bf
00000050: 80ef b73d 85cd c1bd cc58 ad3e 47db 713e
00000060: a3f2 5dbe 4449 ae3e f929 fd3b 2288 7fbe
00000070: 990a 71bd dae3 f1be 5c32 38be 10ef 0e3d
00000080: 930c 52be 325c 85bd 810a f33e 5905 323e
00000090: 830f 1b3e 2ada edbc 4c95 a33e 4954 eebe
000000a0: ee6d 55bd b470 77b9 fa8f c23e e564 c03e
000000b0: ccd1 0ebe c062 ee3e 2b33 8e3d 3862 183e
000000c0: 2bef 8f3e 18dd 97be 9dad 023c 954f b3be
000000d0: c577 3d3e 3a65 1c3e 463d f5be 15da 52be
000000e0: 2479 c53e a040 9d3e 276d 8fbe 5c74 843e
000000f0: c6d5 433c 5a1c 983c 06fe 6abe d923 82be
00000100: 5b87 11bc 049a b33e 0636 6c3e 4b0d ce3d
00000110: 81b1 1b3e 6732 d33e 8717 05bc 9842 0f3e
00000120: 1b68 2b3e 97ba a93e 9113 8f3d 8efc 753e
00000130: c81e 14be 1493 a9bd 2e5e 1ebd b271 d5bd
00000140: 7125 2e3c 4669 8fbd b44e 0c3f 396a a23e
00000150: bb1a 953e 4f09 023f d03e 1c3e 47d1 3f3f
00000160: 26d5 9ebe 64af 963e 4452 523d 38fe de3e
00000170: 7f00 693e cac5 df3e 648a 863b 5fa7 0e3e
00000180: 6f36 9c3d a253 523e 7cee 623e 28c2 bd3d
00000190: 151a 663e ed67 f63d 1134 c53e 66ed 793e
000001a0: d20d 993e d9ff 0b3d c73e 003d 1e8f 603e
000001b0: 83a7 ce3e 6394 e53e 47b5 613e 77c1 053e
000001c0: 1fe6 223e bb93 823e 85e5 83be 0302 443e
000001d0: f626 c43e 8a51 a03e e930 22be 7f1a 31bd
000001e0: 5400 983c d574 d43e a294 2b3e 4851 863e
000001f0: 6d52 80be 45e7 d83e d2e1 ca3e 1382 bc3e
00000200: fb5e 3a3d dd35 7b3e 168e 953e 7544 cf3e
00000210: 67df e03e b6cf d13d 1859 903e e19c fe3e
00000220: 391c 5f3e fe89 593e 614b 16bc 19f7 503e
00000230: 94d0 ec3d 433b ee3d 1e40 b5be 6899 1c3e
00000240: e3e5 11bd a230 c43b 49ca 753e 2812 0a3f
00000250: 196e d83e 7cf7 e63d f2a5 a33e a28c 9dbe
00000260: e82f 983e acc9 c73e

post_mp.layer_post_mp.model.0.Layer_0.post_layer.0.running_mean f4 [154]
-0.08115538 0.19219357 -0.2394413 -0.326583 -0.037924785 0.06243751 -0.05695278 0.060596
-0.15856582 0.13954617 -0.38609678 0.13159758 -0.05590158 0.043718718 -0.12882413 -0.088205546
0.03984597 0.098364055 -0.18357454 -0.17343502 0.02539537 -0.043097172 0.2258403 -0.07294155
-0.23866078 -0.16794792 -0.077742435 -0.26431102 0.047275417 0.077360764 -0.3391779 0.06227518
0.19106661 0.23948507 0.07288157 -0.24896987 -0.10248008 0.18485792 -0.09564153 0.0623794
0.18856132 -0.011064382 -0.20939083 0.19086863 0.10148666 0.31037864 -0.31861323 0.14646544
-0.15425791 -0.14022425 0.106318995 -0.19733803 -0.15850538 -0.07058776 -0.32893667 0.28802857
0.0018142271 -0.045704253 0.23239541 -0.053834632 -0.13289449 -0.08594919 -0.02502364 -0.24405651
-0.27005106 -0.002855945 -0.00928901 0.07498178 -0.21552297 -0.17969511 0.1030005 0.21125779
-0.07086729 -0.09852375 -0.16738138 0.067237616 -0.13560589 -0.17335594 -0.06859128 0.085700534
-0.10692642 -0.046814907 0.08770795 0.022158917 -0.09181118 -0.003823293 -0.18520083 -0.09139589
-0.16717452 0.03201842 -0.04164835 -0.016548842 -0.014230756 0.051725328 -0.078080215 -0.047101133
-0.1879342 -0.12378325 -0.052105315 -0.028552897 -0.049134474 0.2524982 0.018168913 -0.14542438
-0.018640637 0.03598388 -0.114547536 0.12348277 0.15436858 -0.04141924 -0.16562428 -0.0045495825
-0.013492571 -0.23149121 0.0016733579 -0.32233796 -0.20664217 -0.016916128 0.011922637 0.26384148
0.012609499 0.16640614 0.04419342 -0.107548766 -0.15396021 -0.07356854 0.13423035 -0.1140005
0.05975949 -0.1570804 0.097227536 0.12482932 -0.036958594 -0.20512518 -0.047110662 0.0388072
0.045489967 -0.06779643 -0.1196739 -0.49942458 -0.096375175 0.047215838 0.2752873 0.043095436
-0.20721674 0.030265108 -0.11851906 0.10473139 -0.01078726 0.053396754 -0.16581655 0.18840694
0.15802671 -0.248096
00000000: cb34 a6bd 64ce 443e 1a30 75be e335 a7be
00000010: 0557 1bbd 79be 7f3d 5147 69bd 8333 783d
00000020: 145f 22be 31e5 0e3e 7aae c5be 84c1 063e
00000030: 0ef9 64bd 6612 333d 79ea 03be 1ca5 b4bd
00000040: 8735 233d 1873 c93d f7fa 3bbe f398 31be
00000050: f309 d03c a986 30bd ae42 673e 6162 95bd
00000060: 7e63 74be 8afa 2bbe 6d37 9fbd c653 87be
00000070: dea3 413d 526f 9e3d baa8 adbe 4214 7f3d
00000080: f7a6 433e 933b 753e ef42 953d f5f1 7ebe
00000090: 14e1 d1bd 654b 3d3e b5df c3bd 8b81 7f3d
000000a0: 3816 413e 6247 35bc 8d6a 56be 1173 433e
000000b0: 3dd8 cf3d f3e9 9e3e 4621 a3be 09fb 153e
000000c0: c9f5 1dbe f296 0fbe c6bd d93d fb12 4abe
000000d0: 3c4f 22be 5190 90bd 636a a8be 7b78 933e
000000e0: 5ccb ed3a 6234 3bbd 10f9 6d3e b481 5cbd
000000f0: 7e15 08be 2106 b0bd 60fe ccbc f3e9 79be
00000100: 2244 8abe ce2a 3bbb ef30 18bc 0c90 993d
00000110: 0eb2 5cbe ff01 38be edf1 d23d f653 583e
00000120: df22 91bd d2c6 c9bd 0666 2bbe e0b3 893d
00000130: 45dc 0abe 3884 31be 9679 8cbd c383 af3d
00000140: 3dfc dabd fdc0 3fbd 3aa0 b33d 9e86 b53c
00000150: 8007 bcbd 3690 7abb 49a5 3dbe c52d bbbd
00000160: cc2f 2bbe bf25 033d 7697 2abd 7091 87bc
00000170: 1e28 69bc f0dd 533d 85e8 9fbd 1eed 40bd
00000180: d371 40be 1382 fdbd 626c 55bd c4e7 e9bc
00000190: 3b41 49bd 7247 813e f9d6 943c 21ea 14be
000001a0: 40b4 98bc d563 133d e697 eabd 89e4 fc3d
000001b0: cc12 1e3e 39a7 29bd 6999 29be aa14 95bb
000001c0: f20f 5dbc 080c 6dbe 9354 db3a 7b09 a5be
000001d0: 019a 53be b193 8abc 2a57 433c 3b16 873e
000001e0: 1298 4e3c 5f66 2a3e 2904 353d 8742 dcbd
000001f0: bfa7 1dbe 1aab 96bd ae73 093e 1879 e9bd
00000200: 5ec6 743d afd9 20be 3b1f c73d 84a6 ff3d
00000210: e561 17bd 560c 52be 1cf7 40bd 4cf4 1e3d
00000220: b053 3a3d dbd8 8abd 9717 f5bd 94b4 ffbe
00000230: 5960 c5bd 6565 413d 75f2 8c3e d784 303d
00000240: a030 54be 88ee f73c 1fba f2bd 697d d63d
00000250: 0cbd 30bc 8eb6 5a3d d0cb 29be c0ed 403e
00000260: c1d1 213e e10c 7ebe

post_mp.layer_post_mp.model.0.Layer_0.post_layer.0.running_var f4 [154]
0.0076146326 0.011745941 0.008058263 0.009488911 0.008199471 0.011784266 0.008467055 0.008078612
0.008515406 0.006559683 0.008911913 0.007958046 0.008946303 0.006130378 0.008447781 0.008111268
0.0073961304 0.010392999 0.009700707 0.01180325 0.008633992 0.0091364095 0.008921316 0.0073979474
0.008963245 0.008272786 0.010058965 0.008210182 0.011698704 0.013833506 0.009464136 0.008099963
0.008679735 0.010036704 0.007917262 0.008087492 0.009485847 0.008078454 0.0063999626 0.011989022
0.00980735 0.008561102 0.013463105 0.008336423 0.011591546 0.010282611 0.011456041 0.003756717
0.009273445 0.01117994 0.008143666 0.010007248 0.010415542 0.007662282 0.009476588 0.010989309
0.009204435 0.010373563 0.012103894 0.0073509132 0.007227557 0.009189078 0.009579891 0.009192742
0.0072520263 0.007285066 0.007695044 0.0089045195 0.009310144 0.007807832 0.008238981 0.011301599
0.0066373823 0.011363938 0.011029809 0.0078036766 0.008730345 0.009627091 0.0058898185 0.011693263
0.004999942 0.0037881339 0.008658709 0.012726678 0.007845712 0.0077408757 0.009715265 0.01129028
0.01034173 0.0082949735 0.009019014 0.009345268 0.008511124 0.0092011485 0.010348661 0.0071553327
0.008974795 0.007260967 0.00974123 0.0121482955 0.012487327 0.010222741 0.010951593 0.007432829
0.0068197916 0.007515182 0.0056015826 0.009131753 0.0145130595 0.0119110625 0.010589054 0.008419045
0.009882712 0.0095484 0.009689355 0.0065353964 0.005691489 0.007525165 0.007214911 0.014435668
0.010379647 0.005511936 0.010582695 0.00955812 0.010566899 0.008366485 0.0074647046 0.007865388
0.0073413155 0.0067257322 0.009922492 0.013516191 0.008401644 0.0077417754 0.005639789 0.009128937
0.0100978315 0.009453701 0.01115169 0.00861679 0.0101197 0.009998652 0.010111182 0.008049014
0.009147583 0.009379151 0.011994314 0.011402462 0.008011928 0.008772695 0.009253732 0.008261264
0.009619602 0.011485683
00000000: 2b84 f93b 0c72 403c ce06 043c 6177 1b3c
00000010: 1357 063c cb12 413c 67b9 0a3c 285c 043c
00000020: 3484 0b3c 9cf2 d63b 4603 123c 7762 023c
00000030: 8493 123c 57e1 c83b 9068 0a3c 20e5 043c
00000040: 3d5b f23b 6647 2a3c b7ef 1e3c 6b62 413c
00000050: 9675 0d3c e1b0 153c b62a 123c 7b6a f23b
00000060: 93da 123c 948a 073c 5bce 243c 0084 063c
00000070: ecab 3f3c eea5 623c 770f 1b3c b5b5 043c
00000080: 7235 0e3c fd70 243c 67b7 013c 6681 043c
00000090: 876a 1b3c 7e5b 043c c7b6 d13b 9a6d 443c
000000a0: 02af 203c dd43 0c3c 5b94 5c3c 7e95 083c
000000b0: 78ea 3d3c 6578 283c 1eb2 3b3c 4133 763b
000000c0: a6ef 173c 112c 373c 036d 053c 71f5 233c
000000d0: f3a5 2a3c e113 fb3b b143 1b3c 810c 343c
000000e0: 33ce 163c e0f5 293c 694f 463c eedf f03b
000000f0: 24d5 ec3b c98d 163c faf4 1c3c 289d 163c
00000100: 68a2 ed3b 90b7 ee3b b526 fc3b 43e4 113c
00000110: 9389 183c d8d8 ff3b cafc 063c 582a 393c
00000120: 667e d93b d02f 3a3c 5fb6 343c fcb5 ff3b
00000130: b909 0f3c f2ba 1d3c 61ff c03b 1a95 3f3c
00000140: 8ed6 a33b 5742 783b 42dd 0d3c 8e83 503c
00000150: 4d8b 003c 2ca7 fd3b c62c 1f3c defa 383c
00000160: 5c70 293c a4e7 073c 7dc4 133c e51c 193c
00000170: 3e72 0b3c 6ac0 163c 6e8d 293c 4877 ea3b
00000180: 050b 133c 68ed ed3b ae99 1f3c a509 473c
00000190: a597 4c3c 497d 273c 4f6e 333c 178f f33b
000001a0: 8f78 df3b ea41 f63b 7b8d b73b 599d 153c
000001b0: 2fc8 6d3c 9e26 433c b67d 2d3c 09f0 093c
000001c0: 19eb 213c e470 1c3c 1ac0 1e3c e126 d63b
000001d0: ac7f ba3b a995 f63b 0f6b ec3b 9483 6c3c
000001e0: 650f 2a3c 789d b43b 0a63 2d3c a999 1c3c
000001f0: c920 2d3c 9513 093c 7b9a f43b d4dd 003c
00000200: 6b8f f03b 8863 dc3b f391 223c 0473 5d3c
00000210: 0da7 093c b8ae fd3b fbcd b83b 8991 153c
00000220: 6071 253c b2e3 1a3c 94b5 363c 702d 0d3c
00000230: 19cd 253c 63d1 233c 5fa9 253c 03e0 033c
00000240: bedf 153c 03ab 193c cd83 443c 64d1 3a3c
00000250: 7644 033c 5abb 0f3c f79c 173c 415a 073c
00000260: 899b 1d3c 722e 3c3c

post_mp.layer_post_mp.model.1.model.weight f4 [28, 154]
-0.008362859 -0.011428661 -0.009668309 -0.01636519 -0.009329264 -0.011232106 -0.013765533 -0.009964856
-0.011049922 -0.011642236 -0.009913943 -0.010975373 -0.009427895 -0.010651364 -0.014642696 -0.0116123585
-0.011202686 -0.011782562 -0.011925682 -0.015269787 -0.010354334 -0.010041286 -0.01178737 -0.009741955
-0.018014334 -0.01067484 -0.012596153 -0.012193554 -0.0155316265 -0.011226691 -0.011274711 -0.01248706
-0.008972869 -0.012498166 -0.010463477 -0.010857506 -0.013204868 -0.010077258 -0.010124899 -0.012727237
-0.015156694 -0.011595632 -0.01445564 -0.011480336 -0.0141226 -0.013261818 -0.013421441 -0.008341022
-0.009005431 -0.022783035 -0.011451233 -0.015381153 -0.017454613 -0.012155617 -0.024218813 -0.011386834
-0.009692751 -0.00951791 -0.013464358 -0.010570482 -0.0103996545 -0.009418519 -0.016322851 -0.014827814
-0.009875789 -0.0123561 -0.009410267 -0.011028338 -0.011089184 -0.011138129 -0.0129027525 -0.01235808
-0.010089157 -0.011669888 -0.012700891 -0.009171151 -0.009984417 -0.012153637 -0.010067669 -0.01195172
-0.010162282 -0.007591066 -0.011808456 -0.015661951 -0.014280942 -0.01191731 -0.009425289 -0.01132669
-0.023727583 -0.01073608 -0.015222853 -0.010148208 -0.012954088 -0.010102613 -0.013886105 -0.009436691
-0.013826622 -0.011923675 -0.011207963 -0.012059987 -0.010763326 -0.012150785 -0.014337675 -0.010835404
-0.009029915 -0.011207438 -0.013882908 -0.012911744 -0.011666131 -0.013882168 -0.011831207 -0.010527846
-0.0099828 -0.010512086 -0.012824107 -0.009615146 -0.008538939 -0.010737626 -0.009279404 -0.012797924
-0.009488822 -0.008658664 -0.011440731 -0.011907548 -0.01908362 -0.010916117 -0.010582778 -0.011639304
-0.010092849 -0.009252798 -0.011005472 -0.010895494 -0.011483615 -0.011818125 -0.008472174 -0.0121152
-0.010385027 -0.011014098 -0.016359298 -0.013469488 -0.009611309 -0.01090435 -0.014762724 -0.009702418
-0.015163732 -0.011010926 -0.0130803995 -0.014408324 -0.010601961 -0.009152999 -0.009169287 -0.01367557
-0.011602005 -0.014033787 0.1815934 0.70459 -0.21320973 0.4956654 0.2214438 0.1898621
0.051970992 0.038938515 -0.33687988 -0.071787335 0.33320042 -0.2568294 0.3924632 0.25151047
-0.07368962 0.66924757 -0.09966653 -0.029544966 -0.27537295 -0.081780136 0.7004924 0.073974416
-0.14279027 -0.22496295 0.32292038 -0.1321504 0.30041197 0.032896865 -0.33787906 1.0474031
0.446695 -0.061289683 0.26311892 0.08046259 0.1916965 -0.4079551 0.25570795 -0.18363324
0.083560206 0.013894161 0.4369829 -0.14040321 -0.1328252 -0.31091234 0.038406968 0.019123245
-0.283784 -0.35744283 -0.10141485 -0.12688759 -0.21531881 0.36587262 0.12009713 0.23471732
0.056986693 0.14569502 0.38786262 -0.20970249 -0.01695884 0.17322944 -0.35510036 0.02094287
-0.2694832 -0.13729821 -0.24550708 0.27884343 -0.20743941 -0.07094178 -0.31352037 0.19139302
0.5416726 -0.42913848 0.05120896 -0.18572113 -0.1521303 -0.16925532 0.15067789 -0.27469254
0.048468437 -0.49113667 -0.06948665 -0.15245138 0.102106065 0.090700105 0.45409873 -0.3586267
0.49031296 -0.51648116 -0.2588961 0.071178585 -0.0013087277 -0.0096643325 0.33916774 0.17173478
-0.61219245 0.1435842 0.330773 0.26819885 0.38879573 0.059908815 -0.1642962 0.260892
00000000: 5f04 09bc 473f 3bbc d467 1ebc 4a10 86bc
00000010: c5d9 18bc de06 38bc d588 61bc a343 23bc
00000020: bb0a 35bc 14bf 3ebc 176e 22bc 0dd2 33bc
00000030: 7577 1abc 0f83 2ebc ebe7 6fbc c341 3ebc
00000040: 788b 37bc a60b 41bc f063 43bc 212e 7abc
00000050: 39a5 29bc 3584 24bc d01f 41bc b99c 1fbc
00000060: cc92 93bc 86e5 2ebc 1860 4ebc 79c7 47bc
00000070: 5d78 7ebc 28f0 37bc 91b9 38bc 8796 4cbc
00000080: f102 13bc 1cc5 4cbc 016f 2bbc aee3 31bc
00000090: 3b59 58bc 151b 25bc e8e2 25bc e785 50bc
000000a0: c853 78bc 9bfb 3dbc 59d7 6cbc 0518 3cbc
000000b0: 7a62 67bc 1948 59bc 9be5 5bbc c8a8 08bc
000000c0: 848b 13bc 7da3 babc f49d 3bbc 3b01 7cbc
000000d0: fafc 8ebc 5a28 47bc 8866 c6bc d88f 3abc
000000e0: 58ce 1ebc 02f1 1bbc 9c99 5cbc d12f 2dbc
000000f0: 5063 2abc 2250 1abc 80b7 85bc 5cf0 72bc
00000100: 10ce 21bc 3d71 4abc 852d 1abc 34b0 34bc
00000110: 69af 35bc b37c 36bc 1166 53bc 8b79 4abc
00000120: fe4c 25bc 0f33 3fbc 6617 50bc 9842 16bc
00000130: ae95 23bc 0c20 47bc ddf2 24bc 26d1 43bc
00000140: b37f 26bc 7abe f8bb 4178 41bc 7e4d 80bc
00000150: 9dfa 69bc d240 43bc 876c 1abc 9593 39bc
00000160: 5960 c2bc 62e6 2fbc 4669 79bc ab44 26bc
00000170: 623d 54bc 6e85 25bc 8c82 63bc 5a9c 1abc
00000180: 0e89 62bc 855b 43bc 9ba1 37bc 4097 45bc
00000190: a958 30bc 1614 47bc 91e8 6abc fa86 31bc
000001a0: 35f2 13bc 679f 37bc 2375 63bc c88b 53bc
000001b0: 4d23 3fbc 0872 63bc aed7 41bc fd7c 2cbc
000001c0: e68e 23bc e23a 2cbc 341c 52bc d888 1dbc
000001d0: e8e6 0bbc deec 2fbc a408 18bc 62ae 51bc
000001e0: 0177 1bbc 12dd 0dbc e771 3bbc e017 43bc
000001f0: 4055 9cbc 83d9 32bc 6363 2dbc c8b2 3ebc
00000200: 7a5c 25bc 0c99 17bc 4c50 34bc 0483 32bc
00000210: c625 3cbc cfa0 41bc e0ce 0abc d57e 46bc
00000220: f625 2abc 7a74 34bc ef03 86bc 21af 5cbc
00000230: c078 1dbc 29a8 32bc 5adf 71bc e4f6 1ebc
00000240: 4d71 78bc 2c67 34bc 2c4f 56bc e410 6cbc
00000250: d9b3 2dbc 76f6 15bc c73a 16bc 7f0f 60bc
00000260: 5616 3ebc f8ed 65bc 9ff3 393e 0360 343f
00000270: a753 5abe dbc7 fd3e 2ac2 623e 366b 423e
00000280: 89df 543d fe7d 1f3d 857b acbe 3d05 93bd
00000290: 3f99 aa3e 257f 83be f0f0 c83e fbc5 803e
000002a0: 95ea 96bd cf53 2b3f f71d ccbd 4908 f2bc
000002b0: affd 8cbe 587c a7bd 7853 333f e67f 973d
000002c0: 9d37 12be b05c 66be d255 a53e 6f52 07be
000002d0: 99cf 993e ddbe 063d 7cfe acbe 4e11 863f
000002e0: 35b5 e43e e40a 7bbd 86b7 863e 92c9 a43d
000002f0: 164c 443e 7edf d0be 27ec 823e 5a0a 3cbe
00000300: 9d21 ab3d 56a4 633c 39bc df3e dcc5 0fbe
00000310: 5403 08be e72f 9fbe a050 1d3d 5aa8 9c3c
00000320: 234c 91be bf02 b7be 97b2 cfbd d2ee 01be
00000330: 897c 5cbe a853 bb3e 7cf5 f53d bd59 703e
00000340: e16a 693d 1331 153e ee95 c63e 40bc 56be
00000350: 44ed 8abc 0f63 313e b7cf b5be 6290 ab3c
00000360: b4f9 89be e797 0cbe 3566 7bbe 91c4 8e3e
00000370: ff6a 54be ed49 91bd be85 a0be 88fc 433e
00000380: 0eab 0a3f 0ab8 dbbe 7dc0 513d ae2d 3ebe
00000390: 0cc8 1bbe 4451 2dbe 4e4b 1a3e 80a4 8cbe
000003a0: d786 463d 4476 fbbe 044f 8ebd 371c 1cbe
000003b0: fc1c d13d fac0 b93d a17f e83e eb9d b7be
000003c0: 4d0a fb3e 1c38 04bf 088e 84be 14c6 913d
000003d0: 9d89 abba 2657 1ebc 65a7 ad3e 3edb 2f3e
000003e0: a5b8 1cbf bd07 133e 145b a93e 5c51 893e
000003f0: 3c10 c73e f262 753d 433d 28be a393 853e

post_mp.layer_post_mp.model.1.model.bias f4 [28]
-0.013465594 0.011046327 0.08005456 0.21985961 0.025175624 0.052429684 0.018110272 -0.14835131
0.03021007 -0.09145237 -0.0134655945 -0.013465595 -0.051853165 -0.013465593 0.09847734 0.016094707
0.0019784435 0.006673975 -0.016651664 -0.013465594 -0.026298834 -0.02077333 0.06307099 -0.009794793
-0.07725099 -0.013465596 0.015945496 0.009339032
00000000: cb9e 5cbc a7fb 343c a5f3 a33d e122 613e
00000010: 1c3d ce3c 82c0 563d fe5b 943c 68e9 17be
00000020: 1c7b f73c 614b bbbd cc9e 5cbc cd9e 5cbc
00000030: fc63 54bd ca9e 5cbc 7dae c93d 0cd9 833c
00000040: c6a8 013b 5cb1 da3b 1269 88bc cb9e 5cbc
00000050: a770 d7bc d52c aabc 5d2b 813d 577a 20bc
00000060: c435 9ebd ce9e 5cbc 21a0 823c bd02 193c

exp_avg f4 [154]
0.008720625 0.006546369 0.0040155174 -0.03043168 -2.8752604e-18 8.032197e-28 -0.05581838 -0.018299662
0.0075247805 -0.0005286274 0.005156097 -1.6086874e-16 0.0012901744 0.010415357 0.0051826513 0.011826888
0.0066530593 0.00014443017 0.010892298 4.0973865e-13 1.02903336e-19 -0.0059387153 -0.004427433 0.0088539
3.7763333e-05 -0.0009339578 1.1383632e-12 -0.02003152 -0.014568707 -0.015804186 -0.0053356076 -0.0014000185
1.7843879e-05 0.011556174 -0.00800198 1.0310242e-12 -0.0030405696 -0.01486851 0.01770102 -0.0002689805
-0.00659534 0.0010304197 0.0001915191 -0.0041337814 -7.134386e-05 -0.0014421957 -0.011137386 -0.0017077853
0.016228633 -0.022497939 0.0085449545 2.997009e-07 -0.017800689 -2.1767239e-05 0.0002652077 -0.0049139834
-4.302744e-05 0.00026970706 0.00016843248 -2.2596152e-05 0.011950599 -0.0069440035 0.00049175345 0.00039088685
-1.9642173e-10 1.0587205e-28 -0.0008227416 -0.009884582 0.004663118 -4.0758177e-06 0.047808547 -1.108058e-15
-0.00025309433 0.0007796475 1.893469e-06 0.0089169275 1.2395337e-05 3.753409e-06 0.000272762 -3.4809738e-20
9.866672e-28 -3.1392196e-06 0.037341755 -0.002425405 -9.378386e-06 -0.016284464 1.4636897e-13 -0.0002599916
-0.00017979495 -2.2687242e-05 0.012736153 0.00025186624 0.000110221175 0.00017163689 4.5847294e-24 1.1478155e-22
-0.013298592 -0.006288074 7.20769e-05 -4.7346075e-05 0.015372273 6.3339294e-14 5.7237196e-07 -0.0001793844
4.8401107e-05 -0.0014297487 0.00051426585 0.0008583249 -0.00010035256 4.2439148e-13 -8.634921e-14 0.009134409
0.01770949 0.00010671405 0.00021652039 -7.894577e-06 1.2575697e-15 -6.408608e-05 -0.00048787546 -0.00022085515
-3.7320428e-05 2.995776e-05 -5.258886e-05 -1.4019932e-05 -0.0056578782 -2.7594502e-17 0.0052413903 -0.020567857
0.00072112033 -1.1457674e-05 -1.3176372e-05 1.8205225e-09 -1.2237158e-05 -0.00012333924 -0.00086765987 -2.8374689e-06
1.4561814e-05 -0.008951136 -0.011030422 0.014707637 -0.009728772 0.006189524 -2.4170868e-05 -0.0034115855
0.024988187 0.00017827975 0.0003019917 -0.00025290818 0.0011771667 -5.991884e-05 -0.016262406 0.0008804242
0.00031651114 0.021485986
00000000: f4e0 0e3c ec82 d63b 9a94 833b dc4b f9bc
00000010: 2228 54a2 ed8c 7e12 d0a1 64bd 2ce9 95bc
00000020: 6f92 f63b 9693 0aba 7af4 a83b 1278 39a5
00000030: 121b a93a 2ca5 2a3c 3bd3 a93b 90c5 413c
00000040: e801 da3b 2e72 1739 9c75 323c 90a9 e62a
00000050: 40f9 f21f 8e99 c2bb 0014 91bb f30f 113c
00000060: 1264 1e38 d9d4 74ba db35 a02b 2419 a4bc
00000070: 96b1 6ebc c877 81bc 52d6 aebb d380 b7ba
00000080: 70af 9537 1b56 3d3c bd1a 03bc 901a 912b
00000090: 4b44 47bb 0d9b 73bc bb01 913c f405 8db9
000000a0: b91d d8bb 260f 873a 84d2 4839 ac74 87bb
000000b0: 719e 95b8 0f08 bdba 9579 36bc c4d7 dfba
000000c0: e9f1 843c 994d b8bc 2300 0c3c 94e6 a034
000000d0: c0d2 91bc ca98 b6b7 930b 8b39 7b05 a1bb
000000e0: 5d78 34b8 7867 8d39 409d 3039 de8c bdb7
000000f0: 72cc 433c 868a e3bb 04e9 003a f2ef cc39
00000100: cdf7 57af 7235 0611 41ad 57ba f1f2 21bc
00000110: 12cd 983b 02c3 88b6 e5d2 433d 20b0 9fa6
00000120: bfb1 84b9 4261 4c3a 1923 fe35 4e18 123c
00000130: 91f5 4f37 13e3 7b36 7f01 8f39 6462 249f
00000140: fa57 9c12 62ab 52b6 abf3 183d 8bf3 1ebb
00000150: dc57 1db7 ff66 85bc fccb 242a 7b4f 88b9
00000160: 5787 3cb9 7b50 beb7 4cab 503c ea0c 8439
00000170: 8b26 e738 6df9 3339 f65c b118 2bc3 0a1b
00000180: 56e2 59bc 300c cebb fe27 9738 7695 46b8
00000190: fcdb 7b3c 9ea0 8e29 1aa5 1935 2219 3cb9
000001a0: 4b02 4b38 6866 bbba cccf 063a 3501 613a
000001b0: 5f74 d2b8 42e9 ee2a ee70 c2a9 7da8 153c
000001c0: 7e13 913c abcb df38 c009 6339 f372 04b7
000001d0: 223c b526 f465 86b8 89c9 ffb9 5a95 67b9
000001e0: 8188 1cb8 cd4d fb37 dc92 5cb8 2637 6bb7
000001f0: b965 b9bb ad83 fea3 f8bf ab3b ec7d a8bc
00000200: 9109 3d3a 563a 40b7 1610 5db7 f135 fa30
00000210: 324e 4db7 a054 01b9 ab73 63ba 586b 3eb6
00000220: 844e 7437 c9a7 12bc f1b8 34bc 4df8 703c
00000230: 6d65 1fbc 7ed1 ca3b 8bc2 cab7 e894 5fbb
00000240: 07b4 cc3c 9bf0 3a39 a454 9e39 c398 84b9
00000250: 294b 9a3a 5d51 7bb8 bd38 85bc 45cc 663a
00000260: 68f1 a539 6103 b03c
