ctrl_results/ctrl_embeddings/1/ckpt/999.ckpt (torch_old, 352682 bytes, 25 tensors)

mp.layer0.post_layer.0.weight f4 [154]
000000 eb fd 15 3f ae 69 04 3f c2 79 5e 3f 72 37 23 3f
       0.58590573 0.51723754 0.8690454 0.6375648
000010 3e 65 0f 26 44 89 19 a2 e5 47 1d 3f e4 45 35 3f
       4.97503e-16 -2.0808034e-18 0.6143783 0.7080977
000020 ad 04 28 3f c5 11 3e 3f 6a f6 02 3f 9a 0e be 9e
       0.65632135 0.74245864 0.5115725 -2.0123072e-20
000030 b8 cf b3 bb c5 d0 57 3f fd 53 38 3f d0 c2 28 3f
       -0.0054874085 0.8430293 0.72003156 0.6592226
000040 5f 3c 43 3f ea ec fd 3e f2 bf 31 3f 36 77 64 2c
       0.76263994 0.49594814 0.6943351 3.2466924e-12
000050 c0 19 bb a3 d7 97 2a 3f d7 58 f3 3e d3 b9 3f 3f
       -2.0285486e-17 0.6663794 0.47528717 0.7489292
000060 f4 05 59 3b 45 40 0e 3f 93 88 fc 25 0b bb 08 bc
       0.003311512 0.5556682 4.3807578e-16 -0.008345376
000070 83 35 09 3f 86 11 68 ba ef ae 18 3f 35 54 42 3f
       0.5359728 -0.0008852709 0.5964193 0.7590974
000080 cc af 2c bb 8e 63 32 3f a0 c4 17 3f 1f b7 99 29
       -0.00263499 0.6968316 0.592844 6.8263314e-14
000090 0d 50 a6 ba e4 ee 49 3f 80 d1 4d 3f d1 60 1f 39
       -0.0012688652 0.78880143 0.80397797 0.00015199489
0000a0 23 bf 2b 3f e7 a5 db 3f 4b af ca ba 32 56 41 bc
       0.67088526 1.7160004 -0.0015463618 -0.011800336
0000b0 30 fb b7 b9 80 01 1a 3f ac 00 5a 3f a9 20 2d 3f
       -0.0003509163 0.6015854 0.85157275 0.6762796
0000c0 1c fd 56 bb 46 b7 48 3e 00 30 af 3e 45 42 1f bb
       -0.0032804674 0.19601163 0.3421631 -0.0024300974
0000d0 1d db 66 3f 24 87 3c 3f c0 36 25 bb d2 c9 54 3f
       0.9017809 0.7364371 -0.0025209635 0.83120453
0000e0 c4 37 91 3b 29 03 e1 ba 9a f5 90 bb 73 fe a8 3b
       0.0044316966 -0.001716708 -0.0044238092 0.005157286
0000f0 fc 96 0e 3f f2 65 28 3a fa fa 20 3f 7f e3 11 bb
       0.55699134 0.00064238824 0.6288296 -0.0022260842
000100 92 30 97 27 8f 89 52 91 21 9a 4f 3f 71 43 55 3f
       4.196358e-15 -1.6608468e-28 0.8109456 0.8330603
000110 cd 87 28 3f 22 3c 90 bb 7d 50 42 3f 28 81 18 27
       0.65832216 -0.0044016996 0.75904065 2.1164253e-15
000120 05 b5 9c bb ee 43 8b ba fa d0 f3 38 60 ae 3c 3f
       -0.0047823214 -0.0010625103 0.00011626068 0.73703575
000130 08 be 0a bc 90 2c 17 bb 1a 05 58 3b cc db d0 27
       -0.008468159 -0.0023067333 0.0032962025 5.79699e-15
000140 27 fa bd 9c 4a dc 2f 3f 93 46 41 3f 30 15 01 bc
       -1.2571634e-21 0.6869551 0.7549831 -0.007878587
000150 98 a4 7d ba 1a d1 66 3f 74 08 9a a2 76 d3 09 3b
       -0.00096757105 0.90162814 -4.1750734e-18 0.0021030582
000160 db 3f 33 b9 3e db 4e 3b fe 09 1d bb 0b ba 59 ba
       -0.00017094558 0.0031563784 -0.0023962255 -0.00083056156
000170 c3 29 a0 ba 95 c3 31 bb f7 57 ed a7 8e 01 0b ae
       -0.0012219477 -0.0027124633 -6.5876086e-15 -3.160632e-11
000180 d8 6b 2b 3f 62 32 73 3f ad 89 a2 bb a5 3b 13 bb
       0.6696143 0.94998753 -0.00496026 -0.002246597
000190 d8 3e 4c 3f aa 7c ad b2 e9 52 b6 bb 45 66 dd bb
       0.7978339 -2.0196541e-08 -0.005564083 -0.0067565762
0001a0 4a e4 f1 b9 ee 92 a4 ba 9e 1a a3 bb de 5f ba 3b
       -0.0004613719 -0.0012555995 -0.0049775383 0.005687698
0001b0 f9 e1 33 bb 6b 3e d4 ad 32 43 b4 2e 3d 2c 4e 3f
       -0.0027447923 -2.4129329e-11 8.1973886e-11 0.8053625
0001c0 d1 a1 76 3f 9d 4b 8c ba 86 f8 d5 b9 16 49 41 ba
       0.9634066 -0.0010703687 -0.0004081169 -0.00073732564
0001d0 fc 99 73 a4 36 ce 7d ba 5a 2d 95 bb 1f 8b 17 bb
       -5.2822655e-17 -0.0009681912 -0.0045525255 -0.0023123694
0001e0 bf 2f 73 ba fd 59 3c b9 86 50 b0 ba 36 d7 57 bb
       -0.0009276829 -0.000179626 -0.0013451732 -0.0032934672
0001f0 8f d3 06 40 20 a8 64 a6 25 3a 48 3f 8f 55 23 3f
       2.1066625 -7.933124e-16 0.7821372 0.6380243
000200 7c de 2f 39 b4 11 91 ba 38 22 90 ba c0 50 5e 35
       0.00016772182 -0.0011067898 -0.0010996526 8.281895e-07
000210 9c 32 56 b9 c6 4a 91 bb b4 ec 89 bb d9 e1 c7 3b
       -0.00020427484 -0.0044339625 -0.0042091254 0.006099921
000220 18 f1 1c 3a f9 68 e4 3e cb 08 12 3f e6 70 3a 3f
       0.00059868535 0.44611338 0.57044667 0.7282852
000230 d9 9f 3b 3f df 31 0f 3f 13 da 51 3b a4 fd ee 3e
       0.73290783 0.5593547 0.0032020852 0.46677887
000240 e3 78 50 3f ca 5c 08 3f 95 06 00 80 88 8b 09 3f
       0.8143446 0.53266585 -2.361e-42 0.5372853
000250 20 53 7f 3e fb dc 30 bb e2 fe 48 3f fa b5 0d bb
       0.24934053 -0.0026987183 0.7851392 -0.002162336
000260 22 bf 35 bb 2f 4e 0f 3f
       -0.0027732332 0.55978674

mp.layer0.post_layer.0.bias f4 [154]
000000 92 7d 88 bd 61 ef 42 3f c3 59 27 3f 79 2d 80 bd
       -0.06664576 0.76146513 0.6537134 -0.06258673
000010 6d 71 fd ac 52 89 b8 b5 ee 41 4f 3f 2d 48 dd bd
       -7.2032853e-12 -1.3749034e-06 0.80959976 -0.10804782
000020 de c4 90 3e b6 62 9e 3e 90 f0 47 3f 43 17 78 a8
       0.28275198 0.30934685 0.78101444 -1.377181e-14
000030 d7 32 ba bb b4 18 af 3e 9a a2 1a 3f 2e 82 58 3f
       -0.00568233 0.34198534 0.6040436 0.8457364
000040 d4 0a f3 3e 72 16 80 3d 10 0d 22 3f d9 b3 d9 b1
       0.474692 0.06254281 0.6330118 -6.3359775e-09
000050 80 65 67 b1 f1 8f 31 bc 32 8a 65 3f 10 48 e1 3e
       -3.367262e-09 -0.010837541 0.89663994 0.44000292
000060 63 2a 7d 3b e2 1d 5f 3f 7d 5c 92 ac 5d 0d b1 bb
       0.003863 0.8715497 -4.159838e-12 -0.0054032044
000070 dd 12 1b 3f 2d d7 6e ba 2a 67 ab 3e c6 b7 40 3f
       0.6057566 -0.0009111043 0.33477145 0.75280416
000080 30 31 fa ba 0b 04 39 3f 34 15 81 bd 41 37 20 ab
       -0.0019088145 0.72271794 -0.06302872 -5.69201e-13
000090 72 97 78 bb 5f e8 45 3f 5d 39 e2 3e ab a8 82 3b
       -0.0037932065 0.77307695 0.4418439 0.003987392
0000a0 ab 1d 4b 3f 7d 26 b5 be 9b 92 5f bb 87 60 ad bb
       0.79342145 -0.35380927 -0.0034114483 -0.005291048
0000b0 e3 e0 86 ba b3 75 89 3e df cc 04 3f e6 75 00 3f
       -0.001029041 0.2684761 0.5187511 0.501799
0000c0 99 96 22 bc 72 96 68 bd 8b d6 4f 3e ff 75 f7 bb
       -0.009923601 -0.0567841 0.20296685 -0.007551908
0000d0 33 ac 28 3f ff 9f a7 3e ad 6a 4d bc e5 68 0a 3f
       0.65887755 0.32739255 -0.0125376405 0.54066306
0000e0 35 b2 fc bb c5 fa c2 bb 4a 38 2b bc 99 fd 25 3c
       -0.0077116736 -0.005950304 -0.010450432 0.010131263
0000f0 d3 ca 16 3f 7e 94 fb ba 4e 73 8b 3e 42 41 ac bb
       0.58903235 -0.0019194034 0.27236408 -0.005256803
000100 5c 9f dc ad b8 1a d0 a4 4b aa ae 3f f1 df 4c 3f
       -2.5081874e-11 -9.0250884e-17 1.3645719 0.8002921
000110 3c 4a 49 3e 09 48 93 bb a0 3b 8f 3f 08 93 ce af
       0.19657224 -0.0044946712 1.1190071 -3.7575654e-10
000120 fe 25 d6 bb 5f a4 89 ba 33 41 b4 39 b7 d6 e2 3e
       -0.0065352907 -0.0010501257 0.00034380853 0.4430444
000130 3b e4 cb ba 9a 3e 0a bc 5b e9 f9 39 95 9c 07 ad
       -0.0015555689 -0.008437777 0.00047666844 -7.70863e-12
000140 06 78 13 b1 ec fc 81 3f 83 88 7d 3f 8d 40 9c bc
       -2.145954e-09 1.0155311 0.99036425 -0.019073749
000150 c0 0c 2c ba 1c 08 62 3f 63 30 b4 29 64 8b 8a b7
       -0.0006563179 0.88293624 8.0019995e-14 -1.651579e-05
000160 69 76 06 bb 8d f9 bf 3a f8 f7 81 bb d9 19 02 bc
       -0.0020517355 0.0014646515 -0.0039663278 -0.007940733
000170 8a f6 36 bb 13 6a f5 bb eb 7f a4 ac 25 5e 94 ba
       -0.0027917945 -0.0074894517 -4.675362e-12 -0.0011319561
000180 52 8e ae 3a e1 4a 81 3f b1 2b 63 bb 2e 0d ab bb
       0.0013317561 1.0100976 -0.0034663493 -0.005220077
000190 1e 96 02 3f 1f 67 9b 37 6a dc 8f bc 6e df cd bb
       0.5101031 1.852546e-05 -0.017561156 -0.0062827384
0001a0 a2 32 0c bb 4a 44 89 bb fa 50 50 bc 33 6c 85 3b
       -0.0021392484 -0.004189049 -0.012714619 0.0040717362
0001b0 2a 03 f6 b9 60 f4 62 ad 01 a2 1e b4 52 ce 9c 3f
       -0.00046923134 -1.2900875e-11 -1.4773833e-07 1.2250464
0001c0 26 02 62 3f a6 39 d9 bb 53 fe 3a b9 45 8b de bb
       0.8828453 -0.0066291867 -0.00017833085 -0.0067915046
0001d0 20 8c 98 a7 43 9a a3 bb 5e 73 c6 bb 24 ba c8 bb
       -4.23404e-15 -0.0049927547 -0.0060562333 -0.0061257053
0001e0 49 c0 3b bb 0a 48 c4 ba 39 b7 67 b9 f0 e8 01 bb
       -0.0028648546 -0.0014975083 -0.00022098132 -0.001982268
0001f0 1a 8d 1a be 06 3e 4c 28 45 e1 80 3f ac 65 96 3f
       -0.15092888 1.1337724e-14 1.0068747 1.1749778
000200 b4 c9 2b 38 b3 4f a1 bb 01 e4 cb ba 76 a3 15 b4
       4.0957428e-05 -0.004922831 -0.0015555621 -1.3936173e-07
000210 a9 f5 52 bb ea 9f 50 bc 54 f9 00 bc f5 bc 39 3b
       -0.0032189882 -0.012733439 -0.007871944 0.0028341387
000220 7f f4 f8 3b 97 05 01 3f 90 85 57 3e 75 33 11 bf
       0.0075975056 0.50399154 0.21047044 -0.5671914
000230 0c bc eb be 38 df dc 3d 8b 24 73 39 18 68 33 3f
       -0.46041906 0.10784763 0.00023187899 0.7008071
000240 5c 9c 8a 3f d4 dd d1 3c a0 4f 97 b9 8d 24 9f 3d
       1.0828967 0.025618471 -0.0002886029 0.077706434
000250 bf b1 b0 3f 79 e4 0b bc c5 7a 0b 3f d0 84 43 ba
       1.3804244 -0.008538359 0.54484206 -0.000745845
000260 4e 1b d7 bb 94 d8 e6 3e
       -0.0065645343 0.4508711

mp.layer0.post_layer.0.running_mean f4 [154]
000000 99 75 38 41 cb 48 d9 3f 46 86 72 41 55 7c 5e 41
       11.52871 1.697534 15.157782 13.9053545
000010 95 90 ae 30 08 ce 0f a6 dc 4e 20 41 73 c6 ae 3f
       1.2701259e-09 -4.9892316e-16 10.019253 1.3654312
000020 42 87 71 40 cc 69 6a 41 59 9e 46 40 a5 70 3a 2e
       3.7738805 14.650829 3.1034148 4.2391552e-11
000030 f3 1d c7 40 32 2d ad 40 b4 e7 e5 40 b6 74 6d 41
       6.222406 5.411767 7.184534 14.840994
000040 88 82 25 40 9d 95 d5 41 36 d1 c5 41 0e 74 d1 33
       2.586092 26.698053 24.727154 9.753431e-08
000050 44 dc e8 2a d2 aa 45 41 69 1d e0 3f 9b da 9b 40
       4.136432e-13 12.354204 1.7508975 4.870435
000060 85 da cf 41 76 8e 61 40 ab 81 3e 32 b9 75 a1 41
       25.981699 3.5243201 1.1088939e-08 20.182482
000070 b5 3a 60 41 0b 13 c6 41 a4 8f 84 41 d9 64 8d 40
       14.014333 24.759298 16.570137 4.4185605
000080 1c b2 53 42 8f f1 45 42 ce c2 74 39 cc b8 5d 35
       52.923935 49.485897 0.00023342224 8.259783e-07
000090 fa 62 3f 41 d3 31 07 40 c8 34 e7 40 e8 01 4f 42
       11.961664 2.112416 7.225193 51.75186
0000a0 aa 8f 7f 40 2f b2 4e 38 95 db cb 42 4c 1b a0 42
       3.9931436 4.9280174e-05 101.92887 80.053314
0000b0 88 f8 e8 42 8e 28 96 41 43 1b cc 40 ae 30 98 42
       116.48541 18.769802 6.378328 76.09508
0000c0 b1 5a 8f 42 15 9a cf 3b 21 b1 80 3a 4b 00 39 41
       71.67713 0.0063355067 0.0009818414 11.562572
0000d0 6f 51 0f 40 3d 7d 1b 41 c2 4f 95 42 5e 80 88 40
       2.2393453 9.718076 74.65578 4.26567
0000e0 f4 f5 45 3b c6 e4 0c 43 8e a0 02 43 a0 72 14 43
       0.0030206414 140.89365 130.62717 148.44775
0000f0 29 14 8c 41 41 b3 73 40 df f5 3e 42 ce 17 33 42
       17.509844 3.8078158 47.74011 44.773247
000100 1c c9 91 30 d0 54 2a a6 f3 cc 55 41 ff 46 f0 3f
       1.0607297e-09 -5.909554e-16 13.362536 1.8771666
000110 50 32 d2 40 e7 d4 3a 42 8b e4 76 40 fa 52 2e 2e
       6.5686417 46.707912 3.8576992 3.9636718e-11
000120 a4 67 bd 42 24 2d a4 42 53 4d d1 42 fb 95 9f 41
       94.70242 82.088165 104.651024 19.948233
000130 5f 86 d8 40 f1 c9 b6 42 ac 9c ac 42 39 04 61 32
       6.7664027 91.39442 86.306 1.3097684e-08
000140 11 41 d6 a5 16 28 46 41 60 2c 0b 40 03 2f 23 41
       -3.7167173e-16 12.384787 2.1745834 10.198977
000150 b2 84 b3 42 1a 47 89 40 28 40 f1 2f 63 26 06 43
       89.75917 4.2899294 4.388323e-10 134.14995
000160 94 40 f5 42 03 2a 0f 43 48 8f be 41 7e 98 33 41
       122.62613 143.16411 23.819962 11.22473
000170 d0 b0 08 43 f4 e8 02 43 3c 27 b1 33 fd b9 4a 2b
       136.69067 130.90997 8.2493415e-08 7.2022927e-13
000180 65 7a 2d 41 97 e6 18 40 20 85 76 41 be ac 06 43
       10.8423815 2.389074 15.407501 134.67477
000190 ab 44 98 40 2b bc 1d 32 47 8f 16 43 52 33 10 43
       4.7583823 9.181387e-09 150.55968 144.20047
0001a0 01 37 1b 43 2c 25 eb 41 c9 31 91 41 95 8b ff 42
       155.21486 29.39315 18.14931 127.77262
0001b0 f7 ec f9 42 0e 98 b5 36 de f6 72 32 90 de 0d 41
       124.96282 5.411922e-06 1.4142385e-08 8.866837
0001c0 59 57 28 40 71 55 b6 41 ac f5 fd 42 17 ee 9a 40
       2.6303313 22.79172 126.97983 4.8415637
0001d0 7c 49 82 35 64 9c 1d 43 7a d2 1a 43 43 4a 1f 43
       9.707142e-07 157.6109 154.82217 159.29008
0001e0 34 5a 01 42 67 d9 b3 41 cd 82 df 42 85 3b d9 42
       32.33809 22.481153 111.75547 108.61625
0001f0 74 3b 17 39 2e ca c9 35 2c 77 ef 40 3c 6a 2e 40
       0.0001442263 1.5034509e-06 7.4832973 2.725234
000200 32 79 d8 41 59 ad dd 42 99 71 93 40 b0 c7 15 38
       27.059177 110.83857 4.607617 3.571034e-05
000210 62 45 1f 43 95 c7 1d 43 be 1c 20 43 4f 83 20 43
       159.27103 157.77962 160.11227 160.51292
000220 1f 05 ab 43 fd 46 ef 3f 00 49 1e 3f 01 93 43 3f
       342.04 1.8693539 0.6183014 0.76396185
000230 5a f4 5e 3f 2d 6b 77 3f f1 20 c9 41 be 7c bd 41
       0.870916 0.9664791 25.141085 23.68591
000240 47 e4 65 41 6b 50 09 39 00 00 00 00 1a a9 11 3a
       14.368232 0.00013095296 0.0 0.0005556509
000250 01 d3 7f 3f b9 dd b3 43 f9 f2 11 42 ce c0 69 44
       0.9993134 359.7322 36.487278 935.0126
000260 3d b4 d7 47 14 ec 10 40
       110440.48 2.264409

mp.layer0.post_layer.0.running_var f4 [154]
000000 58 05 6c 42 97 2f 5a 3e 50 50 3b 40 34 a7 95 40
       59.00522 0.21307217 2.926777 4.6766605
000010 79 3e 5c 28 e3 9c 49 0c b7 be 43 42 da b2 0f 3e
       1.2226e-14 1.5531688e-31 48.936245 0.1403307
000020 0f e9 e1 3e f5 80 28 40 bd f5 ac 3e d5 91 7a 23
       0.44123122 2.632871 0.33781233 1.3583408e-17
000030 4c b4 10 40 c2 b0 e4 3f 63 d4 56 40 60 d6 cd 42
       2.2610044 1.7866442 3.356713 102.9187
000040 6d b5 98 3e d4 94 80 41 d9 2a 87 41 49 a8 c1 2c
       0.29825917 16.07267 16.895922 5.5040733e-12
000050 67 92 f1 1b 11 fc ad 42 e2 d9 f4 3d ef 57 58 3f
       3.9964716e-22 86.99232 0.1195562 0.84509176
000060 87 ea 76 41 cb b6 07 3f f5 ea 16 2a cb 3b 85 42
       15.432258 0.53013295 1.3404193e-13 66.61678
000070 3d 87 11 42 10 1f b7 42 f6 ff e8 42 b3 7d 40 3f
       36.38207 91.56067 116.49992 0.751918
000080 5a c4 51 43 fa 47 3e 43 ca 27 13 37 1c 36 09 30
       209.767 190.28116 8.771147e-06 4.9917204e-10
000090 aa dd c0 42 9a 10 d3 3d 50 2f 1e 40 41 25 47 43
       96.43294 0.10305901 2.4716377 199.14552
0000a0 71 d1 8d 3f 30 36 ea 34 48 c4 16 46 0d 31 cd 45
       1.1079541 4.3625323e-07 9649.07 6566.1313
0000b0 31 ed 2a 46 a4 c1 de 42 0e 04 18 40 fd 08 61 44
       10939.298 111.378204 2.3752475 900.14044
0000c0 b4 f0 48 44 eb c0 f7 3a f6 a1 e3 39 c1 f0 a8 42
       803.761 0.0018902099 0.00043417484 84.47022
0000d0 d5 28 22 3e d3 60 cf 40 46 2c 57 44 42 ed fe 3f
       0.15835889 6.4805694 860.6918 1.9916155
0000e0 27 0a 37 3a 08 51 93 46 ab bf 92 46 34 97 93 46
       0.0006982409 18856.516 18783.834 18891.602
0000f0 d7 00 0b 43 8e 05 ac 40 82 91 8f 44 d0 60 8b 44
       139.00328 5.375678 1148.5471 1115.0254
000100 77 b2 f3 27 8c 17 b3 0c 08 cb e7 42 4c c9 69 3e
       6.763954e-15 2.7593489e-31 115.896545 0.22830695
000110 55 1d e7 40 a2 50 8d 44 39 52 a0 3f f5 f1 2a 23
       7.2223306 1130.5198 1.2525092 9.266955e-18
000120 f1 97 a6 46 5a 8f a7 46 4f 45 a6 46 1c bb fb 42
       21323.97 21447.676 21282.654 125.86545
000130 ab 38 c7 41 4b c2 a9 45 32 aa a6 45 42 a8 b7 2b
       24.90267 5432.2866 5333.2744 1.3049633e-12
000140 b2 c2 24 0c e9 b8 a6 42 45 1f 55 3e 58 0d fd 41
       1.269269e-31 83.36115 0.2081271 31.631516
000150 87 6a a8 45 ea b7 ec 3f a9 17 d3 26 42 8c a0 46
       5389.316 1.8493626 1.4647479e-15 20550.129
000160 fa 8e a4 46 b3 11 9e 46 7c da 3c 43 b5 ec a8 42
       21063.488 20232.85 188.85345 84.46232
000170 22 d9 52 46 c7 78 4d 46 15 9e b2 2c 8b 7e 3a 1c
       13494.283 13150.194 5.076615e-12 6.170579e-22
000180 dc a2 67 42 22 e4 4b 3e ad a2 c8 42 8f f6 50 46
       57.909042 0.19911245 100.317726 13373.64
000190 c2 63 5b 40 0d ff a2 29 9d 09 9a 46 bc de 9c 46
       3.4279637 7.2384895e-14 19716.807 20079.367
0001a0 e1 f0 97 46 2d b0 a9 43 09 46 70 43 88 0b 40 46
       19448.44 339.37637 240.27357 12290.883
0001b0 c4 a0 3d 46 cf 42 a7 31 9c 4e 1b 29 89 ae 05 42
       12136.191 4.867935e-09 3.4485097e-14 33.420444
0001c0 6d 07 f4 3e 3d e9 89 43 64 05 3f 46 63 99 a9 40
       0.47661915 275.82217 12225.348 5.299974
0001d0 8d 9a e6 2e 70 29 97 46 56 70 98 46 47 5a 96 46
       1.0486643e-10 19348.719 19512.168 19245.139
0001e0 95 dc f2 43 44 df b7 43 63 15 13 46 56 82 0f 46
       485.7233 367.74426 9413.347 9184.584
0001f0 cf c5 f4 34 c4 f1 f4 2d 6b b2 a4 41 e0 dd 6a 3f
       4.5592466e-07 2.7846954e-11 20.587118 0.91744804
000200 cf 05 d4 43 98 77 11 46 22 62 ae 40 44 f1 a5 32
       424.04538 9309.898 5.449479 1.9318243e-08
000210 bd 7e 96 46 eb 42 97 46 47 15 96 46 c6 d7 95 46
       19263.37 19361.459 19210.639 19179.887
000220 f6 ec 94 47 24 ca 38 40 68 79 b3 3d 8f 6c 0f 3e
       76249.92 2.8873377 0.08763391 0.14006256
000230 2c 9d 49 3e 24 65 88 3e c0 a2 aa 43 e6 e0 a5 43
       0.19688863 0.26639664 341.27148 331.75702
000240 4d c4 6b 42 48 d6 08 39 04 00 00 00 c4 28 11 3a
       58.9417 0.00013049797 6e-45 0.00055373856
000250 f6 5d 33 3a b3 2d 98 47 6a 8c b3 43 18 14 01 4a
       0.00068423094 77915.4 359.097 2.114822e+06
000260 63 ac 50 51 38 48 c9 3e
       5.6015335e+10 0.3931291

post_mp.layer_post_mp.model.0.Layer_0.layer.model.weight f4 [154, 154]
000000 01 99 e2 3d 56 93 1c bd bc 29 0e 3e 21 15 9e 3e
       0.110643394 -0.038226448 0.13883108 0.30875495
000010 86 e5 db 2b 8f 34 3e 35 b8 ca 1d be a5 70 ae 3e
       1.5624591e-12 7.0857e-07 -0.15409362 0.34070316
000020 74 58 d0 bd 6b ed 68 3d eb 71 c6 3e 11 9e fe 25
       -0.10173121 0.056867044 0.38758788 4.4169086e-16
000030 65 dd 13 3b c0 a6 ce bd 13 3d 2a be 20 8e d7 bd
       0.0022562381 -0.10090399 -0.1662486 -0.10525155
000040 d0 5b 97 3d 90 91 ec bd 0b aa 9c be ff 98 07 2f
       0.07390559 -0.11551201 -0.30598482 1.2332534e-10
000050 68 d2 46 2e cd 00 48 3c f8 95 fa be ee c7 c8 3b
       4.5206866e-11 0.012207222 -0.48942542 0.006127349
000060 2e e5 75 ba 97 b1 db bd 35 a6 ed 2a 9f d3 e0 3a
       -0.0009380159 -0.10727232 4.2214986e-13 0.0017152912
000070 02 9b 44 bc 14 c2 10 ba 05 d1 31 bd 1c 8e 00 3d
       -0.011999847 -0.0005522084 -0.043412227 0.031385526
000080 64 fa 96 39 da 04 14 3d 0a 7a 91 3e 7f fe c4 29
       0.00028796785 0.03613744 0.2841342 8.7482965e-14
000090 61 c0 7f b9 a1 9a 16 3e 97 77 57 3e 91 19 a0 ba
       -0.00024390362 0.14707424 0.21041714 -0.0012214651
0000a0 6e 80 5e be 84 d6 7a 3d bc 7b 4e ba 7a f6 8b 39
       -0.2172868 0.061239734 -0.0007876714 0.00026695785
0000b0 85 9b 8a 38 60 3a 51 be 0e c7 6a bd ca dd 9f 3c
       6.6093206e-05 -0.20432425 -0.05731874 0.019514937
0000c0 ea 3c c6 ba 34 72 a3 bd 7c 6d 05 be 5b 43 09 ba
       -0.0015124355 -0.07980767 -0.13030046 -0.0005236172
0000d0 5b 44 f8 bd 3e 7a f6 bd ca 66 04 3a ec ea 01 3d
       -0.12122413 -0.120350346 0.0005050717 0.03171818
0000e0 10 c8 da bb 1c e6 a0 3a 1d d5 a8 3a 62 8f 0f bb
       -0.0066766813 0.0012275609 0.0012880896 -0.0021905531
0000f0 bc 02 86 be 3e c3 07 3a a3 d8 b3 3b 15 f7 03 3a
       -0.2617396 0.00051789347 0.0054884716 0.00050340715
000100 04 9d d6 2c a8 6c 19 a3 b4 ab ba be b9 b7 4d 3e
       6.099678e-12 -8.3171555e-18 -0.36459124 0.20089616
000110 92 c7 92 bd 04 5e 11 ba 44 f1 ee 3d 5e 0c 93 2c
       -0.07166971 -0.00055453205 0.116671115 4.1793643e-12
000120 41 70 2e ba 0b 98 15 b9 4d d9 1c b7 56 cf dc bd
       -0.00066543004 -0.00014266388 -9.348919e-06 -0.10781734
000130 0d ca 86 3b 29 0c ef 38 71 28 b0 b9 54 83 40 2b
       0.004113442 0.00011398673 -0.00033599467 6.8394357e-13
000140 e2 6a ec 2e 30 c6 96 bd 13 a6 9f be 7a 14 e6 b9
       1.0751024e-10 -0.0736202 -0.31181392 -0.00043884275
000150 b0 53 dd b8 8e 3c 2a be 08 be b8 28 95 6a 9e 3a
       -0.00010553689 -0.16624662 2.0510517e-14 0.0012086207
000160 aa d9 9d 39 f9 70 ae b9 31 84 e5 b9 66 a5 26 3b
       0.00030107546 -0.00033272037 -0.00043776774 0.0025428175
000170 13 d1 cf b9 13 18 bb 3a ba 79 22 2b 7b d3 00 3a
       -0.0003963789 0.0014274142 5.772289e-13 0.00049143255
000180 aa fb a3 bc 06 d2 3c bd 9c 73 58 3a bc 89 9c 37
       -0.020017464 -0.04609873 0.0008256973 1.8660787e-05
000190 a9 9c ab bd 1c cb d1 b5 30 16 f5 3a 65 c1 c8 3a
       -0.0837949 -1.5630826e-06 0.0018698629 0.0015316425
0001a0 c9 9c 28 b9 77 96 60 b9 96 81 ea 3a f2 bc 2d bb
       -0.00016080136 -0.00021418357 0.0017891403 -0.0026510325
0001b0 b1 2e d7 3a 19 16 82 2c 4a 08 01 31 8a 1d ba be
       0.0016417113 3.6972756e-12 1.8776682e-09 -0.36350662
0001c0 19 03 31 3e dc 03 b9 3a 0e 40 3d 38 92 fc 86 b9
       0.17286338 0.001411553 4.5120767e-05 -0.0002574665
0001d0 f4 ef 7c 24 15 b6 50 3a b4 13 06 ba c7 11 00 b9
       5.4847038e-17 0.00079617026 -0.00051146303 -0.00012213654
0001e0 e2 be 97 b9 39 8b a3 39 35 88 8e 3a 77 b3 41 39
       -0.00028943183 0.00031193512 0.0010874333 0.0001847277
0001f0 6e 69 3a bf 68 6e 36 a6 b9 2b 9f 3e ca b1 6e 3e
       -0.7281712 -6.3293563e-16 0.31088045 0.23310009
000200 6a 37 f5 38 73 ef c4 39 ff 15 c9 b9 f3 13 1c 34
       0.00011692832 0.00037562437 -0.00038354096 1.453589e-07
000210 86 95 34 3a 2a aa 28 3b c7 0e 0d bb f2 1f 61 3b
       0.0006888736 0.0025736191 -0.00215237 0.0034351316
000220 72 53 14 3b 1e ea 3a 3d cc f2 2b be 73 c4 90 3e
       0.0022632745 0.045633428 -0.16791838 0.2827488
000230 3a 77 37 be 47 88 b8 3e 8a 00 72 38 e3 0e b3 3d
       -0.17916575 0.3604147 5.76978e-05 0.08743074
000240 28 56 8a 3e 36 0f 0e 3d 7e c5 e8 38 87 aa fa bd
       0.27018857 0.034682475 0.00011099408 -0.12239557
000250 1d aa 2c 3e 4c 36 30 3a 94 12 8f be e8 91 fc b7
       0.16861768 0.0006721958 -0.2794386 -3.0108684e-05
000260 5f c2 37 3a 30 f1 a8 be 8f 41 90 3c a7 45 01 be
       0.00070098595 -0.3299651 0.017609386 -0.12624227
000270 f7 59 b4 3d 09 eb d6 be e7 f9 03 ab a1 eb 8a b3
       0.08806222 -0.41976193 -4.688736e-13 -6.4689864e-08
000280 e3 e5 8e 3d a7 43 89 3e 2a 1d d2 3d 96 2a bd bc
       0.06977441 0.26809427 0.10259469 -0.023091596
000290 b1 8d e7 3d cb 45 40 26 a8 cf 20 3a c5 af 7a 3e
       0.11306322 6.670797e-16 0.0006134459 0.24481113
0002a0 28 45 b1 bd 48 7a 6f 3e db b4 6b 3c 55 48 8b bc
       -0.08655769 0.2338649 0.014386381 -0.017002264
0002b0 22 61 85 3d ad 9d 0c 30 66 d3 6f 2f bc df 1c bd
       0.06512667 5.1155774e-10 2.1812027e-10 -0.038299307
0002c0 6e 43 f0 bb 89 68 ae be 7a 14 4d bb 71 3a bf bd
       -0.007332257 -0.3406413 -0.0031292723 -0.09337319
0002d0 e2 9f 67 a9 53 72 92 3b d5 73 16 be 4a a9 60 b9
       -5.143098e-14 0.004469195 -0.14692624 -0.0002142537
0002e0 ce ef 26 be 75 15 86 3e 40 9c 9c 3a eb 7e 38 be
       -0.16302416 0.26188245 0.0011948422 -0.18017165
0002f0 c4 32 27 be ab 2e 93 28 48 bb 3e b8 57 cb 9c 3e
       -0.1632796 1.6340517e-14 -4.547395e-05 0.30623886
000300 25 e0 60 3e 8e 7e da b9 37 e2 51 3e 4c 95 63 be
       0.21960504 -0.0004167449 0.2049645 -0.22224921
000310 1a f0 12 ba 4c 46 eb 3b 2d 73 48 39 45 d0 3b be
       -0.0005605236 0.007180011 0.00019116393 -0.18341167
000320 92 22 d5 3c 36 53 60 bd d7 19 1e ba 9c 61 ee bb
       0.026017461 -0.054766856 -0.0006031072 -0.0072748195
000330 15 15 d9 bd 87 ab d1 b8 be 57 00 bf 84 36 1e be
       -0.10599724 -9.997846e-05 -0.50133884 -0.15450484
000340 1e b8 fa b8 99 c2 7c 3d 11 18 a7 bb 4f ef f1 39
       -0.000119552235 0.06170902 -0.0050993045 0.000461454
000350 0e c8 92 3a 75 8e 1c 3b 40 76 bc bd 75 91 eb 38
       0.0011198537 0.0023888622 -0.09202242 0.00011232767
000360 ef 53 ec 3d d2 be 92 ba 11 d5 39 ac 28 6a d6 22
       0.115394466 -0.0011195785 -2.6408357e-12 5.8117214e-18
000370 34 91 4d be 16 4c 6e 3e ad 21 11 bd 9d a9 46 3a
       -0.20074922 0.23271212 -0.035432506 0.0007578375
000380 4b 96 18 3e a4 2e 65 2d 67 f4 84 38 a1 74 13 3a
       0.14901082 1.3027499e-11 6.339774e-05 0.0005624984
000390 4b b4 91 38 b3 73 95 bd 6f 15 7e 3b a4 f5 fa 3a
       6.947721e-05 -0.072974585 0.00387701 0.0019146693
0003a0 6b c5 9f 3a bf fc 32 aa 9a a7 37 ae 53 26 28 be
       0.0012189572 -1.5897265e-13 -4.1758243e-11 -0.1642087
0003b0 1b e9 90 bd 16 c7 7f 3b 5e 0f 82 39 c4 ff 38 3e
       -0.07075711 0.0039028577 0.00024806982 0.18066317
0003c0 62 36 b9 a7 46 0e a7 3a 3f 40 bb 38 12 56 18 3b
       -5.1406777e-15 0.0012745343 8.9288216e-05 0.0023244661
0003d0 f6 92 8b ba 67 cc 81 3a 86 12 b2 b8 f2 4d 84 3a
       -0.0010648656 0.0009902836 -8.491152e-05 0.001009403
0003e0 3f dc 69 aa ce 4c 27 b9 88 f7 22 3d 09 d7 61 bd
       -2.077097e-13 -0.00015954973 0.039786845 -0.055136714
0003f0 70 c9 58 3b 28 4e 02 3a bc 81 4f 3d 46 ec be 35
       0.003307905 0.00049707526 0.050660834 1.4224868e-06

post_mp.layer_post_mp.model.0.Layer_0.post_layer.0.weight f4 [154]
000000 a9 2a b5 3f 0b 96 9b 3f 84 cd 92 3f 6d a5 92 3f
       1.4153644 1.2155164 1.1468968 1.1456734
000010 b7 8c c4 3f 94 8f 8e 3f 2e 9b 93 3f 10 b8 98 3f
       1.5355443 1.1137567 1.1531732 1.1931171
000020 31 25 a6 3f 57 59 85 3f 27 5a 8b 3f d3 7c 93 3f
       1.29801 1.0417889 1.0886887 1.1522468
000030 83 b4 a2 3f b9 3b 9e 3f 1e 4c ab 3f ea fd 97 3f
       1.2711338 1.2361976 1.3382604 1.1874363
000040 c2 9f a2 3f 1e 32 ab 3f 36 29 8c 3f ae ef a6 3f
       1.2705004 1.337467 1.0950077 1.3041894
000050 2d 52 ac 3f 12 25 9e 3f ba 1a 8e 3f e2 20 8e 3f
       1.3462578 1.2355063 1.1101906 1.1103785
000060 43 9f 9b 3f 41 77 92 3f c7 7a 5e 3f 8f f8 a9 3f
       1.2157978 1.1442643 0.86906093 1.3278979
000070 52 80 a8 3f 0e de 9e 3f 8f 1e be 3f 3c cc a9 3f
       1.316416 1.2411516 1.4853076 1.3265452
000080 48 e6 b3 3f bd 00 9f 3f 4a 60 82 3f 8b 35 9c 3f
       1.4054651 1.24221 1.0185635 1.220384
000090 a0 a5 a7 3f 2a 5f a5 3f 4e d5 9e 3f a0 ba a1 3f
       1.309742 1.2919667 1.2408845 1.2635078
0000a0 43 fe a1 3f df 42 b2 3f 17 b9 b5 3f 15 06 ae 3f
       1.265572 1.3926657 1.419711 1.3595606
0000b0 84 c4 b5 3f 4d c6 9d 3f 43 13 a0 3f e5 f4 9e 3f
       1.4200597 1.2326142 1.2505878 1.2418486
0000c0 7d 82 98 3f 4d 39 90 3f 87 62 93 3f 96 2c 62 3f
       1.1914822 1.1267487 1.1514443 0.8834928
0000d0 1d 12 a6 3f 41 ef a0 3f ae 40 76 3f a3 fc 94 3f
       1.2974278 1.2573014 0.96192443 1.1639599
0000e0 2b 18 9f 3f a8 d7 af 3f 6c 16 bd 3f 3f 89 a6 3f
       1.242925 1.3737688 1.4772468 1.3010634
0000f0 4d 04 96 3f e1 30 aa 3f 1b ba 85 3f e1 46 a3 3f
       1.1720062 1.3296167 1.044742 1.2756006
000100 c7 df ad 3f 8b be 95 3f a3 9a af 3f be a6 89 3f
       1.3583916 1.1698774 1.3719066 1.0754011
000110 27 73 ad 3f 83 29 ae 3f 47 f8 b1 3f 62 65 92 3f
       1.3550767 1.3606418 1.3903893 1.143719
000120 32 16 6f 3f 9a aa 9d 3f fc e5 86 3f fd c0 8d 3f
       0.9339324 1.2317688 1.0538936 1.107452
000130 66 a6 95 3f dd 50 a7 3f 5f 3a 92 3f 76 62 85 3f
       1.1691406 1.3071553 1.1424063 1.0420673
000140 11 4f a7 3f 9f 55 ab 3f 40 33 b3 3f 6a db 9c 3f
       1.3071004 1.3385504 1.4000015 1.225446
000150 4c 0e aa 3f 2d 86 ae 3f 50 7d a5 3f f5 fa 9a 3f
       1.3285613 1.3634697 1.2928867 1.2107836
000160 85 62 9f 3f 8c fc ac 3f 0e ac a9 3f a1 ca a6 3f
       1.2451941 1.3514571 1.3255632 1.3030587
000170 da 71 a0 3f 54 36 94 3f 49 6c a2 3f bb 00 a4 3f
       1.2534745 1.157908 1.2689296 1.2812723
000180 dc 0e 9c 3f 38 3b 95 3f b1 e6 a6 3f 92 12 89 3f
       1.2192035 1.1658697 1.3039151 1.0708792
000190 e3 3c 98 3f 3a b7 9a 3f 9b f6 a9 3f 7b 8e ac 3f
       1.1893581 1.2087166 1.3278383 1.3480982
0001a0 0b 55 b5 3f a4 91 8a 3f 87 ba 9b 3f 70 60 99 3f
       1.4166578 1.0825696 1.2166299 1.1982555
0001b0 6a 09 99 3f 48 8f ab 3f 54 b3 ab 3f 68 56 a3 3f
       1.1955998 1.3403101 1.3414102 1.2760744
0001c0 81 56 98 3f 06 61 8c 3f 9d 95 9a 3f 9b d5 9e 3f
       1.1901399 1.0967109 1.2076908 1.2408937
0001d0 87 f8 bd 3f be d1 94 3f 5a 32 b1 3f e0 a0 a1 3f
       1.484147 1.1626508 1.3843491 1.262722
0001e0 81 e9 a3 3f 69 24 a6 3f 7e a9 a8 3f 8e 69 a2 3f
       1.2805635 1.2979861 1.3176725 1.2688463
0001f0 54 34 a2 3f 32 68 90 3f 13 65 8f 3f 61 e4 a2 3f
       1.2672219 1.1281798 1.120272 1.2725946
000200 6c d9 ab 3f 22 f9 a9 3f 53 05 a7 3f 4c 53 a2 3f
       1.3425727 1.3279154 1.30485 1.268167
000210 02 02 a0 3f d2 14 a9 3f 25 2a a5 3f 53 b8 80 3f
       1.2500613 1.3209479 1.2903486 1.0056251
000220 bf b2 b4 3f 8a 49 a6 3f c2 24 7a 3f d7 b7 ab 3f
       1.4117049 1.2991192 0.9771234 1.3415478
000230 a2 f8 9b 3f 99 4d aa 3f 97 94 a6 3f 11 77 bb 3f
       1.2185252 1.3304931 1.3014096 1.4645711
000240 76 89 9b 3f c6 94 85 3f 88 8f aa 3f 3b e5 98 3f
       1.2151325 1.0436027 1.3325052 1.1944956
000250 1e dc 8e 3f 1a 42 aa 3f 30 a1 b2 3f eb 64 99 3f
       1.1160924 1.3301423 1.395544 1.1983923
000260 79 f0 a1 3f ed 45 95 3f
       1.2651511 1.1661965

post_mp.layer_post_mp.model.0.Layer_0.post_layer.0.bias f4 [154]
000000 b5 4c b0 be d3 07 8d be 7e 59 c1 bb f3 ae 44 bc
       -0.34433523 -0.27545032 -0.005900561 -0.012004602
000010 97 1e d9 3c 5a 88 65 bd 3e b3 f5 3d f0 7d a2 3d
       0.026503844 -0.056038238 0.11997078 0.07934177
000020 28 87 5b 3e e4 1a 6e be 50 f6 0d 3e 7c 5b 71 3e
       0.21438277 -0.23252445 0.13863492 0.23570055
000030 2a f8 20 be b6 bd 4d 3c ce ad 29 3e 67 8e 95 bd
       -0.15719667 0.012557438 0.16570207 -0.07302552
000040 52 4b 93 3d 8f 8b 60 3d df 3e d3 bd 96 9a 4c 3e
       0.071921006 0.054820593 -0.10314726 0.19980845
000050 49 55 79 be 2d 0b 71 3d 85 ba 1e 3c 7c d1 bc 3d
       -0.2434894 0.05884855 0.009688024 0.092196435
000060 7b 66 60 3e 4d b9 e1 3d 52 53 ff 3d 48 ee 80 3e
       0.21914093 0.110216714 0.12467064 0.25181794
000070 89 f8 04 bc 71 24 18 3f b5 6d b6 bc 17 a3 7c bc
       -0.008115896 0.59430605 -0.02226911 -0.015419743
000080 c3 67 0a be 9a a6 9b 3e f3 fa 5e 3d df 2a 45 bd
       -0.13516144 0.30400544 0.054438543 -0.04813659
000090 ce cd 3e bd 98 cc 94 be 1d 10 d2 bc 7e 37 95 bd
       -0.04658299 -0.29062343 -0.025642449 -0.07285975
0000a0 b3 12 3d 3e dc 53 7a 3e 3a 86 9e b9 b0 6b 74 3c
       0.18464164 0.24446052 -0.00030236115 0.014918253
0000b0 30 39 ca bd 8e 92 1e 3e de c3 7c be e4 16 56 3d
       -0.09874189 0.15485594 -0.24684092 0.052267924
0000c0 e4 cf 4d be 7c 93 6e 3d fb fb 1b 3d 75 59 2f be
       -0.20098835 0.05824612 0.038082104 -0.17123969
0000d0 5b 72 d8 3d fb f3 c1 3c 7f ae fb bd e4 77 87 be
       0.105686866 0.02367591 -0.12289142 -0.26458657
0000e0 ef 2a 01 be 8e a0 be 3e 20 f6 6b bd ba 51 82 be
       -0.12614034 0.37231869 -0.05760777 -0.25452977
0000f0 58 7e a3 be 9b 74 5a be c6 88 f1 3d 31 1b 0b be
       -0.3193233 -0.21333544 0.117936656 -0.13584591
000100 57 38 71 be e0 cf 9f 3d ab 96 07 bd 04 94 a8 3d
       -0.23556648 0.07803321 -0.033102673 0.08231357
000110 04 1d b5 3d 3c c5 c2 bd 72 87 aa bc 3c e3 d5 3d
       0.08843425 -0.09510276 -0.020816538 0.10443732
000120 9b 7f bb 3e 48 dc e4 bd 6c a3 12 be 10 8e be bd
       0.36620793 -0.11174828 -0.14320153 -0.0930444
000130 e8 bc c1 bb 51 10 14 3f f6 74 8e bd 88 db 4e 3d
       -0.005912412 0.57837397 -0.06955902 0.05050233
000140 b0 31 1d 3e a4 b6 82 bd 8f 86 15 be a5 21 bb 3d
       0.15350986 -0.06382492 -0.14602111 0.091372766
000150 cc 02 2d be 47 dc 3b bd ec 70 99 bc 2f ea be 3d
       -0.16895598 -0.04586437 -0.018730603 0.09322011
000160 69 22 9b 3e 24 f6 1e be fb 67 fc be 25 1a 9b be
       0.3029969 -0.15523583 -0.4929808 -0.30293384
000170 c8 ba 07 be 58 c4 e6 3c 2e 9a 69 bd bc 39 3c 3e
       -0.13254845 0.028169796 -0.057031803 0.18381399
000180 8d eb aa 3d 4f fa 65 3e cf 0e ee 3c d6 6e 3b 3d
       0.08345709 0.22458766 0.029059796 0.04576
000190 e5 98 76 be 72 20 a4 3d 03 a7 b5 be 4f c5 85 be
       -0.24081762 0.08014001 -0.35478982 -0.26127097
0001a0 66 c2 2f bb 1a f1 66 3e e0 9e 9a be 3a 1d 5c 3c
       -0.0026818751 0.2255291 -0.30199337 0.0134347025
0001b0 45 a7 41 3e cf 1c 17 be 3f 23 8d be 53 23 41 3e
       0.18911465 -0.14757083 -0.27565953 0.18861131
0001c0 ec 99 01 3e 4e 7d 9e 3d 06 02 a9 3d 9a 8f ab be
       0.12656373 0.07738744 0.08252339 -0.33507997
0001d0 6b fd 68 be 1b 8f 1c be 98 a2 8b 3c 79 cf 20 3c
       -0.22752921 -0.15288965 0.017045304 0.00981509
0001e0 1e 56 55 be 34 8d 32 3d 76 f6 96 3d 27 f4 1f be
       -0.20833632 0.043591693 0.073712274 -0.1562048
0001f0 c6 83 f5 bd 43 64 24 be cb a5 58 3c 8a 00 d6 3d
       -0.119880244 -0.16053872 0.013223122 0.104493216
000200 f6 2e 52 be 45 6b 93 3d e4 f3 3d bc 52 b3 5a 3d
       -0.20525727 0.071981944 -0.011593793 0.05339367
000210 80 68 99 3e 6c 35 d3 bc d6 27 f0 bd 5f 85 40 bd
       0.2996254 -0.02578231 -0.11726348 -0.047002193
000220 a2 cc 8f be b3 37 27 3e 6e 08 3a 3e 95 f1 d8 be
       -0.2808581 0.16329841 0.18167278 -0.42371812
000230 37 35 c5 bd 55 4a 83 be ac 1b a7 3d 73 16 0f bd
       -0.096292906 -0.25642648 0.08159575 -0.03493352
000240 bb dd cf 3d 17 fb 82 3e 6e 53 70 bd 77 45 8c be
       0.101497136 0.2558219 -0.058673315 -0.27396747
000250 41 5f b9 3e 72 62 15 be 6a 08 2b be 33 a0 5b bd
       0.36205485 -0.14588335 -0.16702428 -0.053619575
000260 32 9b a0 bd e9 36 24 be
       -0.07842101 -0.16036572

post_mp.layer_post_mp.model.0.Layer_0.post_layer.0.running_mean f4 [154]
000000 78 47 10 be ab f1 8c 3d ab d7 52 3d 09 f4 5b be
       -0.14089763 0.06882032 0.05147521 -0.21479811
000010 25 22 a4 bd ed b6 f1 3d bd 6b b8 3d a1 04 d8 3d
       -0.08014325 0.118024684 0.090049244 0.10547758
000020 ed 54 7f bb 8f 5e 30 bd af 29 79 3e 49 30 c8 3c
       -0.0038960532 -0.043058928 0.24332307 0.024437087
000030 04 f7 99 3e 5d f9 96 bd ba 55 e5 bd 99 62 1b be
       0.3007127 -0.07371781 -0.11197992 -0.15174331
000040 19 e8 43 3c 48 dd 89 3e ed 4d 8b 3e 9e 0d a5 bd
       0.011957192 0.26926637 0.2720789 -0.08059238
000050 23 f4 53 3e 88 60 6e 3e ab 28 d5 bd 69 bf 5a 3e
       0.206986 0.23279011 -0.104081474 0.2136208
000060 a0 2e be 3d e7 5c 45 3e fd dd 4d bd fa 91 b8 3d
       0.09286237 0.1927372 -0.050260533 0.09012218
000070 ef 33 90 be 4d c1 d3 bd cf 17 f5 3d dd 3d c6 bd
       -0.28164622 -0.103396036 0.11967432 -0.09679768
000080 44 9d 37 3e 96 a5 31 3e 02 95 2e be 9a 9a 0d 3e
       0.17931086 0.17348322 -0.1704903 0.13828507
000090 1c fe 41 3e f3 a7 76 bb d4 40 38 be 86 91 0e 3d
       0.18944591 -0.0037636727 -0.1799348 0.03480675
0000a0 b2 95 78 3e 72 f3 8d 3d 71 4e d7 bd 3c 83 c5 bc
       0.24275854 0.06931199 -0.105130084 -0.024110429
0000b0 5a 25 1f be aa 32 22 bd 10 82 2c bc f0 b2 62 be
       -0.15541592 -0.0395991 -0.010529056 -0.22138572
0000c0 54 33 26 3d 24 d8 0a 3e a9 7a a4 bc 38 61 79 bd
       0.040576294 0.13559014 -0.02007802 -0.06088373
0000d0 62 ac 80 3c b6 8b 5f bc 2f 9e c7 3d bf aa d9 3d
       0.015707199 -0.0136441495 0.09746968 0.1062827
0000e0 2e 6b 0a 3e 60 bd 20 bd 81 ce ef bd ae b1 f9 3d
       0.13517448 -0.039243102 -0.11709309 0.12192093
0000f0 0d a4 62 bb 14 73 1c bd 13 6e eb 3d 49 e8 d2 bd
       -0.0034582645 -0.038195685 0.11495604 -0.10298211
000100 de 3e b7 3d f7 34 0e 3e fd 98 c7 3d 50 14 bf bc
       0.08947538 0.13887392 0.09745977 -0.023325115
000110 5b f4 94 bd 16 d4 3a 3d 8c 1f 40 3d 5d 0c 64 3d
       -0.072731696 0.045612417 0.046905085 0.055675853
000120 09 80 c0 3d 13 f0 e9 bc b7 cb 0c 3d e0 76 a2 3d
       0.09399421 -0.02855686 0.034373965 0.0793283
000130 dd dd d7 3d 27 54 f6 3b ab 2b df bd f5 1d ef 3d
       0.10540364 0.007517356 -0.10897001 0.11675636
000140 af 95 8b 3e 75 61 6d 3d dc 6d 6f be 76 98 05 3e
       0.27262637 0.05795427 -0.23381752 0.1304644
000150 71 3c 90 be ad ae 24 3e f6 20 12 be b7 ae 9b 3d
       -0.28171113 0.16082259 -0.14270386 0.076016836
000160 4f 81 6b 3d 45 cc 18 3d dd 69 8f 3d 04 62 ba bb
       0.057496365 0.03730418 0.07002614 -0.005687954
000170 1b 80 f8 3d 20 38 1c bc 65 27 02 bd ef 2f 2c 3e
       0.12133809 -0.009534866 -0.03177585 0.1681516
000180 8a 39 fa 3d cd 56 d3 3c e1 70 cc 3e 95 6d 93 3d
       0.12218006 0.025798226 0.3992987 0.071986355
000190 8b a9 21 3d 46 58 60 3d 7e 7e b9 3c 04 12 2b 3b
       0.03946833 0.054771684 0.022643324 0.0026103267
0001a0 8a da 0d be 05 76 82 3e c7 e7 b9 3d 73 a3 e2 3c
       -0.13852897 0.25480667 0.09077411 0.02766583
0001b0 8c c1 80 3e 9f 64 4b 3e 12 c4 3c bd e9 c9 0c 3d
       0.25147665 0.19862603 -0.046085425 0.034372244
0001c0 9c e4 81 bd 20 84 d5 bd 88 43 40 bd 28 1e af bd
       -0.06342432 -0.104255915 -0.046939403 -0.08550674
0001d0 42 52 44 bd e5 4f de 3d 2b 24 67 3e 3f a1 53 3e
       -0.04793001 0.108550824 0.2257239 0.20666979
0001e0 53 0c 87 3d 76 17 68 3d e7 5f 6c bd a4 62 60 bd
       0.065941475 0.056663 -0.057708647 -0.05478157
0001f0 5a b7 ed 3d c5 15 34 3e 01 96 40 bd 8d 2f 20 bd
       0.11607237 0.1758643 -0.047018055 -0.039107848
000200 f4 19 39 3e 3e d7 7e 3d 09 da 5f be 30 5a ca bc
       0.18076307 0.06221699 -0.21860518 -0.024701208
000210 ef 5c cf 3c fd fb c3 3d a1 27 4c bd 96 69 a6 bd
       0.025312869 0.09569547 -0.04984248 -0.08125608
000220 ff 87 01 3e 54 39 84 3d c8 bd 90 bc cd 78 2d 3e
       0.12649535 0.06456247 -0.01766862 0.16940613
000230 5b 08 3b 3d 61 d9 6d bd 1d e5 66 3c 39 24 30 bd
       0.045662265 -0.058068637 0.014092711 -0.043003295
000240 92 9f 17 3e d6 22 9d 3d e1 87 40 bd ba 2c b8 bd
       0.14806965 0.0767266 -0.047004584 -0.08992906
000250 07 66 77 bd 7f a4 8d 3e 2e 1c c8 3d d9 b0 9c 3e
       -0.060400035 0.27664563 0.09771 0.30603674
000260 b5 9c ae 3d e6 05 83 3c
       0.08525983 0.015994024

post_mp.layer_post_mp.model.0.Layer_0.post_layer.0.running_var f4 [154]
000000 5b e9 16 3c f2 f5 0a 3c a6 fd a6 3b 50 4e 99 3b
       0.00921091 0.0084814895 0.005096155 0.004678525
000010 69 3b 5a 3c 29 3c aa 3b e1 d7 b7 3b 43 bc ea 3b
       0.013319829 0.00519516 0.0056104516 0.007163556
000020 dc ed 16 3c 45 52 9b 3b cb 62 cf 3b 63 9d f7 3b
       0.0092119835 0.004740032 0.0063289157 0.0075566038
000030 2e 75 e3 3b 6e b2 d8 3b 72 07 d4 3b a9 d3 e3 3b
       0.006941459 0.0066130674 0.006470614 0.006952722
000040 a5 42 b6 3b 3f 35 00 3c e0 cc b1 3b 09 57 25 3c
       0.005562144 0.007825195 0.0054260343 0.010091552
000050 12 03 03 3c d8 40 f4 3b d3 1e c6 3b cc 17 d8 3b
       0.0079963375 0.007454019 0.006046155 0.0065946337
000060 c0 e1 ea 3b 8f 7e 03 3c 99 80 07 3b 74 e7 00 3c
       0.007168025 0.008025779 0.0020676015 0.007867683
000070 09 b4 d9 3b c2 92 0d 3c ae 07 50 3c 5f 44 fe 3b
       0.0066437763 0.008640947 0.0126971435 0.0077596153
000080 c7 1b e3 3b 77 c6 d9 3b ab 32 ae 3b ba 6b e3 3b
       0.0069308016 0.0066459733 0.0053160987 0.0069403322
000090 92 f8 3a 3c 4a 1f f0 3b dc 42 14 3c d6 ba 19 3c
       0.011411803 0.0073279487 0.009049144 0.009382924
0000a0 1d 41 11 3c 2a 4c 2e 3c 6c 3d 09 3c 5f 9d 35 3c
       0.008865622 0.010638276 0.0083764605 0.0110848835
0000b0 fb a7 d7 3b dc 71 08 3c c0 8b fc 3b 1a 0b 01 3c
       0.006581304 0.008327927 0.007707089 0.007876182
0000c0 f1 26 02 3c 8c b0 af 3b 96 84 a5 3b 23 50 43 3b
       0.007943855 0.005361622 0.005051206 0.0029802404
0000d0 1d 87 c6 3b d6 07 00 3c 6c f2 69 3b 81 3c b7 3b
       0.006058587 0.007814368 0.0035697473 0.0055919294
0000e0 6f ad cd 3b 43 2e 2c 3c f5 ba 20 3c 39 52 24 3c
       0.0062767784 0.0105090765 0.009810199 0.010029369
0000f0 2a d1 dd 3b 25 0c 0e 3c 73 47 d9 3b d6 33 e8 3b
       0.006769319 0.008669888 0.006630832 0.0070862575
000100 4b 0b f4 3b 54 f5 e6 3b 16 1f 22 3c f2 4f bb 3b
       0.0074476353 0.0070482884 0.009895107 0.0057163173
000110 68 19 fc 3b 78 ea 0a 3c 4c 9f 0a 3c 2e 2d d9 3b
       0.0076934583 0.008478753 0.008460831 0.0066277003
000120 30 0c 93 3b b8 b6 d5 3b 51 ea 89 3b 36 e0 a4 3b
       0.004487537 0.006522026 0.004208841 0.005031611
000130 af 78 de 3b 2b ce f4 3b 24 9a c4 3b 72 fe 96 3b
       0.006789289 0.007470866 0.0059998203 0.004607969
000140 11 f2 09 3c a9 cb fb 3b 09 16 1c 3c a0 26 b0 3b
       0.00841953 0.0076841903 0.009526738 0.005375698
000150 07 4f fe 3b 48 f7 e3 3b c5 05 e3 3b ae 50 dd 3b
       0.0077608856 0.0069569685 0.006928178 0.0067540025
000160 ee 37 10 3c 10 88 cf 3b f3 5e 03 3c 22 b1 04 3c
       0.008802397 0.0063333586 0.008018243 0.008098872
000170 95 03 da 3b 31 9c d0 3b f3 22 d8 3b f8 d4 e7 3b
       0.006653259 0.0063662757 0.006595963 0.0070749484
000180 1c bf cc 3b 23 1a bd 3b 77 f8 fe 3b 8a 4c 9e 3b
       0.006248368 0.005770938 0.007781084 0.0048309015
000190 a3 c0 be 3b 01 f5 e0 3b b3 42 0e 3c 72 5f fb 3b
       0.005821304 0.0068651442 0.0086828945 0.00767129
0001a0 3a c7 18 3c 35 69 af 3b 0b 5a d9 3b 4f b4 e7 3b
       0.009324843 0.005353118 0.0066330484 0.007071055
0001b0 31 16 d7 3b b4 55 13 3c e0 05 04 3c d2 b2 02 3c
       0.0065639247 0.008992601 0.008058041 0.007977204
0001c0 ee d8 f8 3b 0a 28 8b 3b a9 9a c2 3b 30 2e f9 3b
       0.0075942194 0.0042467164 0.005938847 0.007604383
0001d0 b1 d5 1c 3c 5c fd e7 3b c8 d4 09 3c dc 4d e3 3b
       0.009572432 0.0070797633 0.008412547 0.006936772
0001e0 d7 ac d5 3b 5e 12 f3 3b 01 23 ef 3b 1c 08 05 3c
       0.0065208483 0.007417961 0.007297874 0.008119609
0001f0 7a a3 f6 3b a4 a7 a2 3b e0 58 c7 3b db 1e 04 3c
       0.007526812 0.004963832 0.006083593 0.008063997
000200 75 1e c7 3b 82 d3 2d 3c ba b8 fa 3b ef 06 01 3c
       0.006076629 0.010609509 0.0076514157 0.007875188
000210 32 9a f7 3b 4d ca e9 3b 15 93 0c 3c 33 d4 96 3b
       0.0075562233 0.007134712 0.008579989 0.004602933
000220 30 d2 02 3c cb be 10 3c e7 42 9e 3b 77 07 f5 3b
       0.007984683 0.008834551 0.0048297527 0.0074776965
000230 9a d6 b4 3b 41 a7 0e 3c ac 63 01 3c 1b be 24 3c
       0.0055187466 0.008706869 0.007897299 0.01005509
000240 0e d9 e4 3b 30 9b c5 3b a0 7e 09 3c 7d b2 f8 3b
       0.0069838827 0.0060304627 0.008392006 0.007589637
000250 5a fb a2 3b e4 97 fb 3b 58 93 03 3c 8e b2 c1 3b
       0.004973811 0.007678019 0.008030735 0.005911178
000260 ff ae d2 3b 30 cc bd 3b
       0.0064295526 0.0057921633

post_mp.layer_post_mp.model.1.model.weight f4 [28, 154]
000000 d2 1b 9a bc ac 43 8a bc 91 76 84 bc 04 7d 76 bc
       -0.018812094 -0.016877972 -0.016169818 -0.0150444545
000010 c8 c0 a3 bc 3a ee 7f bc a2 47 80 bc 42 ee 94 bc
       -0.019989386 -0.0156207625 -0.015659157 -0.018180016
000020 7e eb 88 bc a8 32 59 bc 11 a4 81 bc c1 0a a1 bc
       -0.016713854 -0.013256706 -0.015825303 -0.019658448
000030 ab ea 92 bc ca c5 8e bc b3 f4 9e bc bc 69 8c bc
       -0.017934164 -0.017428298 -0.019403791 -0.017140262
000040 e3 fa 93 bc b2 80 a5 bc 78 41 7a bc ea f7 9f bc
       -0.018063968 -0.020202968 -0.015274398 -0.019527394
000050 93 60 8e bc 22 4a 8e bc 4a 37 82 bc f4 ba 8f bc
       -0.017380035 -0.017369334 -0.015895505 -0.0175452
000060 ec f4 a0 bc 2e 42 8e bc 97 a1 60 bc 5e 18 a5 bc
       -0.019648038 -0.017365541 -0.013710401 -0.02015322
000070 2e af 9d bc e8 b2 b5 bc b6 66 b5 bc a9 e4 87 bc
       -0.019248571 -0.022180036 -0.022143703 -0.016588526
000080 0a 5a 9b bc 0a a3 9c bc 4e 50 6c bc 67 4f 86 bc
       -0.018963832 -0.019120712 -0.014423443 -0.016395284
000090 01 46 93 bc 4c f6 88 bc 39 ca 8d bc f2 e8 8e bc
       -0.017977716 -0.016719006 -0.017308341 -0.017445061
0000a0 b7 19 97 bc 93 56 a2 bc a0 ef 98 bc 41 e0 a3 bc
       -0.018444879 -0.019816672 -0.01866895 -0.020004394
0000b0 d4 cb a3 bc 18 9c 98 bc c0 95 8e bc d7 fe 7e bc
       -0.019994654 -0.018629119 -0.01740539 -0.015563688
0000c0 c1 e4 8a bc dd 90 80 bc 81 0f 90 bc 39 f7 3a bc
       -0.016954781 -0.015694076 -0.017585518 -0.011411482
0000d0 59 48 98 bc a4 a7 90 bc 3f 1d 55 bc 9b 6a 85 bc
       -0.018589186 -0.017658062 -0.013007461 -0.016286185
0000e0 c5 63 8a bc 02 17 b3 bc 06 b6 ad bc e1 6a 94 bc
       -0.016893277 -0.021861557 -0.02120496 -0.01811737
0000f0 63 9d 89 bc 51 4a 99 bc d0 86 96 bc 3f 75 85 bc
       -0.01679868 -0.018712195 -0.01837483 -0.016291259
000100 76 79 98 bc 99 3f 79 bc 87 29 95 bc f3 cb 79 bc
       -0.018612605 -0.015212917 -0.018208278 -0.015246379
000110 0c c3 9b bc 06 26 a1 bc df e8 9e bc 5c ac 82 bc
       -0.019013904 -0.019671451 -0.019398151 -0.015951328
000120 fc e8 81 bc 19 62 84 bc 12 36 63 bc 40 c0 6d bc
       -0.015858166 -0.016160058 -0.013867872 -0.014511168
000130 a8 64 7d bc 88 d9 c1 bc c8 10 81 bc 62 a9 81 bc
       -0.015465893 -0.023663297 -0.015755072 -0.015827838
000140 8d a4 a6 bc bf 8e 99 bc e5 79 8d bc 0f 77 8e bc
       -0.020342136 -0.018744824 -0.017270038 -0.017390756
000150 33 b0 90 bc 42 71 9c bc 82 e0 85 bc 8f 53 8a bc
       -0.017662143 -0.019096974 -0.016342405 -0.016885547
000160 d9 be ac bc 21 1f 93 bc fe 68 9b bc 31 1d 85 bc
       -0.021087097 -0.01795918 -0.018970963 -0.016249271
000170 72 aa 84 bc a9 39 7d bc 1b db 91 bc 2e 09 a8 bc
       -0.016194556 -0.015455642 -0.017804673 -0.02051219
000180 9e fa 8d bc 61 11 8d bc ef e9 9f bc 75 84 78 bc
       -0.017331418 -0.017220201 -0.019520728 -0.015168299
000190 0f 3a 83 bc 51 86 87 bc 26 a0 91 bc 81 24 99 bc
       -0.016018895 -0.01654354 -0.01777656 -0.018694164
0001a0 75 73 9d bc 9d 54 99 bc 8c 0d 88 bc 67 f2 88 bc
       -0.019220093 -0.018717105 -0.016608022 -0.016717149
0001b0 74 bb 9b bc 74 67 8f bc 45 03 85 bc eb 9d a4 bc
       -0.019010283 -0.017505385 -0.01623691 -0.020094832
0001c0 d7 28 87 bc 5c c2 78 bc ee 8f 8a bc 01 c7 77 bc
       -0.016498966 -0.015183058 -0.016914334 -0.01512313
0001d0 18 19 a0 bc 03 4d 8d bc fa 55 9f bc c2 d8 9c bc
       -0.019543216 -0.017248636 -0.019450177 -0.019146327
0001e0 f5 88 9b bc 48 cc 9b bc d6 31 9b bc 87 38 91 bc
       -0.018986205 -0.019018307 -0.018944662 -0.01772715
0001f0 0e 7c 84 bc 2f b0 77 bc bd dc 7b bc 16 6a 95 bc
       -0.016172435 -0.015117689 -0.015372452 -0.018239062
000200 72 81 8b bc b1 da 9b bc 82 c0 88 bc f1 fe 8a bc
       -0.017029498 -0.019025179 -0.016693357 -0.016967269
000210 f1 7b c7 bc 3a 9e 88 bc 07 6e 8a bc e0 00 71 bc
       -0.024351092 -0.01667701 -0.016898168 -0.014709681
000220 0c 75 a7 bc cd 03 92 bc ca 35 87 bc a5 78 9c bc
       -0.020441554 -0.017824078 -0.01650514 -0.019100497
000230 88 5a 8b bc 58 3b 93 bc cb 1c 97 bc 82 e8 b2 bc
       -0.017010942 -0.017972633 -0.018446347 -0.021839384
000240 58 09 93 bc 17 ed 84 bc fb 7f 8a bc c8 a0 8c bc
       -0.017948791 -0.016226334 -0.016906729 -0.01716651
000250 09 8f 8f bc 55 b4 92 bc e1 6c 93 bc 4f fd 8a bc
       -0.01752426 -0.017908255 -0.017996253 -0.01696649
000260 b6 d3 94 bc 7e ba 83 bc f7 a4 96 be 5f 5f 6a bf
       -0.018167358 -0.016080137 -0.29422733 -0.91551775
000270 cf 07 71 be b5 5f bf bd 3d 4c 1d bf 99 b6 fd 3d
       -0.23538135 -0.093444265 -0.61444455 0.12388343
000280 c4 e6 3d be f6 30 9c 3e 1a 95 85 be 5a dc 37 3e
       -0.18545061 0.30506104 -0.26090318 0.17955151
000290 0f 7c d1 3e 1b 4f e7 3d b1 3d 6b bd 33 0b cb be
       0.40914962 0.11294385 -0.05743188 -0.39656982
0002a0 c3 3f ad 3c c0 f6 95 3e 92 88 01 3f fe fe cd be
       0.021148568 0.29289818 0.50599015 -0.40233606
0002b0 16 0b db 3e 40 d3 a1 bd 37 d2 4a bd 22 29 d4 3e
       0.42781895 -0.07901621 -0.049516883 0.41437632
0002c0 be 07 2c be 52 6e 7e 3e 54 1b cf be 3b 5a 3f bd
       -0.16799828 0.24846771 -0.40450537 -0.04671691
0002d0 3d 1d 57 be 24 80 05 bf d8 ca 4b 3c ff a6 38 3f
       -0.21007247 -0.5214865 0.012438498 0.72129816
0002e0 9d e6 25 3d 1a ef c8 3e 0b 3e e2 3e 3c a5 80 3e
       0.040503133 0.3924492 0.4418796 0.25126064
0002f0 92 5b 89 3d 37 c1 3b bd 63 2e 4e 3e e6 7e ae bd
       0.06706919 -0.04583856 0.20134883 -0.08520298
000300 2f ca 69 bc ad 5d df 3e 93 e9 23 3f 7d 7a 08 be
       -0.014269396 0.43626156 0.6402828 -0.13327976
000310 59 96 e1 3e a5 8e 4b bf 67 8b af 3e 28 6d 6d 3e
       0.4406002 -0.79514533 0.34286043 0.23186171
000320 e5 c5 98 3e eb 66 25 bf 3c 2c 12 3d e6 ad aa 3d
       0.29838482 -0.64610165 0.035686716 0.0833395
000330 5e 6c 08 bd 0d fa 2c 3e 40 d2 e6 3d 31 c0 47 3e
       -0.033306472 0.16892262 0.11270571 0.19506909
000340 20 91 d8 3e e5 14 38 3f d1 a8 e4 be 04 01 1f bf
       0.42298222 0.7190688 -0.44660047 -0.62110925
000350 d8 7a 7a be b3 e0 22 bc 07 66 df bd 4a a5 0c be
       -0.24460924 -0.009941268 -0.10908132 -0.13734928
000360 79 c7 4c bc 1b 08 0d 3f 04 bc a4 be ca 4a 7e 3d
       -0.01249873 0.5509049 -0.32174695 0.062083043
000370 37 b0 4e be a8 a4 ea bd 57 6a 0f 3f eb 72 86 bc
       -0.20184408 -0.11457187 0.56021637 -0.016412219
000380 f8 bf ca 3c 75 27 ec be 0b 09 a2 3c ae 46 15 3f
       0.024749741 -0.46123853 0.019779703 0.58310974
000390 63 1b 4e be 14 3d 34 3f ce 82 31 bf 0e 03 f6 be
       -0.20127635 0.704057 -0.6934022 -0.48049206
0003a0 76 c0 02 3f 9d 66 c3 bd 77 98 f3 be bb cf ab be
       0.5107492 -0.09541056 -0.4757726 -0.33556923
0003b0 8b 43 9f 3e 80 12 27 be 67 ce 62 3e 04 bf c0 bd
       0.3110622 -0.16315651 0.22149049 -0.09411433
0003c0 6b a4 c2 3e 34 4c da 3d 94 23 13 3f 0d 0e a6 3e
       0.38016066 0.10659066 0.5747616 0.32432595
0003d0 d1 6c 85 be 5a 84 62 bd 4a 13 21 3f fa c5 f6 3d
       -0.26059583 -0.055302 0.6292006 0.1204948
0003e0 24 2d 1b bf e9 cf b8 3e 6e 7a 10 bf fd a9 8d 3e
       -0.60615754 0.36096123 -0.5643681 0.27668753
0003f0 5e fa 03 be 1d 79 4b 3e e0 10 86 3d 92 14 09 3e
       -0.12888476 0.1987042 0.065461874 0.13386753

post_mp.layer_post_mp.model.1.model.bias f4 [28]
000000 23 be c5 bc ba b6 e3 bd 25 72 0a bd c0 d1 5d 3e
       -0.024138516 -0.11118837 -0.033800263 0.21662045
000010 3e 79 65 bc 1e d2 2f bd 76 dd 1e 3d d5 e0 6b 3c
       -0.014005957 -0.042924993 0.03878542 0.014396866
000020 83 ec 86 bd 0d d7 0b be 24 be c5 bc 22 be c5 bc
       -0.0658808 -0.13656254 -0.024138518 -0.024138514
000030 37 51 db 3d 22 be c5 bc 36 66 5c 3d da 94 35 be
       0.1070885 -0.024138514 0.053808413 -0.17732564
000040 07 9a 51 bd b8 e6 20 3e c9 94 1e 3e 22 be c5 bc
       -0.051172283 0.15713012 0.15486445 -0.024138514
000050 48 f0 46 bc ec f2 c2 3d 04 31 b6 3d 55 7c 9f 3c
       -0.012142248 0.0951899 0.08896068 0.019468466
000060 77 c3 50 3d 88 06 93 bc 8d 1a 08 bd e9 38 b1 bc
       0.05096766 -0.01794745 -0.033228446 -0.021633582
