predict_omitted/ctrl_embeddings_1_iter/1/ckpt/999.ckpt (torch_old, 352682 bytes, 25 tensors)

mp.layer0.post_layer.0.weight f4 [154]
000000 fd 3d ee 3e 4c b6 89 bb be f2 17 3f f8 64 46 3f
       0.46531668 -0.0042026397 0.5935477 0.77497816
000010 c8 e1 36 a6 19 b2 97 a4 44 59 48 bc 18 72 26 3f
       -6.3449925e-16 -6.578752e-17 -0.012228314 0.65017843
000020 3b 45 03 bb 8e 3d 3a 3f 40 7c 1d 3f 3a 2e 5d a1
       -0.0020030278 0.72750175 0.61517715 -7.4938893e-19
000030 f8 5f 87 3b 10 9c 49 3f ef c4 4b 3f 23 c8 31 3f
       0.0041313134 0.7875376 0.7959737 0.6944601
000040 3a eb e9 3e 50 18 67 3f d6 57 11 bb 7f 66 9d ac
       0.45687276 0.9027147 -0.0022177598 -4.4735877e-12
000050 84 89 f7 af 0d 82 0d 3f 19 72 c5 3e d0 fd 25 3f
       -4.502675e-10 0.55276567 0.38563612 0.6484041
000060 c3 f7 16 3b ae 65 bc bb a0 8e 18 30 cc 36 3b 3f
       0.002303586 -0.005749426 5.549996e-10 0.7313049
000070 e4 09 43 ba 30 73 33 3f da ef a7 3e bc ab 2e 3f
       -0.00074401335 0.7009764 0.3280018 0.68230796
000080 87 91 1e 3f 92 a7 11 39 9d 40 ea 3f 2b 88 cf 3f
       0.6194081 0.00013890702 1.8300968 1.621343
000090 9f 7a 14 3f 20 90 ff 3e 9d 41 1d 3f f9 24 23 3f
       0.57999605 0.49914646 0.6142824 0.6372829
0000a0 fa ec dd bc bb cd af 2e 4e 8d d8 3e 33 9b 4c 3a
       -0.027090538 7.994624e-11 0.42295307 0.0007805109
0000b0 d4 f4 f0 39 70 76 88 3b 7d 3d 0c 3f 67 73 c4 3e
       0.00045958778 0.0041645095 0.54781324 0.38369295
0000c0 17 8f 48 3f 49 b9 b2 3e ca be 09 bb 16 95 25 3f
       0.7834334 0.34906986 -0.002101826 0.6468061
0000d0 ce 7e ac 3e cf 7e 5f 3f f4 5e 8e bb 60 52 16 3f
       0.33690494 0.8730287 -0.0043448154 0.58719444
0000e0 07 da 5f 3e d4 9e 61 38 59 47 52 b8 f1 68 c1 ba
       0.21860515 5.37921e-05 -5.013435e-05 -0.0014756006
0000f0 7d fa 1a 3f f3 51 7b bb bd ec 04 3f 5d 82 dd 39
       0.60538465 -0.0038348406 0.51923734 0.00042249533
000100 fd 2a 0a a3 f6 0d c8 21 b2 97 33 3f 48 b6 d3 bb
       -7.490098e-18 1.3556223e-18 0.70153344 -0.0064609386
000110 38 15 1d 3f 7b 94 e8 b9 d1 6a 2f 3f 17 38 af 92
       0.613605 -0.00044361115 0.68522364 -1.105788e-27
000120 1b bc b3 3e 6c ed bf 39 4b cd 34 3a da 54 cd 3a
       0.3510445 0.00036607252 0.0006897046 0.0015665547
000130 d6 d2 21 3f 66 b8 27 38 94 4e b4 3a 06 8b 69 8e
       0.63212335 3.9987637e-05 0.0013756328 -2.8786405e-30
000140 82 ad 52 a5 dd 2d 36 bf c2 e2 cf 3e 12 f7 0d 3f
       -1.8273383e-16 -0.7116373 0.4060269 0.55455124
000150 48 1c 9a b8 87 e8 14 3f 84 e5 36 a8 51 67 9b ba
       -7.34856e-05 0.5816731 -1.0152798e-14 -0.0011856352
000160 a8 af 32 b9 60 39 83 b9 ab 9f 6f 3e c8 eb 25 3a
       -0.0001704084 -0.00025029015 0.23400752 0.00063293846
000170 e4 03 9e 3b 79 72 31 bb 21 0f 41 aa 19 f4 27 b1
       0.004822241 -0.0027076288 -1.7147092e-13 -2.4440452e-09
000180 1e f1 1b 3f c6 11 ef 3e b7 08 37 3f a1 b3 9a b9
       0.6091479 0.46693248 0.7149767 -0.00029507003
000190 dc 89 34 3f a8 9c 21 bb ea e9 6f b9 32 fa c6 39
       0.70522857 -0.0024660025 -0.00022879956 0.00037951913
0001a0 45 39 8f b7 4f d5 00 b9 9d 13 1e 3f a0 dc 8b ba
       -1.7073597e-05 -0.00012286495 0.6174868 -0.001067061
0001b0 94 7d 38 bb c1 d5 10 36 60 ab 96 34 73 65 0d 3f
       -0.0028151022 2.1582093e-06 2.806437e-07 0.55232924
0001c0 4d ef 49 3f 04 b2 ae b9 10 5e db 39 64 d2 33 3f
       0.7888077 -0.00033320498 0.00041841017 0.70242906
0001d0 2b be 2f 25 4e b8 49 38 fb 3a fa b8 d3 43 30 b9
       1.5243262e-16 4.809378e-05 -0.00011931915 -0.00016809934
0001e0 ec be 86 b8 2b e3 31 ba 37 99 06 ba 88 eb e4 b8
       -6.42518e-05 -0.0006785865 -0.0005134525 -0.00010915758
0001f0 69 3f ed 3f fc 71 13 40 60 df d4 3e 75 c4 4f 3f
       1.8534976 2.303832 0.41576672 0.81159145
000200 ed 44 1b b9 45 14 d8 b9 11 5a 5a 3f ad 17 27 40
       -0.00014807629 -0.00041213832 0.8529368 2.61082
000210 7c dd 30 3a 54 5b 89 b9 82 06 62 ba ac 24 81 b9
       0.0006746871 -0.0002619872 -0.00086221856 -0.0002463212
000220 d5 e4 11 3f b8 a7 20 3f 34 de 33 3f 35 bc 59 3f
       0.56989795 0.6275592 0.7026093 0.85052806
000230 1c 2a 5b 3f 7a 63 38 3f 0c 35 0a 3f 0e 3d 1e 3f
       0.8561113 0.7202679 0.53987193 0.6181191
000240 5d 47 63 3f ea 90 03 3f 95 06 00 80 b1 cf 19 3f
       0.88780767 0.51392996 -2.361e-42 0.60082537
000250 cd a3 55 ba 23 58 30 ba 62 b7 6e 3f 0f c2 15 3f
       -0.00081497134 -0.00067270006 0.9324857 0.58499235
000260 21 2a 8a bb 72 a3 2b 3f
       -0.004216448 0.6704627

mp.layer0.post_layer.0.bias f4 [154]
000000 17 4a 05 3e ce 3e 96 3b 05 37 4d be a1 d1 a7 3e
       0.13016544 0.0045851236 -0.2004052 0.32777122
000010 f6 f7 49 34 6c ca 99 32 72 45 3f bb 71 9b 96 be
       1.8809791e-07 1.7903595e-08 -0.002918568 -0.29415467
000020 13 4d 1b bc a6 c9 7d 3f da a5 fa 3e f4 af 69 2f
       -0.009478825 0.99135816 0.4895466 2.1253738e-10
000030 96 29 0f bc 5e e1 a9 bd 3c ea 62 3f fa db 95 be
       -0.008737942 -0.082949385 0.88638663 -0.2926939
000040 b3 21 ff 3e 19 32 6d 3f d0 f9 d3 3c 83 92 10 b0
       0.49830398 0.9265457 0.025875956 -5.25951e-10
000050 5e d3 5a b4 3f 7a 4f 3e eb 7e 35 3f cb 09 85 3e
       -2.0379727e-07 0.20261477 0.70896786 0.25984034
000060 56 aa 91 bc 75 13 9d 3b 5a 50 96 b4 ac bf 3e 3f
       -0.017781418 0.004793579 -2.799814e-07 0.7451122
000070 a5 2e aa 3b 64 40 50 bc d9 b2 a8 3e 06 d6 bd 3e
       0.0051935487 -0.012710664 0.3294895 0.3707735
000080 36 9f 54 3f fe d0 1d bc fc b7 e6 3e c8 87 68 bf
       0.83055437 -0.009632347 0.45062244 -0.90832186
000090 01 11 42 bd 2f 43 01 3f e6 02 47 bc 5e e9 48 3e
       -0.047379497 0.5049314 -0.012146687 0.19620273
0000a0 58 1d a1 3c 24 7b 05 30 a7 0f 74 3e f7 72 c1 3b
       0.019667313 4.856011e-10 0.23834096 0.0059035975
0000b0 cc d0 32 bb 4d 49 b3 bc 28 93 df bc d1 5a 6c 3f
       -0.0027285097 -0.021885538 -0.02729185 0.92326075
0000c0 9e d4 43 3f 77 7f 1e 3f 67 03 36 3c 5d 4e 1d bd
       0.76496303 0.61913246 0.01110921 -0.03840481
0000d0 f8 18 ee 3e 73 79 0a 3f fc 07 67 3c ec 04 bf 3e
       0.46503425 0.54091567 0.014101025 0.37308443
0000e0 49 cf ae be fe 39 e5 3a 68 dc 9a bb 4c f0 d0 b8
       -0.3414252 0.0017488596 -0.0047259815 -9.962972e-05
0000f0 02 ca 8f 3d e2 4a b5 3b 63 b3 4b 3e 1f 12 a8 3b
       0.07020952 0.0055326084 0.1989265 0.0051291133
000100 44 2a a6 31 1f 97 1d b0 d6 57 16 3f 42 8d 2c 3c
       4.836041e-09 -5.7331023e-10 0.58727777 0.010531725
000110 60 f5 e8 3e c7 7b bd bb 3e e3 35 3d 32 3b 3e 21
       0.45499706 -0.0057825777 0.04440617 6.445285e-19
000120 dd 0d 1f bd 44 f9 58 bb 51 95 3d bb d3 c5 d2 ba
       -0.03883158 -0.0033107558 -0.002892811 -0.0016080685
000130 3c 83 f3 3e db 8c 69 bb d0 7f 1b 3c b5 d5 e8 9c
       0.4756106 -0.0035636935 0.009490922 -1.5407714e-21
000140 b7 b8 b4 b3 ec fa f0 3c 4c 1f 15 3f b7 e1 91 3c
       -8.4155026e-08 0.029416524 0.5825088 0.017807825
000150 19 c9 64 3b 0c d7 bc 3e 6e cd 0e b6 4f 59 87 3b
       0.0034909903 0.36882818 -2.1279225e-06 0.0041305195
000160 df ea f4 3b 4c 8b 2f bb b8 25 80 bd 77 37 85 ba
       0.007474288 -0.0026785908 -0.06257194 -0.0010163625
000170 49 46 0c 3b 12 38 50 bc e2 e0 ba 2e bc ac 9e 35
       0.0021404198 -0.012708681 8.498248e-11 1.182219e-06
000180 5e b5 b7 3e 68 be 0b 3f af fd d9 3e e9 c0 4f ba
       0.3588056 0.5458741 0.42576358 -0.0007925169
000190 33 28 ab bd 1a e9 fc 3f d2 58 5c 3b 2c 04 80 ba
       -0.08357277 1.9758637 0.0033622277 -0.0009766868
0001a0 30 55 f0 ba 0d 2a 30 3b f7 9b 8d 3e 9f a8 ad ba
       -0.0018335935 0.0026880533 0.27658054 -0.0013249106
0001b0 c6 54 ca 39 4f 65 2a 39 9e dd 40 b6 3c 9e 49 3f
       0.00038591604 0.00016250204 -2.8739228e-06 0.7875707
0001c0 0e d0 be 3b da 3a 21 bb 1f eb a8 3b e7 fd f0 3e
       0.005823142 -0.0024601729 0.0051549817 0.47068712
0001d0 71 36 a2 a7 67 f3 81 bb c3 fd ea bb 9f 53 ac 3b
       -4.502306e-15 -0.0039657834 -0.007171364 0.005258992
0001e0 b0 3a 44 3b a1 8c d9 bb 11 06 c9 3b 63 98 33 bb
       0.0029942207 -0.0066390787 0.0061347564 -0.0027404062
0001f0 7b 6d 93 3d 0f 0c be 3d 94 39 7e 3e 06 27 9f 3f
       0.07198616 0.09279644 0.24826652 1.2433784
000200 9e 71 0d bc 9c fd b4 bb 3b c3 fa 3d 2e 90 d9 3d
       -0.0086330455 -0.0055233967 0.122442685 0.10623203
000210 7e 33 c6 3b fa 6f b3 bb ff 6a 88 ba 22 12 87 bb
       0.006048619 -0.005475995 -0.0010407864 -0.0041220346
000220 66 9d b0 3e 05 54 3a 3f ba 45 c9 3e b0 56 93 be
       0.34495085 0.72784454 0.3931101 -0.28777075
000230 03 93 bb be 40 9b f5 3d 06 7a 78 3f a8 94 20 3f
       -0.366356 0.11992502 0.97061193 0.6272683
000240 f7 ed 9b 3f 2d 43 c9 bc d8 53 16 b7 0d 40 59 bd
       1.2181996 -0.024568165 -8.960218e-06 -0.0530396
000250 1b 8d 10 ba 6b f1 7c bb 40 a1 61 3f 3c af 45 bd
       -0.00055141904 -0.0038596045 0.8813667 -0.04826282
000260 64 c6 a8 bb 78 4e ed 3e
       -0.005150603 0.4634893

mp.layer0.post_layer.0.running_mean f4 [154]
000000 21 6a 7b 40 21 6a 7b 40 8f fc 69 41 8f fc 69 41
       3.9283526 3.9283526 14.62416 14.62416
000010 37 cf 25 28 37 cf 25 28 50 38 4f 40 50 38 4f 40
       9.2042725e-15 9.2042725e-15 3.237812 3.237812
000020 21 6a 7b 40 8f fc 69 41 50 38 4f 40 37 cf 25 28
       3.9283526 14.62416 3.237812 9.2042725e-15
000030 92 ef c5 40 92 ef c5 40 92 ef c5 40 32 f3 92 40
       6.1854944 6.1854944 6.1854944 4.592187
000040 32 f3 92 40 e2 01 d0 41 e2 01 d0 41 c8 f4 89 32
       4.592187 26.00092 26.00092 1.6060213e-08
000050 c8 f4 89 32 69 6f 4f 40 69 6f 4f 40 32 f3 92 40
       1.6060213e-08 3.241175 3.241175 4.592187
000060 e2 01 d0 41 69 6f 4f 40 c8 f4 89 32 c4 4c a4 41
       26.00092 3.241175 1.6060213e-08 20.537483
000070 c4 4c a4 41 c4 4c a4 41 27 ab e6 40 27 ab e6 40
       20.537483 20.537483 7.2083926 7.2083926
000080 5d 64 4f 42 5d 64 4f 42 a1 fe 4e 38 a1 fe 4e 38
       51.84801 51.84801 4.935137e-05 4.935137e-05
000090 63 26 80 40 63 26 80 40 27 ab e6 40 5d 64 4f 42
       4.004686 4.004686 7.2083926 51.84801
0000a0 63 26 80 40 a1 fe 4e 38 d8 74 cc 42 d8 74 cc 42
       4.004686 4.935137e-05 102.22821 102.22821
0000b0 d8 74 cc 42 f1 c3 18 41 f1 c3 18 41 6d 48 95 42
       102.22821 9.547837 9.547837 74.64146
0000c0 6d 48 95 42 22 50 46 3b 22 50 46 3b f9 16 85 40
       74.64146 0.0030260165 0.0030260165 4.1590543
0000d0 f9 16 85 40 f1 c3 18 41 6d 48 95 42 f9 16 85 40
       4.1590543 9.547837 74.64146 4.1590543
0000e0 22 50 46 3b ba 21 0d 43 ba 21 0d 43 ba 21 0d 43
       0.0030260165 141.13174 141.13174 141.13174
0000f0 36 e3 d7 40 36 e3 d7 40 ab ec 3a 42 ab ec 3a 42
       6.7464857 6.7464857 46.73112 46.73112
000100 3d 15 e4 27 3d 15 e4 27 8e fb 7e 40 8e fb 7e 40
       6.330574e-15 6.330574e-15 3.9841037 3.9841037
000110 36 e3 d7 40 ab ec 3a 42 8e fb 7e 40 3d 15 e4 27
       6.7464857 46.73112 3.9841037 6.330574e-15
000120 0a 02 be 42 0a 02 be 42 0a 02 be 42 31 42 22 41
       95.00398 95.00398 95.00398 10.14116
000130 31 42 22 41 f9 7d b3 42 f9 7d b3 42 3a 7a 14 28
       10.14116 89.74604 89.74604 8.242154e-15
000140 3a 7a 14 28 94 48 87 40 94 48 87 40 31 42 22 41
       8.242154e-15 4.2276096 4.2276096 10.14116
000150 f9 7d b3 42 94 48 87 40 3a 7a 14 28 2a d7 05 43
       89.74604 4.2276096 8.242154e-15 133.84048
000160 2a d7 05 43 2a d7 05 43 41 0e 79 41 41 0e 79 41
       133.84048 133.84048 15.56598 15.56598
000170 43 cb 06 43 43 cb 06 43 40 6e 3b 33 40 6e 3b 33
       134.79399 134.79399 4.3639602e-08 4.3639602e-08
000180 41 97 9d 40 41 97 9d 40 41 0e 79 41 43 cb 06 43
       4.9247136 4.9247136 15.56598 134.79399
000190 41 97 9d 40 40 6e 3b 33 7c 7f 16 43 7c 7f 16 43
       4.9247136 4.3639602e-08 150.49799 150.49799
0001a0 7c 7f 16 43 7f c1 b9 41 7f c1 b9 41 eb 00 fe 42
       150.49799 23.21948 23.21948 127.00179
0001b0 eb 00 fe 42 0b 4f 95 35 0b 4f 95 35 f4 82 9c 40
       127.00179 1.112437e-06 1.112437e-06 4.8909855
0001c0 f4 82 9c 40 7f c1 b9 41 eb 00 fe 42 f4 82 9c 40
       4.8909855 23.21948 127.00179 4.8909855
0001d0 0b 4f 95 35 c1 b2 1d 43 c1 b2 1d 43 c1 b2 1d 43
       1.112437e-06 157.69826 157.69826 157.69826
0001e0 c4 dd d8 41 c4 dd d8 41 7c a0 dd 42 7c a0 dd 42
       27.108284 27.108284 110.813446 110.813446
0001f0 8a 88 05 38 8a 88 05 38 7d 72 95 40 7d 72 95 40
       3.1836833e-05 3.1836833e-05 4.6702256 4.6702256
000200 c4 dd d8 41 7c a0 dd 42 7d 72 95 40 8a 88 05 38
       27.108284 110.813446 4.6702256 3.1836833e-05
000210 15 54 1f 43 15 54 1f 43 15 54 1f 43 4f 83 20 43
       159.32845 159.32845 159.32845 160.51292
000220 1f 05 ab 43 fd 46 ef 3f 00 49 1e 3f 01 93 43 3f
       342.04 1.8693539 0.6183014 0.76396185
000230 5a f4 5e 3f 2d 6b 77 3f f1 20 c9 41 be 7c bd 41
       0.870916 0.9664791 25.141085 23.68591
000240 47 e4 65 41 6b 50 09 39 00 00 00 00 1a a9 11 3a
       14.368232 0.00013095296 0.0 0.0005556509
000250 01 d3 7f 3f b9 dd b3 43 f9 f2 11 42 ce c0 69 44
       0.9993134 359.7322 36.487278 935.0126
000260 3d b4 d7 47 14 ec 10 40
       110440.48 2.264409

mp.layer0.post_layer.0.running_var f4 [154]
000000 01 51 1a 41 01 51 1a 41 c7 30 46 40 c7 30 46 40
       9.644776 9.644776 3.0967271 3.0967271
000010 7c cd a1 16 7c cd a1 16 86 a2 f2 40 86 a2 f2 40
       2.6140632e-25 2.6140632e-25 7.5823393 7.5823393
000020 01 51 1a 41 c7 30 46 40 86 a2 f2 40 7c cd a1 16
       9.644776 3.0967271 7.5823393 2.6140632e-25
000030 50 eb 19 40 50 eb 19 40 50 eb 19 40 ca 20 6a 40
       2.4049873 2.4049873 2.4049873 3.6582513
000040 ca 20 6a 40 9c 1a 7b 41 9c 1a 7b 41 6c e5 51 2b
       3.6582513 15.693996 15.693996 7.45701e-13
000050 6c e5 51 2b c6 df 1a 40 c6 df 1a 40 ca 20 6a 40
       7.45701e-13 2.419908 2.419908 3.6582513
000060 9c 1a 7b 41 c6 df 1a 40 6c e5 51 2b d3 6d 92 42
       15.693996 2.419908 7.45701e-13 73.2145
000070 d3 6d 92 42 d3 6d 92 42 92 ca c6 41 92 ca c6 41
       73.2145 73.2145 24.848911 24.848911
000080 10 d7 47 43 10 d7 47 43 25 44 64 35 25 44 64 35
       199.84009 199.84009 8.503578e-07 8.503578e-07
000090 0a 98 92 41 0a 98 92 41 92 ca c6 41 10 d7 47 43
       18.324238 18.324238 24.848911 199.84009
0000a0 0a 98 92 41 25 44 64 35 21 2c 21 46 21 2c 21 46
       18.324238 8.503578e-07 10315.032 10315.032
0000b0 21 2c 21 46 b3 33 bb 41 b3 33 bb 41 39 72 56 44
       10315.032 23.400244 23.400244 857.7847
0000c0 39 72 56 44 58 ed 54 3a 58 ed 54 3a 95 43 5d 41
       857.7847 0.0008122525 0.0008122525 13.8289995
0000d0 95 43 5d 41 b3 33 bb 41 39 72 56 44 95 43 5d 41
       13.8289995 23.400244 857.7847 13.8289995
0000e0 58 ed 54 3a 02 46 94 46 02 46 94 46 02 46 94 46
       0.0008122525 18979.004 18979.004 18979.004
0000f0 95 7c dd 41 95 7c dd 41 7a 7a 8d 44 7a 7a 8d 44
       27.685831 27.685831 1131.8274 1131.8274
000100 c1 b1 2f 16 c1 b1 2f 16 e3 fa 8a 41 e3 fa 8a 41
       1.4192477e-25 1.4192477e-25 17.372503 17.372503
000110 95 7c dd 41 7a 7a 8d 44 e3 fa 8a 41 c1 b1 2f 16
       27.685831 1131.8274 17.372503 1.4192477e-25
000120 90 b6 a6 46 90 b6 a6 46 90 b6 a6 46 8c 1e 5f 42
       21339.281 21339.281 21339.281 55.77983
000130 8c 1e 5f 42 36 8a a7 45 36 8a a7 45 45 44 5c 17
       55.77983 5361.2764 5361.2764 7.1172e-25
000140 45 44 5c 17 57 f9 7b 41 57 f9 7b 41 8c 1e 5f 42
       7.1172e-25 15.748374 15.748374 55.77983
000150 36 8a a7 45 57 f9 7b 41 45 44 5c 17 e7 91 a1 46
       5361.2764 15.748374 7.1172e-25 20680.951
000160 e7 91 a1 46 e7 91 a1 46 96 0c ff 42 96 0c ff 42
       20680.951 20680.951 127.52458 127.52458
000170 f7 76 51 46 f7 76 51 46 cf 7c 7f 2c cf 7c 7f 2c
       13405.741 13405.741 3.6306962e-12 3.6306962e-12
000180 44 57 b7 41 44 57 b7 41 96 0c ff 42 f7 76 51 46
       22.91761 22.91761 127.52458 13405.741
000190 44 57 b7 41 cf 7c 7f 2c 20 dc 99 46 20 dc 99 46
       22.91761 3.6306962e-12 19694.062 19694.062
0001a0 20 dc 99 46 a1 b8 92 43 a1 b8 92 43 a5 34 3f 46
       19694.062 293.4424 293.4424 12237.161
0001b0 a5 34 3f 46 69 8b 76 2f 69 8b 76 2f c0 ec 1a 41
       12237.161 2.2423098e-10 2.2423098e-10 9.6828
0001c0 c0 ec 1a 41 a1 b8 92 43 a5 34 3f 46 c0 ec 1a 41
       9.6828 293.4424 12237.161 9.6828
0001d0 69 8b 76 2f 2b 3a 97 46 2b 3a 97 46 2b 3a 97 46
       2.2423098e-10 19357.084 19357.084 19357.084
0001e0 21 25 db 43 21 25 db 43 70 dd 10 46 70 dd 10 46
       438.29007 438.29007 9271.359 9271.359
0001f0 e8 89 98 32 e8 89 98 32 5d 5d fa 40 5d 5d fa 40
       1.7757841e-08 1.7757841e-08 7.823897 7.823897
000200 21 25 db 43 70 dd 10 46 5d 5d fa 40 e8 89 98 32
       438.29007 9271.359 7.823897 1.7757841e-08
000210 b2 92 96 46 b2 92 96 46 b2 92 96 46 c6 d7 95 46
       19273.348 19273.348 19273.348 19179.887
000220 f6 ec 94 47 24 ca 38 40 68 79 b3 3d 8f 6c 0f 3e
       76249.92 2.8873377 0.08763391 0.14006256
000230 2c 9d 49 3e 24 65 88 3e c0 a2 aa 43 e6 e0 a5 43
       0.19688863 0.26639664 341.27148 331.75702
000240 4d c4 6b 42 48 d6 08 39 04 00 00 00 c4 28 11 3a
       58.9417 0.00013049797 6e-45 0.00055373856
000250 f6 5d 33 3a b3 2d 98 47 6a 8c b3 43 18 14 01 4a
       0.00068423094 77915.4 359.097 2.114822e+06
000260 63 ac 50 51 38 48 c9 3e
       5.6015335e+10 0.3931291

post_mp.layer_post_mp.model.0.Layer_0.layer.model.weight f4 [154, 154]
000000 a2 60 cc 3d ea 27 11 bb 8f a3 f8 3e fa 39 c3 be
       0.09979369 -0.0022149035 0.48562285 -0.3813017
000010 05 f7 ed 33 e7 5e 41 32 c1 f6 49 3b 38 02 8b bd
       1.1081105e-07 1.1255657e-08 0.0030817243 -0.067875326
000020 89 68 e6 b9 6d c5 d2 bc e3 85 13 3e e9 d6 19 2f
       -0.00043946903 -0.025728906 0.14406542 1.399162e-10
000030 89 f9 33 bb 48 41 82 be d6 08 aa bc 59 83 04 3d
       -0.0027461967 -0.2544043 -0.020756166 0.032351825
000040 68 b5 3e be f9 9a 29 be 5d 82 5b bc 9c ad 75 2d
       -0.18623888 -0.16563024 -0.01339778 1.3965187e-11
000050 55 40 0f 34 0e ca 7b bd d4 e0 d7 3c 54 d3 e2 3c
       1.3341317e-07 -0.06147199 0.026352324 0.02768866
000060 b3 17 fe ba 5c 30 1a bb f0 e9 52 34 58 3a 89 bb
       -0.0019385725 -0.002352736 1.964288e-07 -0.0041878633
000070 c6 be 9c ba fb 0b 90 3e 0d 33 ef 3d 8e 36 80 be
       -0.001195871 0.2813414 0.11679659 -0.25041622
000080 b0 3f a8 bd cc 3a 4d ba d7 5d bd 3e ed 0d 7c bc
       -0.082152724 -0.0007828891 0.36985657 -0.01538418
000090 0a 0d 1c 3e 25 0e d3 bd 94 09 ec bd d7 96 d8 3d
       0.15239349 -0.10305432 -0.115252644 0.105756454
0000a0 e7 7a 66 3c 2b 96 fd 2d d7 13 ee 3c 1d 46 a5 bb
       0.014067388 2.8829458e-11 0.029062195 -0.0050437585
0000b0 61 c0 0a ba 0b 88 91 b9 6e af 1a bd cb b6 6e 3e
       -0.0005292949 -0.00027757915 -0.03776496 0.23311917
0000c0 17 81 60 3e 12 b3 08 3d 56 c2 a1 bb 0c 8b 4f be
       0.21924244 0.0333739 -0.0049364967 -0.20267886
0000d0 21 d2 84 3d fb a6 1c 3d 09 0c 9c bb 10 30 cb 3d
       0.064853914 0.038245182 -0.004762177 0.099212766
0000e0 0f ba a6 3d 5f 7d 68 ba 04 b6 dd ba 2a ae e5 39
       0.081409566 -0.00088687794 -0.0016915207 0.00043808046
0000f0 0b a3 05 be b8 10 fe b9 41 ce 1c 3d 33 cc b8 b9
       -0.13050477 -0.00048459112 0.038282637 -0.00035247355
000100 e4 99 70 31 85 b6 bd 2f d4 10 37 3e f7 ba 83 ba
       3.5012073e-09 3.4508588e-10 0.17877513 -0.0010050227
000110 e9 2e 1d 3e 08 31 7c ba 65 01 33 be 74 4b ce 20
       0.15349926 -0.00096203433 -0.17481 3.4947688e-19
000120 07 5e 03 bd 9e 7d 84 ba 88 09 58 ba 5b 15 9e ba
       -0.032072093 -0.0010108238 -0.00082411664 -0.0012060808
000130 57 93 97 3e fc 86 13 bb 0f 73 3f bb 8e 92 70 1b
       0.296046 -0.0022510877 -0.0029212867 1.9899689e-22
000140 5c bb 6d 33 91 78 7e 3e f9 30 c0 bc 60 64 20 3d
       5.5351265e-08 0.2485068 -0.023460852 0.039158225
000150 09 f4 80 ba 84 1a 45 3d a1 95 a8 34 b5 56 ab 3a
       -0.0009838353 0.04812099 3.1401308e-07 0.0013072105
000160 05 4b 15 bb bc d8 7c ba 8c 1e 0c be 3a 42 a3 b9
       -0.002278031 -0.0009645333 -0.13683528 -0.00031139125
000170 9b bc 32 3b 65 87 0c 3b fc 63 a9 2d 08 d8 08 35
       0.0027273062 0.0021443006 1.9257478e-11 5.0978315e-07
000180 63 66 19 3e 04 38 c6 3e f9 ef e2 3d a8 b4 41 37
       0.14980464 0.38714612 0.110809274 1.1545759e-05
000190 bc ef c4 bd ca b6 81 3d 37 5f c1 b9 89 5c b5 38
       -0.09616038 0.06333692 -0.0003688277 8.6479886e-05
0001a0 8a 85 b9 b9 97 50 e2 b9 6f bf 9d be a4 a8 90 ba
       -0.00035385444 -0.00043166123 -0.30810115 -0.0011036587
0001b0 32 14 e7 3a cf ae 64 38 25 2c 15 35 dd 43 4c 3e
       0.001762992 5.452224e-05 5.5571064e-07 0.19947763
0001c0 ab 72 34 be 0a 15 f4 ba 21 01 0c bb 14 d8 d9 3e
       -0.17621867 -0.0018621993 -0.0021362978 0.42547667
0001d0 59 ae 47 27 0f e0 a3 ba 23 77 8a bb d1 28 55 bb
       2.7711312e-15 -0.0012502688 -0.004225628 -0.003252555
0001e0 3b f3 93 ba 48 08 05 bb 8d 8e 10 bb 18 d2 d7 ba
       -0.0011287698 -0.0020299125 -0.0022057623 -0.0016465811
0001f0 4f d3 95 3d 7a c7 b9 3d 58 7a 9c 3d 98 bd 23 bf
       0.073156945 0.0907125 0.07640523 -0.6396117
000200 8b 14 cb bb c6 2b 1a bb 79 32 5a 3e c7 49 d1 3d
       -0.0061975173 -0.0023524626 0.21308316 0.1021915
000210 6f c3 35 3a fe 2c d3 ba 54 9b f5 38 c3 b9 9c ba
       0.0006933724 -0.0016111431 0.000117114425 -0.0011957217
000220 db d1 a5 3d 41 e7 71 3e f2 17 2c 3a 72 82 8d 3e
       0.080966674 0.23623373 0.00065648474 0.27638584
000230 e2 36 3c be 61 21 85 bd 1b 32 1c 3e 27 4d b1 3e
       -0.18380311 -0.06500507 0.15253489 0.34629175
000240 3b 04 81 bc 81 52 e6 3b c4 1b 1e 36 2c fe f9 3c
       -0.015749088 0.007028878 2.3559996e-06 0.030516706
000250 d4 3f 54 38 a9 b3 a9 ba 74 56 fb be 89 a3 02 be
       5.0604183e-05 -0.001294722 -0.49089396 -0.12757696
000260 b8 cf 2f bb 87 9b 54 3d 3e 80 14 bd ce 76 1f 3a
       -0.002682669 0.051906135 -0.036255114 0.0006083072
000270 d7 7d ad 3d 0f bb 45 be fa a4 c2 33 ce 97 21 32
       0.08471268 -0.19309638 9.063838e-08 9.40595e-09
000280 b6 22 cf b9 cc 19 34 bd 4f 8c 08 3b c3 2f fa bb
       -0.00039507978 -0.043969914 0.0020835584 -0.007635088
000290 b7 66 5f bd 3f 0e ea 2e a9 95 ac 3a 85 33 da be
       -0.054541316 1.06436186e-10 0.0013167161 -0.4261743
0002a0 26 b7 2b 3e fc 63 8a be 28 a0 c3 3e 53 58 67 3d
       0.16769084 -0.27029407 0.38208127 0.056480717
0002b0 72 52 12 3c e8 48 93 2f c3 78 f8 33 84 3b ef be
       0.008930789 2.6790947e-10 1.1570366e-07 -0.46725094
0002c0 ef 96 de bd d4 14 a4 3e 21 a8 dc ba 97 c1 75 3b
       -0.10868632 0.3204714 -0.0016834774 0.0037499422
0002d0 36 04 0d 34 f8 1c f1 bd b5 8f a0 3b b9 9e bc bd
       1.313318e-07 -0.117731035 0.0048999437 -0.092099614
0002e0 6c 1c aa 3b fc eb fb be 29 f0 6e 3d ad 02 71 ba
       0.0051913764 -0.4920348 0.058334503 -0.0009193819
0002f0 b8 db dd be 39 7c 77 3c a7 92 4c 3e f7 b5 db bb
       -0.43331695 0.015105301 0.19977818 -0.0067050415
000300 f3 53 09 bd 48 05 0f bd e9 9e a3 3b 24 c5 00 2f
       -0.033527326 -0.034917146 0.004993309 1.171157e-10
000310 e4 33 f6 3d 64 65 ff ba 6e dc 0d 3b 34 85 68 bb
       0.12021616 -0.0019485173 0.002164628 -0.0035479786
000320 eb 12 5b 3e 67 d2 31 3e 3d e5 4a 3e 72 ff bd 3d
       0.21393935 0.17365418 0.1981401 0.09277238
000330 d6 cb 64 bb c3 1a 93 3d 4a 03 08 be 00 98 d6 bd
       -0.0034911535 0.07182839 -0.13282505 -0.104782104
000340 5a 0a b2 3b 40 34 ef bd 40 8e 05 be 35 55 cf 38
       0.005433363 -0.11679888 -0.13042545 9.8864e-05
000350 2d ee d8 3a 54 00 ba b7 45 dd 4f bd 15 66 7e 39
       0.0016550474 -2.217308e-05 -0.05074813 0.00024261356
000360 8d 3c 70 bc 1d 74 fc ba fc 93 2f 31 37 93 94 2f
       -0.014662874 -0.0019260679 2.554997e-09 2.7025646e-10
000370 77 9b 98 bd a4 7a d6 39 56 53 a3 be 0b 04 86 3b
       -0.074515276 0.00040908635 -0.31899518 0.0040898374
000380 77 14 dc 3c 20 8a 93 20 b3 fc b5 bb 03 53 2c 3a
       0.026865227 2.4994172e-19 -0.0055538057 0.0006573649
000390 94 b7 11 39 ed 19 80 3a 81 d5 70 3e a1 3b 67 3a
       0.00013896666 0.0009773351 0.23518945 0.0008820836
0003a0 dd 3c 82 3b 2b 24 2f 1c 93 44 34 33 7c 06 47 3e
       0.0039745406 5.794939e-22 4.1971884e-08 0.19436067
0003b0 00 9c f2 bd cb 25 2e 3d b0 f1 a3 ba bc 6a 07 be
       -0.11846161 0.04251651 -0.0012507942 -0.1322431
0003c0 3a 5d 13 35 0a 14 69 ba 09 c1 87 3b 0c f4 91 3a
       5.489743e-07 -0.00088912307 0.0041428846 0.0011135354
0003d0 4f ce ad bd 96 3b bf 38 a6 42 9a ba 05 7a f8 3b
       -0.08486616 9.1186885e-05 -0.001176913 0.0075829052
0003e0 e9 ac 09 2e 02 8f 0c 35 7c e7 26 3d 02 fd 11 3e
       3.130377e-11 5.236217e-07 0.040748104 0.14256671
0003f0 95 22 c4 bd 7e f1 b9 38 50 d0 3e be 27 08 e9 3d
       -0.095769085 8.866469e-05 -0.18634152 0.11378508

post_mp.layer_post_mp.model.0.Layer_0.post_layer.0.weight f4 [154]
000000 9a 9a 95 3f 17 a8 86 3f f4 51 ae 3f 8d d4 5c 3f
       1.1687806 1.0520047 1.361876 0.86261827
000010 66 b4 8c 3f dd 87 94 3f bd a9 85 3f fb 57 8b 3f
       1.0992553 1.1603962 1.0442425 1.0886225
000020 04 5a a8 3f 07 1a 8b 3f 50 b6 99 3f eb cd a7 3f
       1.315247 1.0867318 1.2008762 1.3109716
000030 3d 73 8b 3f dd 8b 98 3f 3c 43 99 3f 23 66 6b 3f
       1.0894543 1.1917683 1.1973643 0.91952723
000040 9b 28 9b 3f 01 47 65 3f 42 e4 9a 3f 52 cb 93 3f
       1.2121767 0.8956147 1.2100909 1.1546423
000050 95 18 8b 3f b3 ed 8f 3f ec d7 8e 3f 40 3b 97 3f
       1.0866877 1.1244415 1.1159644 1.1814957
000060 83 25 72 3f b4 58 7d 3f 6f 1c 99 3f 9c ef 88 3f
       0.9458849 0.98963475 1.1961802 1.0698123
000070 42 d9 93 3f 00 b2 91 3f 72 04 90 3f fd 3d 9d 3f
       1.1550677 1.1382446 1.1251357 1.2284542
000080 81 d3 90 3f ab 31 96 3f c7 b1 8d 3f ac 46 a1 3f
       1.1314546 1.1733907 1.1069878 1.2599692
000090 6b 5f 8c 3f 77 14 aa 3f 01 c1 a5 3f d5 65 a1 3f
       1.0966619 1.3287495 1.2949525 1.2609202
0000a0 cb a6 96 3f c1 9b 9e 3f 5f 8b 91 3f 78 56 8a 3f
       1.1769651 1.2391282 1.1370658 1.0807638
0000b0 94 ca 8b 3f 61 42 90 3f 22 df 9f 3f b9 3a b1 3f
       1.0921197 1.1270257 1.248997 1.3846046
0000c0 15 76 9e 3f f9 6d 97 3f f5 93 9a 3f 1b 79 8b 3f
       1.2379786 1.1830436 1.2076403 1.0896333
0000d0 a0 ab 8f 3f 00 f4 86 3f 81 60 9a 3f 03 01 96 3f
       1.1224251 1.0543213 1.2060701 1.1719059
0000e0 b5 ad 98 3f 77 e5 8c 3f 8b fd 99 3f 53 fb 8e 3f
       1.1928011 1.1007527 1.20305 1.1170448
0000f0 aa 7c 8d 3f 76 22 9a 3f 61 0c 95 3f cc d7 9c 3f
       1.105367 1.2041767 1.1644403 1.2253356
000100 6e 7c 9b 3f c0 3b a5 3f b2 d5 a1 3f ae 8e 96 3f
       1.2147348 1.2908859 1.264334 1.1762292
000110 a6 ab 82 3f c6 23 84 3f 5a 3d 99 3f 05 18 80 3f
       1.0208633 1.0323417 1.1971848 1.000733
000120 7b a7 8b 3f fa 87 8d 3f ec 11 93 3f 53 2b 47 3f
       1.0910486 1.1057122 1.1489844 0.7780048
000130 2b f0 8b 3f c5 69 72 3f b4 d8 94 3f 89 e1 96 3f
       1.0932668 0.9469264 1.1628633 1.1787578
000140 db 7d 95 3f 2c e9 7f 3f e8 f7 96 3f 2f a0 9a 3f
       1.1679033 0.9996517 1.1794405 1.2080134
000150 15 4e 94 3f 39 be 8a 3f 8d 9d 9a 3f b6 67 93 3f
       1.1586329 1.0839301 1.2079331 1.1516025
000160 c4 2b 93 3f cd d9 9d 3f fe 1b a1 3f 89 0f a4 3f
       1.1497731 1.2332093 1.2586668 1.2817241
000170 aa c2 9e 3f 97 56 a3 3f c1 30 8b 3f 97 33 95 3f
       1.2403157 1.27608 1.0874254 1.1656369
000180 ed 09 8c 3f 21 2d 90 3f 08 e2 89 3f ad 27 9f 3f
       1.0940529 1.1263772 1.0772104 1.2433983
000190 fa 6b 80 3f 2d 81 88 3f f6 83 84 3f b2 8d 95 3f
       1.0032952 1.0664421 1.0352771 1.1683867
0001a0 ff 4a 9e 3f 73 4c 9a 3f 94 f5 99 3f b5 df 94 3f
       1.2366637 1.205458 1.202807 1.163077
0001b0 be 63 8e 3f a1 0c 9b 3f 8e ee 64 3f b4 34 7b 3f
       1.1124189 1.2113229 0.89426506 0.98127294
0001c0 fe fa 7d 3f bf dc 8a 3f 13 98 95 3f 8e 95 98 3f
       0.9921111 1.0848616 1.1687034 1.192064
0001d0 e3 ba 81 3f 7c 87 95 3f d6 9b a6 3f 0f 7d 82 3f
       1.0135158 1.1681972 1.3016307 1.0194415
0001e0 a3 5f 98 3f 2d fa aa 3f c1 ed 94 3f 89 43 c0 3f
       1.1904186 1.3357598 1.1635057 1.502061
0001f0 da 80 9a 3f f4 f8 9c 3f 4f f9 82 3f 0d 21 99 3f
       1.2070572 1.2263474 1.0232333 1.1963211
000200 2e 7e 93 3f 3b 1f 9b 3f 24 3a b1 3f 1c fa 7d 3f
       1.1522882 1.2118906 1.3845868 0.9920976
000210 a9 91 8a 3f 96 a8 ae 3f 8e 61 8f 3f 6f b8 85 3f
       1.0825702 1.3645198 1.1201646 1.044691
000220 50 6a 97 3f 1d 56 96 3f 89 4c 94 3f f6 f4 a1 3f
       1.1829319 1.174503 1.1585857 1.2652881
000230 8a fa 98 3f 2e 75 93 3f 86 8b a9 3f 47 13 97 3f
       1.1951458 1.1520135 1.3245704 1.1802758
000240 a2 6b 86 3f 0c 6b 87 3f 49 a4 63 3f 49 04 a7 3f
       1.0501597 1.0579543 0.88922554 1.3048183
000250 e9 18 a4 3f 49 d5 7d 3f 68 b7 7d 3f a5 e2 97 3f
       1.2820102 0.9915357 0.9910798 1.1866041
000260 13 2d 9d 3f 52 1b 8e 3f
       1.227938 1.1102087

post_mp.layer_post_mp.model.0.Layer_0.post_layer.0.bias f4 [154]
000000 54 df cd 3d b0 8b b9 3d ac 09 cb 3e 75 32 b9 3b
       0.10052362 0.090598464 0.39655817 0.005651767
000010 22 5d 24 be e9 0e 4a 3e 8e ce be 3d 91 60 e1 bc
       -0.16051152 0.1973225 0.09316741 -0.027511867
000020 f4 21 e9 bd 8e ae 65 bd 8a 9d a7 3e 26 0f 35 3f
       -0.11383429 -0.05607467 0.3273738 0.7072624
000030 04 1b 65 3e 8d 6e 09 3f bd 92 b9 3e 18 da 3e 3f
       0.22373587 0.5368431 0.36244765 0.74551535
000040 b8 61 55 3e d9 26 5f 3c 9b da b5 be f8 98 39 be
       0.20838058 0.013620102 -0.35518345 -0.18124759
000050 27 b2 41 3e 5a 51 da 3d 4b 04 e1 3c b4 76 dd 3e
       0.18915616 0.10660048 0.027467867 0.43254626
000060 f5 10 20 3e fd 6b e7 3d 46 25 0b 3f 4f 08 d8 3e
       0.15631469 0.11299894 0.5435375 0.4219384
000070 29 f8 6e 3e 49 89 ec 3e bd 75 ea 3d 5e 1e d1 3c
       0.23336853 0.4619849 0.11448238 0.025527176
000080 dc e7 8c 3d d8 43 08 3f 50 00 bd bb 05 42 7e 3e
       0.06880161 0.5322852 -0.0057678595 0.24829872
000090 b7 ae 96 3e 54 67 20 3c 94 a5 5a 3e 07 1b bf 3d
       0.29430172 0.00979026 0.21352226 0.09331327
0000a0 cd 75 a6 be 6c a8 15 be 16 8e 54 3c 75 8c f9 bb
       -0.3251175 -0.14615029 0.012973329 -0.0076156207
0000b0 47 6d 9d be ab 90 8d bd c3 ca 1c 3e 59 17 ed 3d
       -0.30747434 -0.06912359 0.15311722 0.11576719
0000c0 0c 59 01 be 29 72 b3 3e ec 33 0d 3f ed f1 7d be
       -0.12631625 0.35048035 0.5515735 -0.24799319
0000d0 89 d7 ba 3e 94 24 7f 3e 83 d2 cb be de 5f 42 3b
       0.36492565 0.24916297 -0.39809045 0.0029659192
0000e0 56 27 62 3d 1a 57 07 3f d4 4b 2d 3e 62 0b 4c bd
       0.055213295 0.5286728 0.16923457 -0.049815543
0000f0 31 90 22 3e dc b2 55 3e b5 3f 2a 3f 67 b0 ff 3d
       0.15875317 0.2086901 0.6650346 0.12484818
000100 32 b7 49 bd f8 b1 2e 3e e8 ce 2f 3d 54 9a 9c 3c
       -0.049246974 0.17060077 0.04292193 0.019116558
000110 6f 16 ed 3e 37 1c cb 3d d4 24 d4 3c 01 f1 97 bd
       0.46306178 0.09917491 0.025896467 -0.07419015
000120 30 e9 16 bd 92 d9 e3 3e 7f 09 84 3e c5 fb 8f be
       -0.03684348 0.4450193 0.25788495 -0.28121772
000130 d8 a2 f2 bd 50 37 1f 3d 75 1d c6 3e a9 a9 b4 3e
       -0.11847466 0.03887111 0.3869435 0.3528569
000140 3b 26 56 3e 2d 53 3a 3e aa 32 b8 3e 9c 9f ae bc
       0.20913021 0.18195792 0.35976154 -0.021316342
000150 8a 3f 46 3e 28 69 bb 3e a5 18 5b be 9d 93 7c bb
       0.19360176 0.36603665 -0.2139612 -0.0038540133
000160 d2 38 55 3e eb fa c4 bd 47 0a 9a be 1c d8 f3 3d
       0.20822456 -0.09618171 -0.30085966 0.11906454
000170 33 c5 2f be 4a ab da 3d 32 54 18 be e3 0f 32 3e
       -0.1716507 0.10677202 -0.14875868 0.17388873
000180 9f 27 92 bc c7 15 8a bd f9 c4 fc bd 46 b3 84 bd
       -0.017841158 -0.06742435 -0.12342257 -0.06479506
000190 0d 5c 1b 3d 12 da 3f bd c8 d8 02 3d 58 8b 02 3e
       0.037929583 -0.046838827 0.03194502 0.12748468
0001a0 86 31 e3 3c c3 54 f9 3d 72 89 e2 3d b1 5e bc 3d
       0.027733576 0.1217437 0.11061372 0.091977485
0001b0 c0 19 ad 3e 1c 0a 4a 3d cd 21 f2 3e ab 38 08 3d
       0.33808708 0.049326047 0.47291413 0.033257168
0001c0 7f a3 32 3e f7 d5 b2 be 05 32 41 3e 82 e2 7e 3e
       0.17445181 -0.34928867 0.18866737 0.24891093
0001d0 2c a8 00 bf cb e5 0b 3f b3 8e 9d 3e fe 90 ff 3d
       -0.5025661 0.5464751 0.30772933 0.12478827
0001e0 7c 0c 46 be 71 a2 1c be 64 48 91 3e c3 dd 5b 3e
       -0.193407 -0.15296341 0.28375542 0.21471314
0001f0 bb f2 7a 3d 9a 90 86 bd a5 e0 63 3e 3e d3 b8 3e
       0.061266642 -0.06570549 0.22253664 0.36098665
000200 21 5a cc 3d 6b df 92 bd 19 8d da bd f3 b0 7e 3e
       0.09978128 -0.0717152 -0.106714435 0.24872188
000210 a0 38 87 3e 78 5e 23 3e 13 05 a3 be 5f 2c f3 bc
       0.2641039 0.15954006 -0.3183981 -0.029684244
000220 44 63 8b be 98 f7 0f 3e 42 5b 37 be 22 34 76 3e
       -0.2722417 0.14059293 -0.17905906 0.24043325
000230 5f 05 7e bc cb 95 d4 3e 14 b3 07 3e 3f 16 3f 3e
       -0.01550421 0.41520533 0.13251907 0.1866083
000240 5c 64 7d 3d 37 31 70 3e 4a 7a 7f 3e d1 93 8d 3e
       0.06186329 0.23456274 0.24948993 0.27651837
000250 72 5d 98 3d 7a 46 bf bc 43 7a 70 bd 6e 97 cd bd
       0.07439698 -0.023349036 -0.058710348 -0.100386485
000260 1b 8d 02 3f 2f 94 2b be
       0.5099656 -0.16755746

post_mp.layer_post_mp.model.0.Layer_0.post_layer.0.running_mean f4 [154]
000000 dd fe c8 3d 39 d5 55 be 9c 7b 9c bd 92 67 a4 bd
       0.09814236 -0.20882119 -0.07640764 -0.08027567
000010 ce df d0 3d 3f 63 8c bd 5c ed e1 bd a0 88 b9 bd
       0.10198937 -0.06854867 -0.11031601 -0.09059262
000020 9c b4 10 bd 01 b5 1c 3d 5e 35 43 bd c0 af b2 3b
       -0.035328493 0.038258556 -0.047658317 0.00545308
000030 1c ce 2c bd 8d 90 21 3e 52 72 1c 3e db 65 8a 3c
       -0.04218875 0.15777798 0.15277985 0.016894272
000040 f3 99 22 3e 58 0a cc 3a 8a d5 8e 3c fa a7 64 be
       0.1587904 0.0015567048 0.017435808 -0.22329703
000050 e1 e6 9c 3d 26 de 03 bd 1d 88 29 be 1b ba 51 bc
       0.07661224 -0.03219428 -0.1655583 -0.012800719
000060 cf 03 1c be 7d f0 c5 3d 58 65 69 3d 33 d5 93 3d
       -0.15235828 0.0966501 0.056981415 0.07218399
000070 0a 8e c0 3c b0 b3 19 3e f5 bf 14 3d 35 b7 03 3e
       0.02350523 0.15009952 0.036315877 0.12862857
000080 ae 9f 91 bc fa 7b 0b 3e 71 f8 cb 3d fa 08 43 be
       -0.017776337 0.13621512 0.09959496 -0.19046393
000090 a1 38 a2 bd 70 3b 18 3e d6 a1 00 3e ac 78 85 3e
       -0.07920957 0.14866424 0.12561736 0.26068628
0000a0 44 26 cc bc 9c 6a eb 3d 7d 26 14 3a 83 f9 32 3c
       -0.02492059 0.114949435 0.0005651487 0.010923746
0000b0 60 62 81 bc e5 c4 43 3d ee 83 ad 3c 8b 6e 5e bd
       -0.01579398 0.047795195 0.021181073 -0.05430464
0000c0 a0 10 d7 bc 89 53 bb bd ad fd d4 3d a5 3e c1 3d
       -0.026253045 -0.091467924 0.10399947 0.094357766
0000d0 f6 d6 25 bd 62 34 0b bc 47 2b b4 bd 5f 2f cb bc
       -0.040488206 -0.008496376 -0.08797317 -0.024802862
0000e0 2a 81 67 3d 43 da 31 bd 88 fd 13 3c bc e3 ad 3d
       0.056519665 -0.04342104 0.0090326145 0.084907025
0000f0 cc 38 c6 bc df 53 78 3d ed 42 94 3e 58 88 17 be
       -0.024197005 0.06062686 0.2895731 -0.14798105
000100 03 a7 49 3d 4a f6 87 be 8d 91 e4 bd 4c bc b3 3d
       0.04923154 -0.2655509 -0.11160574 0.08776149
000110 fd ca 30 3e c9 d2 7a 3c 69 24 85 bd a3 6e 45 3e
       0.17264934 0.015309044 -0.06501085 0.19280486
000120 67 5a 47 3e ec db 9a 3e 9b 82 05 bd d3 05 3d 3c
       0.1946808 0.30245912 -0.03259526 0.011537033
000130 40 ec 5c bd 99 ec 55 bd 5d fa 71 bd 0b ec 56 be
       -0.053936243 -0.05222759 -0.059076656 -0.20988481
000140 d0 62 84 3e 0d e0 b5 bd 83 df a5 3c 69 16 d6 3d
       0.25856638 -0.08880625 0.02024818 0.10453493
000150 3c 98 c8 3d 80 0b 5b 3e 10 ca 48 3d 07 29 b4 ba
       0.097946614 0.21391106 0.049020827 -0.0013745137
000160 ee 9d 5f be b7 6e 1a be c5 79 49 bd 0c 92 22 bd
       -0.21837589 -0.15081297 -0.049188394 -0.039690062
000170 da ad f1 bb 28 8c c4 3c 97 00 9d 3c eb 47 98 3d
       -0.007375461 0.023992613 0.01916532 0.07435592
000180 a3 fc bd 3d 1e 13 94 bd a9 22 7d bc de ce 95 bd
       0.09276702 -0.07230209 -0.015450158 -0.073148474
000190 19 5d e6 3d 1a 92 35 3e 9d 28 80 3c c6 97 d0 3d
       0.11248226 0.17731515 0.015644366 0.101851985
0001a0 a9 f5 96 3e 53 b5 96 bd fb 91 31 3e cb 85 90 3d
       0.294843 -0.073588036 0.17340843 0.07056769
0001b0 ef dd 61 3d aa 37 79 bd ef 1c df 3c de 29 e1 3c
       0.055143293 -0.0608441 0.027235476 0.027485784
0001c0 08 76 96 3d b9 22 b8 bd a3 c2 b7 bd cb 2c 7c 3d
       0.073467314 -0.08990998 -0.08972671 0.061566155
0001d0 e3 d6 de bd 57 6c 17 be e1 47 19 3d 72 d4 38 3e
       -0.1088083 -0.14787422 0.037422065 0.18049791
0001e0 c0 38 25 bc 46 d9 1f 3d a1 2b c1 bc 59 6a 55 bd
       -0.010084331 0.039025567 -0.023580374 -0.052103374
0001f0 6a be 8f 3d 52 81 7f bd 4e 5a eb bc 2e 2b 71 bd
       0.070187405 -0.06237919 -0.028729584 -0.05887907
000200 48 cb b4 3d 55 27 10 3e 88 7c 2f 3e fa b8 9f bd
       0.08827835 0.14077504 0.17137349 -0.07798953
000210 50 c1 62 3d 5a 0f fa bd a7 0b 4f bd e0 73 07 bd
       0.05536014 -0.12209959 -0.050548222 -0.03306949
000220 ed ca d3 bd 99 7b 24 3d 76 5e cf 3d 18 a8 20 3e
       -0.103414394 0.040156934 0.10125439 0.15689123
000230 50 90 99 3c b3 95 62 3e 9d ad fd bd 77 66 57 bd
       0.018745571 0.22127418 -0.1238663 -0.052587952
000240 24 79 09 3d 63 70 6c be 3c 6f 40 3e 4f 01 34 3d
       0.033562794 -0.23089747 0.18792433 0.04394656
000250 6b 0d de 3c 07 e5 59 bd 5e 40 9a 3d 37 a9 6d be
       0.027106008 -0.053196933 0.07531808 -0.23209082
000260 81 61 3a 3e 42 67 05 be
       0.18201257 -0.13027671

post_mp.layer_post_mp.model.0.Layer_0.post_layer.0.running_var f4 [154]
000000 cf bd 02 3c 35 f9 d4 3b f2 83 60 3c c5 69 a0 3b
       0.007979824 0.0064994344 0.013703333 0.004895421
000010 c1 f6 08 3c 23 3b fa 3b 83 f8 fb 3b 56 25 15 3c
       0.008359612 0.007636444 0.007689537 0.00910314
000020 4f 07 43 3c a5 00 14 3c 5e 48 0f 3c 23 60 32 3c
       0.011903598 0.009033357 0.008745281 0.010887179
000030 e9 24 ea 3b ea 44 11 3c 38 66 38 3c b4 26 23 3c
       0.0071455133 0.008866528 0.01125484 0.009957958
000040 37 b6 0d 3c 5e cc c3 3b db 9e 3c 3c 0b 13 3b 3c
       0.0086494 0.00597529 0.0115124835 0.011418114
000050 7d 59 0b 3c aa b6 32 3c ef 5c 0b 3c ee c7 e6 3b
       0.008505222 0.010907808 0.008506044 0.0070428764
000060 e5 ee 2c 3c a5 9c d9 3b 8e 96 58 3c 75 16 f1 3b
       0.010555004 0.006640988 0.013219489 0.0073574134
000070 45 16 31 3c 41 a1 1d 3c cc 4a 10 3c 7b 8f 33 3c
       0.010808532 0.009620965 0.008806895 0.010959501
000080 f6 cb 20 3c 1d 98 35 3c df 70 04 3c 79 9a 42 3c
       0.009814253 0.01108363 0.008083551 0.011877649
000090 f8 96 d2 3b 0f 00 5b 3c 89 84 52 3c 20 72 50 3c
       0.0064266883 0.013366713 0.012848982 0.012722522
0000a0 45 f9 0c 3c a2 ff 1d 3c 00 5d d1 3b 58 2e 39 3c
       0.008604352 0.009643467 0.0063892603 0.011302553
0000b0 92 2d 30 3c 3f 7a e8 3b bc c9 47 3c 63 65 3c 3c
       0.010753052 0.007094651 0.012194093 0.011498782
0000c0 84 a1 29 3c 4d 6a 18 3c 68 99 2f 3c 32 43 03 3c
       0.01035345 0.009302688 0.010717727 0.008011626
0000d0 ff ba 11 3c 0c 69 0f 3c 4c 06 25 3c 58 5e 3f 3c
       0.008894681 0.0087530725 0.010072302 0.011680208
0000e0 02 27 18 3c cf 47 14 3c 62 18 e3 3b 2c a2 c3 3b
       0.009286644 0.009050324 0.006930397 0.00597026
0000f0 e7 5c f4 3b d3 95 10 3c 77 ce 66 3c 31 34 46 3c
       0.007457364 0.008824783 0.014087311 0.012097404
000100 c4 e5 f0 3b 34 33 12 3c f8 61 2d 3c b4 ab 23 3c
       0.007351609 0.008923341 0.01058244 0.009989668
000110 22 fc 12 3c 3c 6a dd 3b f2 7c 23 3c b4 99 e3 3b
       0.008971246 0.006757049 0.00997852 0.006945813
000120 dc b2 c6 3b 08 b0 07 3c a8 3e 25 3c 99 a4 8c 3b
       0.006063802 0.008281715 0.010085739 0.0042920825
000130 1b cf 1d 3c 65 90 07 3c f9 65 27 3c f1 c2 43 3c
       0.009631897 0.008274172 0.010217183 0.011948333
000140 9c e9 36 3c df 6c 05 3c 87 fd 2b 3c b9 b9 33 3c
       0.011164095 0.008143633 0.010497457 0.010969573
000150 ba f6 0a 3c cb dc 19 3c 58 b3 18 3c 94 9a 15 3c
       0.008481676 0.00939102 0.009320103 0.009131093
000160 4e 55 32 3c 27 36 30 3c dd 51 05 3c ca 96 62 3c
       0.010884596 0.010755098 0.0081371935 0.013829896
000170 d2 3d f8 3b c6 63 38 3c 51 0c 08 3c 72 83 f1 3b
       0.007575729 0.011254257 0.008303718 0.007370406
000180 51 3e f0 3b 13 85 05 3c 2b f5 f8 3b 9f 3d 09 3c
       0.0073316474 0.008149403 0.0075975857 0.008376508
000190 d4 14 b3 3b 6d 10 03 3c 3d 41 e7 3b 72 fa 02 3c
       0.0054651294 0.007999522 0.0070573376 0.007994281
0001a0 1a 5f 04 3c b2 4a 28 3c 2f 56 00 3c 6f 47 21 3c
       0.008079315 0.010271715 0.007833048 0.009843691
0001b0 c4 60 e0 3b 69 2d 1b 3c f4 70 f0 3b 81 b9 f6 3b
       0.006847473 0.009471276 0.007337684 0.007529438
0001c0 c2 fb d2 3b 55 85 29 3c f7 85 fa 3b 79 77 08 3c
       0.0064387033 0.01034673 0.0076453644 0.008329266
0001d0 b9 23 13 3c 0f 45 2d 3c 8b a8 33 3c 4e f7 c0 3b
       0.008980685 0.010575547 0.010965477 0.005888856
0001e0 26 4c 27 3c 19 4d 17 3c 03 1f 1b 3c c9 dd 11 3c
       0.010211026 0.00923469 0.009467843 0.008902975
0001f0 16 41 e1 3b bc fa 3a 3c 2d 3c 08 3c e1 6f 4f 3c
       0.006874214 0.011412319 0.008315128 0.012660951
000200 68 82 f1 3b 20 e0 4e 3c 43 c7 9b 3c 3b 52 cd 3b
       0.007370282 0.012626678 0.019015914 0.006265906
000210 7c 2c d8 3b a0 af 29 3c 6c dd 07 3c a3 d0 eb 3b
       0.0065971 0.010356814 0.008292537 0.0071965023
000220 89 71 bf 3b 34 34 06 3c 7c 76 35 3c b0 8c 06 3c
       0.005842392 0.008191157 0.011075612 0.008212253
000230 ab a4 19 3c ca 88 36 3c c3 5a 47 3c 73 04 08 3c
       0.009377639 0.0111410115 0.012167635 0.008301842
000240 19 40 9d 3b d7 1a ed 3b ae a6 98 3b 4f a4 0e 3c
       0.004798901 0.0072358656 0.0046585416 0.008706166
000250 ac 89 3b 3c ef 33 ce 3b ac 7c d7 3b e2 97 1f 3c
       0.011446398 0.006292812 0.0065761413 0.0097408015
000260 a6 89 2f 3c b9 09 11 3c
       0.01071397 0.008852416

post_mp.layer_post_mp.model.1.model.weight f4 [28, 154]
000000 4e 4a 72 bc 5b e1 5e bc 98 d0 99 bc 32 eb 38 bc
       -0.014788223 -0.013603534 -0.018776223 -0.011286544
000010 0a 4a 7b bc ea b0 84 bc f7 95 69 bc f3 01 64 bc
       -0.0153374765 -0.01619764 -0.014256946 -0.01391648
000020 0a 1e 8c bc 66 1b 69 bc 09 9f 94 bc f8 aa 9c bc
       -0.017104167 -0.014227724 -0.01814224 -0.019124493
000030 a8 23 6e bc 76 9a 8a bc 44 f3 87 bc 8d 1e a8 bc
       -0.014534868 -0.016919356 -0.01659549 -0.02052238
000040 ff cc 8f bc 71 81 45 bc dd 15 87 bc 13 11 7e bc
       -0.017553804 -0.012054787 -0.016489917 -0.0155070005
000050 3a fc 80 bc 59 70 6d bc 18 a2 80 bc a1 b9 8d bc
       -0.015745271 -0.014492118 -0.015702292 -0.017300429
000060 02 c3 50 bc cb af 61 bc f0 89 86 bc eb c8 57 bc
       -0.012741806 -0.0137748225 -0.016423196 -0.013170461
000070 ff 2e 78 bc 5b 9a bc bc 66 61 62 bc 13 21 72 bc
       -0.0151479235 -0.023022821 -0.013817167 -0.014778393
000080 58 2c 83 bc 0c b4 8b bc 0b e7 5c bc cf 55 8c bc
       -0.016012356 -0.017053626 -0.013482819 -0.01713076
000090 37 12 90 bc 31 ce 96 bc 55 19 9b bc 20 06 a2 bc
       -0.01758681 -0.018408867 -0.018932978 -0.019778311
0000a0 0b 4a 83 bc 15 b5 7d bc 12 39 62 bc 0d cf 9a bc
       -0.016026517 -0.015485068 -0.013807552 -0.018897558
0000b0 53 8f 83 bc 00 6a 82 bc f4 c5 90 bc a3 c6 9b bc
       -0.016059553 -0.015919685 -0.017672516 -0.019015616
0000c0 f6 96 84 bc 6e cc 81 bc c6 f1 80 bc 95 23 8d bc
       -0.016185265 -0.01584455 -0.015740287 -0.01722888
0000d0 73 e8 83 bc 62 1e 60 bc db ef 95 bc 06 96 65 bc
       -0.016102051 -0.013679119 -0.018302849 -0.014012819
0000e0 ce 1f 90 bc e1 91 a0 bc eb 07 84 bc d6 64 77 bc
       -0.01759329 -0.01960081 -0.016117057 -0.015099725
0000f0 a0 9e 66 bc a4 04 84 bc 5d 4c 8e bc 0a 7f 83 bc
       -0.014075905 -0.016115494 -0.017370397 -0.016051788
000100 0e bb 89 bc f9 d4 89 bc 1e 7d 82 bc 39 df 7a bc
       -0.016812827 -0.016825186 -0.015928801 -0.0153120095
000110 f7 f9 94 bc a3 83 69 bc c2 c7 83 bc 86 e6 69 bc
       -0.018185599 -0.014252576 -0.016086463 -0.0142761525
000120 e0 8e 6c bc ef 4d 7d bc d6 72 89 bc 13 82 38 bc
       -0.014438361 -0.015460475 -0.01677839 -0.011261481
000130 7a 64 6e bc e6 bc 5c bc 39 df 5f bc 47 47 97 bc
       -0.014550323 -0.013472771 -0.01366406 -0.018466605
000140 3c 5e a4 bc ac df 6c bc 00 38 7d bc 4a 71 76 bc
       -0.020064466 -0.014457624 -0.015455246 -0.015041659
000150 cc 32 78 bc 99 52 71 bc 06 e2 73 bc c4 57 60 bc
       -0.01514883 -0.0147291655 -0.014885431 -0.0136928
000160 17 b8 68 bc 64 fc 81 bc 8c 17 8c bc c6 e2 98 bc
       -0.014204047 -0.01586742 -0.017101072 -0.018662822
000170 56 15 82 bc 00 d3 93 bc 66 bf 77 bc 58 4a 80 bc
       -0.015879314 -0.018044949 -0.015121317 -0.01566045
000180 6c bd 83 bc 88 9d 89 bc cd 35 62 bc e2 7d 8c bc
       -0.016081534 -0.01679875 -0.013806772 -0.01714987
000190 f3 46 5b bc 3d 32 76 bc d2 fc 59 bc 93 ea 7d bc
       -0.013383615 -0.015026626 -0.013304906 -0.015497821
0001a0 c4 06 89 bc 90 3d 79 bc 61 89 6a bc 39 ff 75 bc
       -0.016726859 -0.015212432 -0.01431498 -0.015014463
0001b0 99 68 6f bc 59 1b 5b bc 42 87 63 bc 93 1a 33 bc
       -0.01461234 -0.013373219 -0.013887228 -0.010931629
0001c0 9d 9a 5f bc a6 32 8e bc 04 f6 71 bc 6d 91 80 bc
       -0.0136477025 -0.017358135 -0.014768127 -0.015694344
0001d0 1d d7 7e bc 70 56 89 bc 22 1a 9e bc 58 47 67 bc
       -0.015554217 -0.01676485 -0.01929957 -0.014116131
0001e0 78 7e 78 bc db 92 94 bc 0a fc 8a bc 58 70 c1 bc
       -0.015166871 -0.018136432 -0.016965885 -0.02361314
0001f0 1e 6e 75 bc 50 38 85 bc c6 2c 46 bc 9e da 95 bc
       -0.014979867 -0.016262203 -0.012095636 -0.018292721
000200 06 71 6c bc 79 f7 83 bc 89 00 9e bc fe 0f 4f bc
       -0.014431244 -0.016109215 -0.019287365 -0.01263809
000210 01 e9 66 bc 9c 99 89 bc a4 38 8a bc 34 31 78 bc
       -0.014093638 -0.01679688 -0.016872711 -0.01514845
000220 e1 03 93 bc f4 20 7f bc ad 98 78 bc 28 6d 93 bc
       -0.017946186 -0.0155718215 -0.0151731195 -0.017996386
000230 6b d6 82 bc 39 f0 9f bc 39 ff 86 bc f4 e1 6c bc
       -0.015971383 -0.019523727 -0.016479122 -0.014458168
000240 a5 e0 67 bc f2 ad 64 bc c1 e2 3e bc df 41 99 bc
       -0.0141526805 -0.013957487 -0.011650742 -0.018708168
000250 48 68 8c bc 3d 7b 67 bc 29 52 59 bc b0 a1 81 bc
       -0.017139569 -0.014128503 -0.013264217 -0.015824169
000260 94 38 93 bc e3 83 8b bc eb 04 12 bf cb 85 25 be
       -0.017971314 -0.017030662 -0.57038754 -0.16164319
000270 67 3b 42 3d 05 9c c5 3e eb bb 8f be e1 33 c0 be
       0.04741993 0.38595596 -0.28073058 -0.3753958
000280 d4 60 1e bf 42 94 56 bd e8 f3 ef 3e a6 a9 e4 3d
       -0.618665 -0.052387483 0.46865773 0.1116517
000290 d5 17 f7 3e 17 fd 2a 3d f5 ca 9c be 04 b5 d3 be
       0.4826037 0.04174527 -0.30623594 -0.4134904
0002a0 b8 6a 26 3d ef 24 e7 be 93 7b 74 3e ca 16 c7 3d
       0.04062912 -0.45145366 0.23875265 0.097211435
0002b0 30 5e 67 be 2a 6f 32 be ae 1b 53 3e 1d d0 48 be
       -0.22594523 -0.17425218 0.20616028 -0.19610639
0002c0 65 e1 ee 3e 27 4b 12 3d d0 73 68 bd 8d f9 89 be
       0.46656337 0.035716202 -0.056751072 -0.26948205
0002d0 d8 de 51 be 05 24 6b be 4b f0 10 bf e5 1d b8 bd
       -0.20495164 -0.22962959 -0.5661666 -0.08990077
0002e0 45 3a e1 be 16 2e cb 3e a2 e5 b8 3d e4 89 fd bc
       -0.4398977 0.39683598 0.09028174 -0.03094954
0002f0 4a 14 81 3e 50 1f 60 3e f8 5f 81 3c bf f3 1a 3f
       0.25210792 0.21886945 0.015792832 0.6052818
000300 00 49 1e bf 71 c8 ff bd f9 5e 88 be 08 32 af be
       -0.6183014 -0.12489403 -0.26634958 -0.34217858
000310 e7 76 85 3d eb db c4 bd b5 d4 26 3f 73 66 45 3e
       0.065168194 -0.096122585 0.65168315 0.19277363
000320 32 4a c3 3e 50 f1 01 3f 17 90 27 3f bb 62 1b 3f
       0.38142544 0.5075884 0.6545424 0.60697526
000330 c7 42 35 3f fc d0 22 3d d6 0e 4d 3e 33 41 9d be
       0.7080502 0.039750084 0.2002519 -0.30713806
000340 08 a0 fa be 26 04 79 3e 78 18 d6 3c 59 97 b6 3e
       -0.4895022 0.24317989 0.026134714 0.35662344
000350 bf 1c 8f 3e 61 77 f9 be a5 58 94 3e b6 5b 4c bf
       0.2795162 -0.4872389 0.2897388 -0.7982744
000360 89 15 0c 3f d3 b9 02 3f 9e cd 0e 3e d9 fe b4 be
       0.5472036 0.51064795 0.13945624 -0.35350683
000370 39 dc a6 bd fd 5b 3a 3e a8 a7 0c 3f 73 be de 3d
       -0.08147473 0.18199153 0.54943323 0.10876169
000380 d1 ed 8d be d5 95 e9 bd 51 61 22 bd de 84 04 bf
       -0.27720502 -0.11405531 -0.03964359 -0.5176524
000390 d0 54 68 be 5a 89 e8 3e 82 ee 62 3d d2 31 75 be
       -0.22688603 0.4541729 0.05540324 -0.23944786
0003a0 dd 31 a6 be 70 13 f7 bc 5f 49 b9 be 14 53 04 bf
       -0.32459918 -0.030160636 -0.3618879 -0.5168927
0003b0 08 0b 1b bf b8 e7 1e 3f 14 ed 55 be d5 64 f8 3e
       -0.6056371 0.62072325 -0.2089122 0.4851443
0003c0 2a b2 a8 bd fe 49 ad 3c c5 49 f7 bc 21 3c 69 3c
       -0.08237107 0.021153446 -0.030186543 0.014235527
0003d0 4b 76 39 bf c7 3e 7b 3e ea c3 f1 3d 9b 4d 2e bf
       -0.72446126 0.24535666 0.11804946 -0.68087167
0003e0 4b f4 02 be 46 08 3f be b7 8b 0f 3f 76 29 2a 3f
       -0.12788503 -0.186555 0.5607256 0.66469514
0003f0 9a f5 e5 3d 3c 54 9b 3e d1 c2 ac 3c d4 ea ef be
       0.112284854 0.30337703 0.02108899 -0.46858847

post_mp.layer_post_mp.model.1.model.bias f4 [28]
000000 17 a6 99 bc 6d 8d b9 bd 17 6f 7a bc 78 5e c5 3e
       -0.018755956 -0.09060178 -0.015285275 0.38548636
000010 b5 51 38 3d 97 41 40 3e b4 db 28 bd c4 8c 00 bd
       0.044999797 0.1877502 -0.04122515 -0.031384245
000020 6b de c8 3d ef 67 5d be 16 a6 99 bc 16 a6 99 bc
       0.09808048 -0.21621679 -0.018755954 -0.018755954
000030 ce 85 42 bd 15 a6 99 bc 52 4b 72 3c 20 21 5e bd
       -0.047490887 -0.018755952 0.014788466 -0.05423081
000040 48 53 5e bd ca 60 53 bc b9 cf ce 3e 16 a6 99 bc
       -0.054278642 -0.012901494 0.40392855 -0.018755954
000050 c4 e2 59 bc 6e 7a ac bd ce db 1e 3d 8a df 7c bd
       -0.013298694 -0.08421789 0.03878384 -0.06173662
000060 d6 8a 28 bd 89 73 a7 bc f6 2d 70 bd 45 f8 b4 bc
       -0.04114803 -0.020440834 -0.05863758 -0.02209104
