ctrl_results/ctrl_embeddings/2/ckpt/999.ckpt (torch_old, 352682 bytes, 25 tensors)

mp.layer0.post_layer.0.weight f4 [154]
0	0x3f2f7260	0.685339
1	0x3f3cbea0	0.7372837
2	0x3f69cb94	0.9132626
3	0x3f22a817	0.63537735
4	0x26365af0	6.326718e-16
5	0x192ea63d	9.029161e-24
6	0x3f357a2d	0.7088955
7	0x3f49fdee	0.7890309
8	0x3f575e5b	0.8412835
9	0x3f6abc05	0.91693145
10	0x3f46c3ed	0.7764271
11	0xa58c08dd	-2.4292135e-16
12	0x3ebc5e04	0.36790478
13	0x3f7a52ca	0.97782576
14	0x3f5b58bb	0.85682267
15	0x3f4a2415	0.78961307
16	0x3f42e9f6	0.76138246
17	0x3f35d6e2	0.7103101
18	0x3f3bcdd5	0.7336095
19	0xb094320c	-1.0782641e-09
20	0x9d17afc5	-2.0075554e-21
21	0x3f320635	0.6954072
22	0x3f5ad151	0.8547564
23	0x3f33c0df	0.7021617
24	0xba3799cc	-0.00070038135
25	0x3f55e999	0.83559567
26	0xa75d74a8	-3.073315e-15
27	0xbb989c74	-0.0046573225
28	0x3f2c1be2	0.67230046
29	0x3c14fb33	0.009093094
30	0x3f2b774d	0.66978914
31	0x3f507ac8	0.8143735
32	0x39617b1c	0.00021503534
33	0x3f51b308	0.81913805
34	0x3f6af6a5	0.917826
35	0xa6052a98	-4.620137e-16
36	0x3eabca1b	0.33552632
37	0x3f49eeb1	0.7887984
38	0x3f35be3b	0.70993394
39	0x3b0aead4	0.0021197097
40	0x3f596de4	0.84933305
41	0x4002e070	2.0449486
42	0xbb3ec01c	-0.0029106205
43	0x3b06c566	0.0020564436
44	0x3c0a261a	0.008431936
45	0x38f29ad2	0.00011568297
46	0x3f30a6d4	0.6900456
47	0x3f0d38f4	0.5516503
48	0x3f2a7769	0.66588455
49	0x3ed18ed9	0.40929297
50	0x3edfdcf0	0.4372325
51	0xbbfd66fe	-0.007733225
52	0x3f6b460a	0.91903746
53	0x3f3b2bde	0.7311381
54	0xb91ef891	-0.00015160652
55	0x3f6095ed	0.8772877
56	0x39f338c9	0.0004639088
57	0xba09e28f	-0.0005259895
58	0xbbb6bb12	-0.0055764997
59	0xbaaefa19	-0.0013349681
60	0x3f728c04	0.94744897
61	0x3f0503c5	0.51958877
62	0x3f247044	0.64233804
63	0x3b125888	0.00223306
64	0x13ff3f80	6.4433666e-27
65	0x952a74f1	-3.4423477e-26
66	0x3f2a882d	0.6661404
67	0x3f763e05	0.96188384
68	0x3f1964a8	0.59919214
69	0xba715637	-0.00092062674
70	0x3f8545cf	1.0411929
71	0x1fdd34bb	9.3684376e-20
72	0x3beb0eb0	0.0071733817
73	0xbae161b1	-0.0017195252
74	0xb83bc82a	-4.477069e-05
75	0x3f5c0102	0.8593904
76	0x3b1e7679	0.0024179502
77	0x3a52781b	0.00080287614
78	0xbbd89737	-0.006609823
79	0x1a219f22	3.3422566e-23
80	0x8bf79383	-9.536289e-32
81	0xbb0e46ee	-0.0021709758
82	0x3f6ebc16	0.93255746
83	0xbc0e3195	-0.008678813
84	0xbb120181	-0.0022278728
85	0x3f757aae	0.9589032
86	0xa4923f5f	-6.342476e-17
87	0x391657f7	0.00014337884
88	0x3a8ed5fe	0.0010897515
89	0x3ab9725e	0.0014148464
90	0x3ea6d1a2	0.32581812
91	0xbbf82b46	-0.007573518
92	0x3b9759be	0.0046188524
93	0x3942bb8d	0.0001857115
94	0x27d79d07	5.9844737e-15
95	0x1e3e94e1	1.0089304e-20
96	0x3f53a711	0.826768
97	0x3f82c835	1.0217348
98	0xb9f8a897	-0.00047427855
99	0xba70a7b2	-0.0009180262
100	0x3f6efd75	0.93355495
101	0x28828e20	1.4494536e-14
102	0x3a94ea34	0.0011361302
103	0xbb2b15ce	-0.0026105526
104	0x3b93c0cb	0.0045090667
105	0xb8b5aa03	-8.66242e-05
106	0xbb522ae4	-0.0032069022
107	0xbaed3ac0	-0.0018099174
108	0xba3a82fc	-0.0007114855
109	0x288976b5	1.5261536e-14
110	0x9d0a0f7a	-1.827215e-21
111	0x3f3dc556	0.74129236
112	0x3f8e1df8	1.1102896
113	0x399f6252	0.00030400098
114	0xbaa6de3d	-0.0012731027
115	0x3b14dfd4	0.002271642
116	0xa83f9af3	-1.0636229e-14
117	0x3b6960b9	0.003561063
118	0x3a799d39	0.0009522024
119	0x3a74c080	0.0009336546
120	0xbab86780	-0.0014068931
121	0xbad015a9	-0.0015875596
122	0xbb8bf392	-0.004270979
123	0xba2161f0	-0.00061562564
124	0x402f623b	2.7403705
125	0x2a1265b4	1.300269e-13
126	0x3f64d384	0.8938525
127	0x3f703b23	0.93840235
128	0x3989b1c9	0.00026263137
129	0xbb551d32	-0.0032518622
130	0x3c5a5a12	0.0133271385
131	0xb31f8c43	-3.714764e-08
132	0x3a1d3565	0.0005997031
133	0xbb88ba14	-0.004172573
134	0xba928570	-0.0011178683
135	0x3b707623	0.0036691509
136	0xb98897c1	-0.00026053007
137	0x3f211482	0.6292192
138	0x3f5eb7cd	0.8699921
139	0x3f777c8d	0.96674424
140	0x3f6610c5	0.8986934
141	0x3f486beb	0.7828967
142	0x3b0be815	0.0021348048
143	0x3c1aebec	0.009455662
144	0x3f4f13fa	0.80889857
145	0x3f0165a7	0.50545734
146	0x80000695	-2.361e-42
147	0x3f3cd735	0.7376588
148	0xb7f86cc0	-2.9614544e-05
149	0x3b5ef95b	0.003402314
150	0x3f74853e	0.9551581
151	0x3eff30af	0.4984183
152	0xbae789a7	-0.0017664925
153	0x3f4cf74f	0.8006486

mp.layer0.post_layer.0.bias f4 [154]
0	0x3f6c09bf	0.9220237
1	0xbeae5046	-0.3404562
2	0x3e366553	0.1781209
3	0xbdb750fc	-0.089509934
4	0xae23dc66	-3.7257662e-11
5	0x2c963934	4.2696072e-12
6	0xbe07ec7b	-0.13273804
7	0x3f1108a4	0.5665381
8	0x3d32c956	0.04364904
9	0x3e99ba2b	0.30024847
10	0x3f43534f	0.76298994
11	0x304487c9	7.1497347e-10
12	0xbedff48f	-0.4374127
13	0x3e712af8	0.23551548
14	0x3ed350a8	0.41272473
15	0x3f444632	0.7666961
16	0xbec8a45c	-0.39187896
17	0x3f40aaa5	0.7526038
18	0x3e009c88	0.12559712
19	0x3323d0eb	3.8141405e-08
20	0x296434ef	5.0672082e-14
21	0xbd477b2c	-0.04870145
22	0x3eb07fdf	0.34472558
23	0xbc2a0203	-0.010376456
24	0x3b8d6395	0.0043148496
25	0x3f1e50a6	0.6184181
26	0x2d2738cd	9.505463e-12
27	0x3c3f4f50	0.011676624
28	0x3e938453	0.28811893
29	0xbc559db9	-0.013038092
30	0x3de92ee1	0.113858946
31	0x3f0761cb	0.52883595
32	0x3b31bf91	0.002712224
33	0x3f25cfad	0.64770013
34	0xbe62460f	-0.22097038
35	0x27ed74e0	6.590743e-15
36	0x3e69c381	0.22828485
37	0xbd02c23c	-0.031923518
38	0x3ea4df55	0.3220164
39	0x3bad269f	0.005284145
40	0x3f35b14c	0.7097366
41	0xbf80bcdc	-1.0057635
42	0x3bcf37c6	0.0063237874
43	0xbb9860e9	-0.0046502245
44	0xbc07c5f0	-0.008286938
45	0x3b323d39	0.0027197136
46	0xbd1b0306	-0.03784468
47	0xbf1f75ef	-0.6228933
48	0x3e831079	0.25598505
49	0xbe5346a5	-0.20632418
50	0x3f3d7213	0.7400219
51	0x3b13193a	0.0022445456
52	0x3f4e0276	0.80472505
53	0x3ed60327	0.4179928
54	0x3b668def	0.0035179814
55	0x3f12fac5	0.57413894
56	0x3a29b432	0.00064736896
57	0xba8b52f7	-0.0010629584
58	0xbae784ca	-0.0017663476
59	0xba709692	-0.000917771
60	0x3ec3f2d5	0.38271204
61	0xbe3f0a11	-0.18656184
62	0x3eabbb99	0.33541563
63	0xbb11167d	-0.0022138648
64	0x1b4042ab	1.5903409e-22
65	0x289cd6e0	1.7412666e-14
66	0x3f5944e8	0.8487077
67	0x3ec265ea	0.3796838
68	0x3de7fc1e	0.113273844
69	0xbada08fa	-0.0016634755
70	0x3f3927e2	0.7232648
71	0xaa26af55	-1.4804592e-13
72	0xbbc2fa2a	-0.005950232
73	0x38e5b489	0.00010953198
74	0x3b4760a2	0.0030422588
75	0x3ec4f532	0.3846832
76	0x38489c4c	4.782928e-05
77	0x3ad20300	0.0016022623
78	0xbac1a7f5	-0.0014774787
79	0x22fc2961	6.834855e-18
80	0x9fcf5677	-8.7810954e-20
81	0x3a652cd8	0.0008742339
82	0x3e4df3d5	0.20112546
83	0x3a7841a9	0.00094702333
84	0xba5861da	-0.0008254327
85	0x3f5cd85c	0.8626764
86	0x3125fd7f	2.4154756e-09
87	0xba4d7f6a	-0.00078391156
88	0xbae2e552	-0.0017310774
89	0x3987f323	0.00025930358
90	0x3e76229d	0.24036641
91	0x3b68f232	0.003554475
92	0x39dfa451	0.000426563
93	0x3ab34989	0.0013678531
94	0xab8acc62	-9.862217e-13
95	0xa982abcc	-5.802962e-14
96	0x3e9382d0	0.2881074
97	0x3ec4793a	0.3837374
98	0xb93dc895	-0.00018099167
99	0x3b5bfed2	0.0033568633
100	0x3f02af45	0.5104869
101	0x2cddee74	6.3076714e-12
102	0x3974ce87	0.00023346591
103	0xbba71c30	-0.0050997958
104	0xbac9b292	-0.0015388301
105	0x391efebd	0.00015162952
106	0xba8b3192	-0.0010619632
107	0xbb268e1f	-0.00254143
108	0x3ab42c17	0.001374605
109	0x291905b3	3.3977768e-14
110	0x223d6e5e	2.5672704e-18
111	0xbebca66c	-0.3684572
112	0x3f1418c8	0.57850313
113	0x3a1bc4e9	0.00059421227
114	0x3baef65d	0.0053394274
115	0x36911b47	4.3245122e-06
116	0x2a8c42ae	2.4915264e-13
117	0x390f78e6	0.00013682581
118	0x3ac0c8d8	0.0014708294
119	0x3ad840fe	0.0016498861
120	0xbac3184b	-0.0014884559
121	0x3b11c89c	0.0022244817
122	0xbb146b7b	-0.002264707
123	0xba9b3e3b	-0.0011844108
124	0xbe71e9a9	-0.2362429
125	0x2d21c579	9.195638e-12
126	0x3e8b67dd	0.2722768
127	0x3eceacf9	0.40366343
128	0x3a0784ef	0.000516965
129	0x3bfecec1	0.007776112
130	0x3bef2785	0.0072984123
131	0xb3237155	-3.805447e-08
132	0x3a973c97	0.0011538443
133	0xbb0b99fc	-0.0021301499
134	0x3b14b004	0.0022687921
135	0x3af2e587	0.0018531539
136	0x3bad24f7	0.0052839476
137	0x3f57a43b	0.8423497
138	0x3ea96f1e	0.33092588
139	0xbe281950	-0.16415906
140	0xbd5da71b	-0.054114442
141	0x3e8a2343	0.26980028
142	0xbb40e96b	-0.0029436003
143	0x3a75b70e	0.00093732856
144	0x3f06c2cc	0.52640986
145	0x3d3cdb8f	0.046107825
146	0xac2b79ae	-2.4368107e-12
147	0x3c0e952b	0.008702557
148	0xb58a8538	-1.0320573e-06
149	0x3b231a37	0.0024887451
150	0x3f229719	0.63511807
151	0x3d636dc2	0.055524595
152	0x39891969	0.00026149608
153	0x3f121e6f	0.5707769

mp.layer0.post_layer.0.running_mean f4 [154]
0	0x41459ba7	12.350501
1	0x3fd825ee	1.6886575
2	0x416e4d43	14.893863
3	0x415ab036	13.66802
4	0x2f87bc02	2.4689945e-10
5	0xa6205dbc	-5.5638185e-16
6	0x412b74f9	10.716058
7	0x3fadb571	1.3570997
8	0x4076685a	3.850119
9	0x4167007b	14.437617
10	0x404b77c2	3.1791844
11	0x2d10d700	8.233192e-12
12	0x40c350fa	6.103635
13	0x40aaa587	5.332706
14	0x40de3fe3	6.9452987
15	0x4155c6c9	13.361032
16	0x4025d300	2.5910034
17	0x41d2543b	26.291128
18	0x41c2e830	24.363373
19	0x341884dc	1.4204437e-07
20	0x2bde299e	1.57856e-12
21	0x41305937	11.021781
22	0x3fe0a74e	1.7551057
23	0x40971b88	4.7221107
24	0x41cc53d5	25.540934
25	0x405ace3e	3.418838
26	0x32664133	1.3402587e-08
27	0x41a583f4	20.68943
28	0x416e6257	14.899009
29	0x41c9c7f1	25.222628
30	0x41847a28	16.559647
31	0x408a74ec	4.3267727
32	0x42506f27	52.108547
33	0x4241f271	48.48676
34	0x39a5d2c1	0.00031628276
35	0x3587e6e5	1.0125483e-06
36	0x413f9b3c	11.975399
37	0x40064d2a	2.0984597
38	0x40e2f3bc	7.0922527
39	0x424bf399	50.98789
40	0x407c927d	3.946441
41	0x389f9bdb	7.610741e-05
42	0x42e73d56	115.6198
43	0x42bdc882	94.89162
44	0x4302c769	130.77895
45	0x4193819d	18.438288
46	0x40c8e399	6.277783
47	0x429760a5	75.68876
48	0x428f2f55	71.592445
49	0x3bf45f8c	0.007457679
50	0x3ab16cb4	0.0013536424
51	0x41378ea3	11.472323
52	0x400f8f6e	2.2431293
53	0x4118b6e0	9.544647
54	0x4294a496	74.32146
55	0x408711bc	4.220915
56	0x3b7baade	0.0038401405
57	0x431f4b6f	159.29466
58	0x4315ca22	149.78958
59	0x4326e47d	166.89253
60	0x418b0472	17.37717
61	0x40835179	4.1036954
62	0x424c3789	51.054234
63	0x4240bda6	48.185204
64	0x2fd376ed	3.8465178e-10
65	0xa6246532	-5.7036075e-16
66	0x4150662e	13.024946
67	0x3ff53596	1.9156978
68	0x40d5b259	6.678021
69	0x4248a4d7	50.160976
70	0x406e8c70	3.7273216
71	0x2d61a106	1.2825524e-11
72	0x42e72d06	115.58794
73	0x42d1c18b	104.87801
74	0x42f807ae	124.015
75	0x41a0ef42	20.116825
76	0x40ed2249	7.410435
77	0x42c88502	100.25978
78	0x42bd8c02	94.77345
79	0x2e907129	6.568463e-11
80	0xa5ccf8f8	-3.5557067e-16
81	0x413e81a9	11.906655
82	0x400c3b76	2.1911292
83	0x412b44c7	10.704291
84	0x42c52cf6	98.587814
85	0x408668ae	4.2002783
86	0x2c1ac866	2.199596e-12
87	0x43185c0a	152.35953
88	0x430da178	141.63074
89	0x4320c0ee	160.75363
90	0x41c515bb	24.63561
91	0x414459e1	12.271943
92	0x43177806	151.46884
93	0x43121785	146.09187
94	0x34105028	1.3440206e-07
95	0x2c02ae8f	1.857101e-12
96	0x412bc107	10.734626
97	0x401b0478	2.4221478
98	0x41838d5d	16.444025
99	0x431577c1	149.46779
100	0x4094abea	4.6459856
101	0x326accdd	1.3667173e-08
102	0x4327f4c8	167.95618
103	0x43220662	162.02493
104	0x432c807d	172.5019
105	0x41f80c2a	31.00594
106	0x41a0c899	20.097948
107	0x430dd6d5	141.83919
108	0x430b2120	139.1294
109	0x370af5cd	8.282671e-06
110	0x325ebf15	1.2965548e-08
111	0x410cc5b4	8.798267
112	0x40280f1b	2.625922
113	0x41c455ff	24.54199
114	0x430d19a4	141.10016
115	0x40985aea	4.761098
116	0x35c17d6d	1.4416124e-06
117	0x432ebfe5	174.74959
118	0x432c1c72	172.11111
119	0x433089ac	176.53778
120	0x420a8836	34.63302
121	0x41c68969	24.817095
122	0x42f826fe	124.07616
123	0x42f223ed	121.07017
124	0x392c89b9	0.00016454504
125	0x35d2d519	1.5708239e-06
126	0x40eba9e5	7.364489
127	0x402e5688	2.7240314
128	0x41eb1ed7	29.390059
129	0x42f655c5	123.16752
130	0x40912bee	4.5366125
131	0x382bdeed	4.0977193e-05
132	0x433092e8	176.57385
133	0x432f13b8	175.07703
134	0x433174a1	177.45558
135	0x43321327	178.07481
136	0x43be7c9e	380.97357
137	0x3fefbe3c	1.872993
138	0x3f2b4f1c	0.66917586
139	0x3f4fc1c4	0.8115504
140	0x3f6af300	0.9177704
141	0x3f81afc5	1.0131766
142	0x41cda552	25.705723
143	0x41be1df1	23.76462
144	0x4161229e	14.070951
145	0x390b2b7a	0.0001327227
146	0x00000000	0.0
147	0x3a151160	0.0005686488
148	0x3f7fd209	0.99929863
149	0x43c63032	396.37653
150	0x42214131	40.313663
151	0x4485b8af	1069.7714
152	0x481268b7	149922.86
153	0x400e96ed	2.2279618

mp.layer0.post_layer.0.running_var f4 [154]
0	0x428904e3	68.509544
1	0x3e4b8882	0.19876292
2	0x40151b5b	2.3297946
3	0x4080d6f8	4.0262413
4	0x26139473	5.1202056e-16
5	0x0c9c559e	2.4087135e-31
6	0x426356c2	56.834724
7	0x3e08cc3f	0.13359164
8	0x3eb8c70f	0.3608937
9	0x40102c06	2.252687
10	0x3e8ae042	0.2712422
11	0x2127eec9	5.689783e-19
12	0x4009c78e	2.1528049
13	0x40009347	2.008989
14	0x4040641c	3.0061102
15	0x42b71adf	91.55248
16	0x3e730780	0.2373333
17	0x41825e8f	16.296171
18	0x418f61f4	17.922829
19	0x2d2a0bdb	9.666014e-12
20	0x1e1ad8fa	8.197562e-21
21	0x429c8d1e	78.27562
22	0x3ddb988b	0.10722455
23	0x3f06d482	0.5266801
24	0x417c301c	15.761745
25	0x3eb1da13	0.3473669
26	0x29936aa1	6.5466086e-14
27	0x42c53007	98.5938
28	0x42594908	54.32132
29	0x43081862	136.09525
30	0x42e36c13	113.71108
31	0x3f23e4d1	0.6402102
32	0x43675a90	231.35376
33	0x43513f8e	209.24826
34	0x37343a4f	1.0742412e-05
35	0x304f5c5d	7.543742e-10
36	0x42bd6c96	94.71208
37	0x3ddc0420	0.10742974
38	0x400c6cff	2.1941526
39	0x435c503c	220.31342
40	0x3f8d9400	1.1060791
41	0x355b6b8a	8.174035e-07
42	0x463efa10	12222.516
43	0x4613f4e9	9469.228
44	0x4659970a	13925.76
45	0x42ddc155	110.8776
46	0x401ef6e3	2.4838188
47	0x447941fc	997.031
48	0x44613fe0	900.99805
49	0x3b20a2a9	0.0024511016
50	0x3a05ba00	0.00051012635
51	0x42b370bb	89.72018
52	0x3e27501c	0.16339153
53	0x40cd310e	6.412238
54	0x446ec014	955.0012
55	0x400e9adb	2.2282016
56	0x3a773d76	0.00094314606
57	0x46b7b41f	23514.06
58	0x46b6b2d5	23385.416
59	0x46b7f684	23547.258
60	0x42f42709	122.07624
61	0x40d6e689	6.7156415
62	0x44ad6fb9	1387.4913
63	0x44a93ecb	1353.9623
64	0x26688e43	8.068397e-16
65	0x0c8a59f4	2.1316405e-31
66	0x42d0e71e	104.4514
67	0x3e93de4b	0.28880534
68	0x40ff11ba	7.970914
69	0x44abe10f	1375.0331
70	0x3f449ed7	0.7680487
71	0x21845173	8.966227e-19
72	0x46ce1755	26379.666
73	0x46cf919d	26568.807
74	0x46cd2fbf	26263.873
75	0x42f937ab	124.60873
76	0x41fd1b35	31.638285
77	0x45d1f84f	6719.0386
78	0x45caa4e5	6484.612
79	0x23569f51	1.16347e-17
80	0x0c0891ba	1.0520912e-31
81	0x42a4919f	82.28442
82	0x3e82dfc0	0.25561333
83	0x42183eba	38.061256
84	0x45cf96f1	6642.8677
85	0x3feb7a89	1.839677
86	0x1e746a4a	1.29392325e-20
87	0x46c6bf0c	25439.523
88	0x46cb5d21	26030.564
89	0x46c314fa	24970.488
90	0x433d6c2d	189.42256
91	0x42cddc84	102.930695
92	0x46824db7	16678.857
93	0x467e76d5	16285.708
94	0x2d0a910a	7.876597e-12
95	0x1d3a16e3	2.4628727e-21
96	0x4267e2ab	57.971355
97	0x3e75fec2	0.24022964
98	0x42f6bffe	123.374985
99	0x4680cc1a	16486.05
100	0x407376ce	3.8041263
101	0x29b1a254	7.8885385e-14
102	0x46be116b	24328.709
103	0x46c26093	24880.287
104	0x46bb64ba	23986.363
105	0x43c835c7	400.42014
106	0x43969b05	301.2111
107	0x466b36c7	15053.694
108	0x4667e152	14840.33
109	0x31f4ec41	7.1281936e-09
110	0x284e277d	1.144386e-14
111	0x421173c2	36.363045
112	0x3f018cc3	0.5060541
113	0x43a725aa	334.29425
114	0x4669ce7d	14963.622
115	0x40a9ba7f	5.3040156
116	0x2f3b88f6	1.7056209e-10
117	0x46b99094	23752.29
118	0x46bb9b63	24013.693
119	0x46b85e17	23599.045
120	0x44151da9	596.46344
121	0x43e6f977	461.94894
122	0x46343608	11533.508
123	0x462f7942	11230.314
124	0x34f4eb00	4.5619527e-07
125	0x2e1cc417	3.5644456e-11
126	0x41a965bd	21.174677
127	0x3f80e4c3	1.0069813
128	0x44034736	525.1127
129	0x46320add	11394.716
130	0x40ae3432	5.4438715
131	0x32c5a24a	2.3007619e-08
132	0x46b87f39	23615.611
133	0x46b99c2a	23758.082
134	0x46b7e5e7	23538.951
135	0x46b79893	23500.287
136	0x47b5ed80	93147.0
137	0x3fbb7516	1.4645107
138	0x3dd2a6ca	0.10285719
139	0x3e24db91	0.16099383
140	0x3e650617	0.22365604
141	0x3e9c671c	0.30547416
142	0x43c002df	384.02243
143	0x43b3e360	359.77637
144	0x425a6674	54.60005
145	0x390aeaee	0.00013248224
146	0x00000004	6e-45
147	0x3a148f43	0.00056670996
148	0x3a371e02	0.00069853675
149	0x47b9f6eb	95213.836
150	0x43e81217	464.14133
151	0x49d24542	1.7225362e+06
152	0x517f62f5	6.8554805e+10
153	0x3f0da8f6	0.5533594

post_mp.layer_post_mp.model.0.Layer_0.layer.model.weight f4 [154, 154]
0	0x3e642fbd	0.22283836
1	0x3e83bb91	0.2572904
2	0xbf2d5b7b	-0.67717713
3	0xbe894ef5	-0.26818052
4	0x2d9ab508	1.7588167e-11
5	0x27c3dc75	5.4362392e-15
6	0x3d8590e5	0.06521777
7	0xbd9abb70	-0.07555282
8	0xbc41a412	-0.011818903
9	0x3e9b7e16	0.30369633
10	0x3d4f4e03	0.050611507
11	0x2f893ad7	2.4961963e-10
12	0xbdd35dd2	-0.10320629
13	0xbe68f2f9	-0.22748937
14	0x3eb37d24	0.35056412
15	0xbe3b4f84	-0.18292052
16	0xbebc3891	-0.36761907
17	0xbd91d560	-0.07120776
18	0x3e95a10d	0.29224434
19	0x327eb432	1.48257175e-08
20	0x28c15d51	2.1467774e-14
21	0x3dac79d3	0.084216736
22	0x3e4e3c1b	0.20140116
23	0xbd5d94b8	-0.054096907
24	0x39c9ea0a	0.0003851208
25	0xbcabad0d	-0.02095654
26	0xaa916a45	-2.5830913e-13
27	0xbacbef20	-0.0015558936
28	0x3d769020	0.060196042
29	0xbab69a58	-0.0013931496
30	0x3d80b6d5	0.062848724
31	0xbe862b72	-0.2620502
32	0xb9f2ebc3	-0.00046333493
33	0x3e6fe7eb	0.23428313
34	0x3e0c3118	0.13690603
35	0x27310ac9	2.4569531e-15
36	0x3e1c5538	0.15266883
37	0x3e0932c9	0.13398279
38	0x3e12a453	0.14320497
39	0xbad7fd3c	-0.0016478668
40	0xbe443953	-0.19162492
41	0x3e5c8e37	0.21538626
42	0x37f698d3	2.939665e-05
43	0x3adf0c2e	0.001701718
44	0xbae1b5ee	-0.0017220357
45	0x3a2fe802	0.0006710292
46	0x3d5c6ea9	0.05381647
47	0xbcf67a3b	-0.03008758
48	0x3e281465	0.1641403
49	0xbe73d085	-0.23810013
50	0x3d7c6456	0.061619125
51	0x38a3312b	7.781604e-05
52	0xbbcec490	-0.006310053
53	0x3e2f10fa	0.1709632
54	0xbae5c290	-0.0017529298
55	0x3df6799c	0.12034914
56	0xba200bf6	-0.0006105298
57	0xba23a663	-0.000624275
58	0xba8fe90b	-0.0010979486
59	0xba855958	-0.0010173721
60	0xbe0b3ed9	-0.13598193
61	0xbe3e3d09	-0.1857797
62	0x3e775fe8	0.24157679
63	0xba001d91	-0.0004887218
64	0x1a0ef3da	2.9561893e-23
65	0xa5fd76b4	-4.396894e-16
66	0xbe6f60ad	-0.23376723
67	0xbe6aacb4	-0.22917444
68	0xbce4c964	-0.027928062
69	0xba3f77f3	-0.00073039456
70	0x3e10436a	0.14088216
71	0x286f01bc	1.3267541e-14
72	0xbb849a15	-0.0040466883
73	0xba5e779b	-0.00084864505
74	0xba837684	-0.0010029827
75	0xbd1fc870	-0.03900951
76	0x392f0b82	0.00016693588
77	0xba178afe	-0.00057809043
78	0xbaeb09c4	-0.0017931988
79	0x21f7783d	1.6769198e-18
80	0x1eda5b21	2.3119338e-20
81	0xbb011bb7	-0.0019700357
82	0x3e6709d4	0.22562343
83	0x3af62695	0.0018779809
84	0xba5ac7a2	-0.00083457876
85	0xbdc9027d	-0.09814928
86	0x30891073	9.972737e-10
87	0x36a44eb2	4.896742e-06
88	0x398dd201	0.0002705008
89	0x39077e0a	0.00012921556
90	0x3dafed8a	0.08590229
91	0xbb141893	-0.0022597655
92	0xbb96907b	-0.00459486
93	0xb9f81ceb	-0.00047323792
94	0xa9d53a0f	-9.469172e-14
95	0x28082a77	7.558725e-15
96	0x3e905a3d	0.28193846
97	0x3dfc7877	0.12327664
98	0xb65b1754	-3.2647122e-06
99	0xbb2738cb	-0.002551603
100	0x3e0f94f8	0.14021671
101	0x2b5be0a0	7.811616e-13
102	0xb8c00c54	-9.15757e-05
103	0xbb41952a	-0.0029538372
104	0xbab1bbe7	-0.0013560028
105	0xb879146d	-5.938525e-05
106	0xbaa26d20	-0.0012392141
107	0xba251700	-0.0006297678
108	0xba5e82e3	-0.00084881316
109	0xa5f2f1b2	-4.2144087e-16
110	0x20e3d42a	3.8595694e-19
111	0x3d9a6ed8	0.07540673
112	0xbd325e42	-0.043546923
113	0xb963a501	-0.00021709876
114	0xba09336d	-0.00052337983
115	0xb736b7a6	-1.0890804e-05
116	0x27513a3a	2.9036141e-15
117	0xb9d4cbfa	-0.00040587765
118	0xba684d60	-0.00088616274
119	0xb99f93b6	-0.00030436896
120	0xba0edfd0	-0.0005450221
121	0xba9d271d	-0.0011989806
122	0x39220719	0.00015452168
123	0xb97289c6	-0.00023130243
124	0xbe220739	-0.15823068
125	0x2c36bfb7	2.5970179e-12
126	0x3d64e74c	0.055884644
127	0xbdd51eb5	-0.104062475
128	0xb919138b	-0.00014598497
129	0xbae0c11f	-0.0017147398
130	0x3ba2b5c2	0.004965515
131	0xb1efc40e	-6.9781043e-09
132	0xb996db8d	-0.00028773808
133	0xbad99666	-0.0016600608
134	0xba841210	-0.0010076184
135	0xba08a029	-0.0005211854
136	0x39cdb027	0.0003923189
137	0xbdf1a9f0	-0.11799991
138	0xbe231a34	-0.15927964
139	0xbe4c21e1	-0.19934799
140	0x3c872b3e	0.016500112
141	0x3dd7d6d4	0.10539022
142	0xbb338794	-0.0027394043
143	0x3b5371a0	0.003226377
144	0x3de63317	0.11240213
145	0x3cffc93f	0.031223891
146	0x2bbadf93	1.3278149e-12
147	0xbbe45825	-0.0069685155
148	0x36b3083b	5.335574e-06
149	0xba42229e	-0.0007405671
150	0xbe973d7c	-0.29539096
151	0x3dd51568	0.104044735
152	0xba4aa36d	-0.0007730041
153	0x3e8de5e6	0.2771446
154	0x3dc7bf9a	0.09753342
155	0x3e0e5805	0.13900764
156	0x3e2b2bab	0.16715877
157	0xbdf3a31f	-0.11896347
158	0x2ccebb27	5.8756502e-12
159	0xaab531f7	-3.218673e-13
160	0x3db11108	0.086458266
161	0xba067d4f	-0.0005130367
162	0x3db692f2	0.08914746
163	0x3c2df15f	0.010616629
164	0xbee0edc9	-0.43931416
165	0xad50115b	-1.1827285e-11
166	0xbbf168f4	-0.0073672477
167	0x3d709c65	0.0587429
168	0xbe010dce	-0.12602922
169	0xbe231f87	-0.15929995
170	0x3e34c18e	0.1765196
171	0x3e0fa4e0	0.14027739
172	0xbea0eecf	-0.31432196
173	0x308cd619	1.0247191e-09
174	0xa7322b32	-2.4725879e-15
175	0x3e118b4f	0.14213298
176	0xbc765877	-0.01503574
177	0x3de209c1	0.11037017
178	0x3a5c89f4	0.00084128906
179	0xbea7d03b	-0.32776055
180	0xabb418d7	-1.2796664e-12
181	0x3ac5c0f1	0.0015087408
182	0xbd9faae8	-0.0779627
183	0x3a041651	0.0005038726
184	0x3d90cb87	0.0707007
185	0xbea572a7	-0.32314035
186	0xb7948f3f	-1.7709679e-05
187	0xbe1ec44b	-0.15504567
188	0x3ca87706	0.020564567
189	0x264399fe	6.7862914e-16
190	0xbdee66d4	-0.11640707
191	0x3eec1c84	0.46115506
192	0x3e8682c1	0.26271632
193	0xbac1d903	-0.0014789406
194	0xbdd57b41	-0.104238994
195	0x3e4093b2	0.18806341
196	0x3a3ec0af	0.0007276637
197	0xb8a15530	-7.692946e-05
198	0x3ba51535	0.0050379285
199	0x38cec219	9.858999e-05
200	0xbe8aa357	-0.27077743
201	0xbceede46	-0.029158723
202	0xbd7918a1	-0.060814504
203	0x3c64824a	0.013947079
204	0xbda13329	-0.07871086
205	0x3b088369	0.002083028
206	0x3e169837	0.14706503
207	0x3d3f1e88	0.046659976
208	0xb9dcfa8c	-0.00042148342
209	0xbdcb05e7	-0.09913235
210	0xb7828c05	-1.556241e-05
211	0xba33b77a	-0.0006855648
212	0xbaa923e3	-0.0012904372
213	0xbacb349c	-0.001550335
214	0x3e01304d	0.12616082
215	0xbd67ebef	-0.05662149
216	0x3e439aea	0.19102064
217	0x3ad3b3c6	0.0016151599
218	0x99ca7df5	-2.0937184e-23
219	0xa73c6ee5	-2.6150357e-15
220	0xbe81318d	-0.25233117
221	0x3ea8acfc	0.32944477
222	0x3c53a0af	0.012916728
223	0xbae6f1ce	-0.0017619671
224	0xbe67367d	-0.2257938
225	0x2612d436	5.0941525e-16
226	0x3983382d	0.0002502812
227	0xba031758	-0.0005000732
228	0xb7c2b03b	-2.3208666e-05
229	0x3b821ce4	0.003970729
230	0xba391037	-0.0007059606
231	0xbac094b6	-0.0014692757
232	0xbb42d0f0	-0.0029726587
233	0xa18b7e06	-9.452364e-19
234	0x9dd21845	-5.561163e-21
235	0xb9b300ec	-0.00034142227
236	0xbec1d34f	-0.37856528
237	0x3a50b2f8	0.0007961239
238	0xbaa554cd	-0.0012613774
239	0x3d8e7221	0.06955362
240	0x2fe0030a	4.0747522e-10
241	0xb895001b	-7.104893e-05
242	0x39ef2b5e	0.00045617943
243	0x3990e659	0.00027637443
244	0x3de601a5	0.112307824
245	0xb8a87caf	-8.0340884e-05
246	0xb9935f2d	-0.00028108936
247	0xb9b1a38b	-0.0003388192
248	0xa9d25d6e	-9.342081e-14
249	0xa75b7f60	-3.0461405e-15
250	0xbdd350a3	-0.103181146
251	0x3e69b86f	0.22824262
252	0xb94b918a	-0.00019413806
253	0x39e7e8cb	0.00044233198
254	0x3e9097bb	0.2824076
255	0xac2c21ed	-2.4461503e-12

post_mp.layer_post_mp.model.0.Layer_0.post_layer.0.weight f4 [154]
0	0x3f7c9e3e	0.9867896
1	0x3f7fab3c	0.9987066
2	0x3f95bac5	1.1697623
3	0x3f95d323	1.1705059
4	0x3f83e4ab	1.0304159
5	0x3f8f6c0d	1.120485
6	0x3f6ff37a	0.9373089
7	0x3f9731d8	1.1812086
8	0x3f8b1e45	1.0868613
9	0x3f9012a7	1.1255692
10	0x3f8c8bf5	1.0980211
11	0x3f795660	0.9739742
12	0x3f588beb	0.845885
13	0x3f7a41e2	0.9775678
14	0x3f8d4a5c	1.1038318
15	0x3f777b56	0.9667257
16	0x3f92bd6a	1.1464055
17	0x3f9dfb89	1.2342387
18	0x3f955162	1.1665461
19	0x3f8b1263	1.0864986
20	0x3f82343c	1.0172191
21	0x3f881af2	1.0633223
22	0x3f8f3877	1.1189107
23	0x3f927dbf	1.1444625
24	0x3f4a4b0e	0.79020774
25	0x3f9809e6	1.1878021
26	0x3f9d6d78	1.2299032
27	0x3f823f4e	1.0175569
28	0x3f8d6f78	1.1049643
29	0x3f7af079	0.9802318
30	0x3f83af2e	1.0287836
31	0x3f6aebb8	0.9176593
32	0x3f878c64	1.0589719
33	0x3f96ddcc	1.1786437
34	0x3f8db76f	1.1071604
35	0x3f980353	1.1876014
36	0x3f6c2f7d	0.9225996
37	0x3f8c973b	1.0983652
38	0x3f875d04	1.0575261
39	0x3f6b0c1c	0.9181535
40	0x3f8519ba	1.0398476
41	0x3f99edf6	1.2025745
42	0x3f9dedbd	1.2338177
43	0x3f8f8081	1.1211091
44	0x3f8cb3fe	1.0992429
45	0x3f8628a3	1.0481151
46	0x3f685ab4	0.907634
47	0x3f95da99	1.1707336
48	0x3f7c8718	0.98643637
49	0x3f88a5f3	1.0675644
50	0x3f68a5ca	0.90877974
51	0x3f9e33d5	1.2359568
52	0x3f70e353	0.9409687
53	0x3f8d65b7	1.1046666
54	0x3f987efa	1.191375
55	0x3f7600da	0.9609505
56	0x3f87b275	1.0601336
57	0x3f85718e	1.0425279
58	0x3f5e4c76	0.8683542
59	0x3f89b64a	1.0758755
60	0x3f87278d	1.0558945
61	0x3f9c903e	1.2231519
62	0x3f972983	1.1809543
63	0x3f8d397f	1.1033171
64	0x3f870dfc	1.0551143
65	0x3f710fe6	0.94164884
66	0x3f974f49	1.1821071
67	0x3f83304d	1.0249115
68	0x3f7f6008	0.9975591
69	0x3f809ecc	1.0048461
70	0x3f8c1c20	1.0946083
71	0x3f95737d	1.1675869
72	0x3f6ee0ca	0.9331175
73	0x3f63b4cb	0.88947743
74	0x3f983608	1.1891489
75	0x3f94384d	1.1579682
76	0x3f866a71	1.0501233
77	0x3f89289a	1.0715516
78	0x3f6282eb	0.88481015
79	0x3f92b527	1.1461533
80	0x3f7677c6	0.9627651
81	0x3f694d9c	0.9113405
82	0x3f80e391	1.0069448
83	0x3f8a8b35	1.0823733
84	0x3f9e09a2	1.234669
85	0x3f90580e	1.1276872
86	0x3f7c9097	0.98658127
87	0x3f86bc14	1.0526147
88	0x3f934e93	1.1508354
89	0x3f7cc0d1	0.98731714
90	0x3f92bcac	1.1463828
91	0x3f982ce2	1.1888697
92	0x3f952c44	1.1654134
93	0x3fa43f8c	1.2831893
94	0x3f966b2a	1.1751454
95	0x3f8de18b	1.1084455
96	0x3f8805c0	1.0626755
97	0x3f7cf6ae	0.98813903
98	0x3f72a897	0.947885
99	0x3f8e7e16	1.1132228
100	0x3f65c9ae	0.89760864
101	0x3f98b683	1.1930698
102	0x3f90e296	1.1319149
103	0x3f857af9	1.0428153
104	0x3f92a3e6	1.1456268
105	0x3f869ef2	1.0517256
106	0x3f75f3f4	0.9607537
107	0x3fa8ed1b	1.3197359
108	0x3f8099f3	1.0046982
109	0x3f6d8abb	0.9278981
110	0x3f8c8484	1.097794
111	0x3f8e6c14	1.1126733
112	0x3f8bfcdc	1.0936542
113	0x3f7627a2	0.96154225
114	0x3f97f99d	1.1873051
115	0x3f405cae	0.7514142
116	0x3f8fa7a8	1.122304
117	0x3f676eb6	0.90403306
118	0x3f89e88b	1.0774091
119	0x3f986844	1.1906819
120	0x3f940e4f	1.1566867
121	0x3f8dc7be	1.1076581
122	0x3f83ce2f	1.0297297
123	0x3f6cd0d3	0.9250614
124	0x3f8ff2d9	1.1245986
125	0x3f8396d3	1.0280403
126	0x3f924a9f	1.1429023
127	0x3f75e6bd	0.96055204
128	0x3f8a05a4	1.0782971
129	0x3f837303	1.0269474
130	0x3f87196c	1.0554633
131	0x3f83aa3e	1.0286329
132	0x3f85a602	1.0441287
133	0x3f870490	1.0548267
134	0x3f8600ce	1.0468996
135	0x3f818345	1.0118185
136	0x3f8ee32d	1.1163079
137	0x3f8207c3	1.0158619
138	0x3f797a5d	0.97452337
139	0x3f906475	1.1280657
140	0x3f89152b	1.0709585
141	0x3f859faf	1.0439357
142	0x3f991665	1.1959959
143	0x3f71202d	0.9418972
144	0x3f885000	1.0649414
145	0x3f7714d7	0.96516174
146	0x3f58de18	0.8471389
147	0x3f68341b	0.90704507
148	0x3f8ce8fd	1.1008602
149	0x3f8d2bae	1.1028955
150	0x3f8669c0	1.0501022
151	0x3f5b50d3	0.856702
152	0x3f8a2f72	1.0795729
153	0x3f897811	1.0739766

post_mp.layer_post_mp.model.0.Layer_0.post_layer.0.bias f4 [154]
0	0x3bb3684b	0.005475079
1	0x3ee55dcc	0.44798124
2	0x3ee8437e	0.45363992
3	0x3e7ced01	0.24699785
4	0x3d48bcd5	0.04900821
5	0x3dcd1030	0.10012853
6	0x3f061a25	0.52383643
7	0xbd629390	-0.055316508
8	0xbe03015b	-0.12793486
9	0x3ea550ec	0.322883
10	0x3e51f82d	0.20504828
11	0xbdcfb151	-0.10141242
12	0x3bf5028b	0.00747711
13	0x3ddcfa51	0.107899316
14	0x3dd70919	0.10499782
15	0x3f4eefb0	0.80834484
16	0x3d89e188	0.0673247
17	0x3eb11f9b	0.34594426
18	0x3e7e9c7a	0.24864379
19	0xbd9a439f	-0.07532429
20	0x3ef47ca6	0.4775135
21	0xbe6b75e8	-0.22994196
22	0x3e6dcb4b	0.23222081
23	0x3e543d0f	0.20726417
24	0x3e2c5a4b	0.16831319
25	0x3dac9a2c	0.084278435
26	0xbd979d62	-0.07403065
27	0x3dfc41de	0.12317251
28	0x3ec35b98	0.38155818
29	0x3f06c238	0.52640104
30	0x3e929fbf	0.28637502
31	0x3ecea86c	0.4036287
32	0x3f04596b	0.5169894
33	0x3d1b3854	0.037895516
34	0xbdddd5a9	-0.10831768
35	0x3f07e696	0.5308622
36	0x3edc0f66	0.42980498
37	0x3eb48e41	0.3526478
38	0x3edce19a	0.4314087
39	0x3ebb4b45	0.36580864
40	0x3ec1460e	0.3774876
41	0x3db4d3f3	0.088294886
42	0x3eb9a7ba	0.36260778
43	0x3eb3bb5d	0.35103884
44	0xbeddf453	-0.43350467
45	0x3e7960e2	0.24353364
46	0xbe2a8b20	-0.16654634
47	0x3db141b9	0.08655114
48	0x3ee5e113	0.4489828
49	0xbd05203b	-0.03250144
50	0x3f2391ce	0.63894355
51	0x3e202014	0.15637237
52	0xbe2b1d33	-0.16710357
53	0x3f01d5fb	0.50717133
54	0x3d85a5b7	0.06525748
55	0x3ed212b1	0.41029885
56	0xbdaba885	-0.08381752
57	0x3ea5cfb0	0.32385015
58	0xbd683aec	-0.056696817
59	0x3ec29edc	0.38011825
60	0x3e1ec570	0.15505004
61	0x3ebe3401	0.3714905
62	0x3e586c87	0.2113515
63	0x3e6653b6	0.2249287
64	0xbe4d72be	-0.20063302
65	0x3e1d6245	0.15369518
66	0x3e80407e	0.25049204
67	0x3eb2caf9	0.3492048
68	0xbe457d92	-0.19286183
69	0x3e25d3c0	0.16194057
70	0xbdfd28df	-0.12361311
71	0x3d66e6a0	0.056372285
72	0x3efc2f4c	0.49254835
73	0x3c09cc3c	0.00841051
74	0x3de72031	0.11285437
75	0x3f1bbc77	0.6083445
76	0x3ede7463	0.4344817
77	0x3d11a792	0.035560198
78	0x3e6ab328	0.22919905
79	0xbdc4141f	-0.0957415
80	0xbe4e24ee	-0.20131275
81	0xbd94c4fc	-0.07264134
82	0x3e785268	0.24250185
83	0xbe773aa6	-0.24143466
84	0x3e8d25a8	0.27567792
85	0x3f061131	0.5236998
86	0x3db3220d	0.08746729
87	0x3ebbaf70	0.36657286
88	0x3e66dbcb	0.22544782
89	0x3f161924	0.5863211
90	0x3d6bb896	0.05754908
91	0x3edd27c5	0.43194404
92	0x3ef25bf2	0.47335774
93	0x3e18d2cb	0.14924161
94	0xbd314551	-0.043278996
95	0x3e3ec556	0.18629965
96	0x3ecc1d56	0.39866132
97	0x3ca8bc02	0.020597462
98	0x3edc64ae	0.43045563
99	0xbdcbdc77	-0.0995416
100	0x3ed63968	0.41840672
101	0x3e574623	0.21022849
102	0x3d827e3d	0.06371734
103	0x3ce918e7	0.028454257
104	0x3ee69a72	0.45039707
105	0x3e678b40	0.22611713
106	0x3ee1a29a	0.44069368
107	0x3e8de876	0.27716416
108	0xbe0b2d50	-0.13591504
109	0x3deef512	0.11667837
110	0x3eb23e47	0.3481314
111	0x3cd3775a	0.025813747
112	0x3ed3624f	0.4128594
113	0xbda3b71e	-0.07993911
114	0x3eb5f513	0.3553854
115	0x3f03059d	0.5118044
116	0x3ec44fe9	0.38342217
117	0x3dba3284	0.09091666
118	0x3ebed066	0.3726837
119	0x3f034ad5	0.5128606
120	0x3e883b4b	0.26607737
121	0x3c9a5a9b	0.018842032
122	0x3e8ef920	0.27924442
123	0x3eefe1f0	0.46852064
124	0xbd8c474a	-0.06849535
125	0x3ee8cc0e	0.4546818
126	0x3e1ea1bb	0.15491383
127	0x3f3a6098	0.7280364
128	0xbba4d997	-0.0050308215
129	0x3ca48e84	0.020087488
130	0x3e186137	0.14880835
131	0x3de55a73	0.111988924
132	0x3e3d546e	0.18489239
133	0x3e86a4fb	0.26297745
134	0x3e8ff6e5	0.28118053
135	0x3eba9011	0.3643804
136	0x3ea076f3	0.3134075
137	0x3edef2f7	0.43544742
138	0xbbb43fca	-0.0055007683
139	0xbd8be42a	-0.06830628
140	0x3f090cb4	0.5353501
141	0x3e68d613	0.22737913
142	0x3f0c4150	0.5478716
143	0x3ef48268	0.47755742
144	0x3eef18c1	0.46698573
145	0x3ecf9c07	0.40548727
146	0xbe81343e	-0.2523517
147	0x3e135b27	0.1439024
148	0x3ea4d01b	0.32190022
149	0xbeacf3dd	-0.33779803
150	0x3defc2cf	0.11707079
151	0x3dc730d6	0.097261116
152	0x3eb9ede7	0.36314318
153	0x3ebd67b5	0.36993185

post_mp.layer_post_mp.model.0.Layer_0.post_layer.0.running_mean f4 [154]
0	0x3d1e1992	0.038598605
1	0x3bd3d3b6	0.006464447
2	0x3d5ad99b	0.05343018
3	0xbe333725	-0.17501505
4	0xbd4431a1	-0.047898892
5	0xbcb93696	-0.022609036
6	0x3d1510be	0.03639292
7	0xbe6a929c	-0.2290749
8	0x3a663b14	0.0008782607
9	0x3c6991e1	0.014255972
10	0xbd4a5ceb	-0.04940502
11	0xbcc03f11	-0.023467572
12	0x3e15d698	0.14632642
13	0xbdff8379	-0.12476248
14	0x3c01eb03	0.007929566
15	0xbe454940	-0.19266224
16	0xbca0a87a	-0.019611586
17	0x3d4bc8d9	0.04975209
18	0xbd2b8b5f	-0.04188096
19	0xbd214189	-0.03936914
20	0x3e83657b	0.2566336
21	0x3ce43452	0.02785698
22	0x3decd20b	0.115635
23	0xbcdb5e3e	-0.026778337
24	0xbd71e683	-0.059057724
25	0x3dda35e5	0.10654811
26	0xbd51ed98	-0.051251978
27	0x3dc087d7	0.094009094
28	0x3e6fb7eb	0.23410003
29	0xbd81157c	-0.06302926
30	0xbcd4f7b4	-0.02599702
31	0x3daa5388	0.083167136
32	0xbd24d6ea	-0.04024402
33	0xbd63f0ab	-0.05564944
34	0x3d8c68b2	0.068559065
35	0xbc5ccd81	-0.01347673
36	0x3dcddfc3	0.10052445
37	0xbe69ca5d	-0.22831102
38	0x3ce647d9	0.028110432
39	0xbdba7bb6	-0.09105627
40	0x3e1bbab3	0.15207939
41	0xbd14cd23	-0.036328446
42	0x3b852f15	0.0040644505
43	0x3e2f8f1c	0.17144436
44	0x3dcea9fd	0.100910164
45	0x3e10ecda	0.14152852
46	0xbdf005d4	-0.117198616
47	0x3e481b91	0.19541766
48	0x3d0738af	0.033013042
49	0x3d8a2c3f	0.067467205
50	0xbe37b951	-0.17941786
51	0xbbd854b5	-0.0066018947
52	0x3de75fb5	0.112975515
53	0xbdcc7735	-0.099836744
54	0x3c5f9e0f	0.013648524
55	0xbc595b5b	-0.01326641
56	0x3e3c0668	0.18361819
57	0x3da6d8b6	0.08146803
58	0xbdb79009	-0.089630194
59	0x3e0f4ccf	0.13994144
60	0xbe4e782a	-0.20163026
61	0xbd488ae2	-0.048960574
62	0xbc8a0a20	-0.016850531
63	0xbc97e271	-0.018540593
64	0x3e8094db	0.25113568
65	0x3e041e8a	0.12902275
66	0x3caa13e4	0.020761438
67	0x3cbc546c	0.022989474
68	0x3d3c1e78	0.045927495
69	0xbd9ea286	-0.07745843
70	0xbde80988	-0.11329943
71	0xbe75d4c2	-0.24006942
72	0x3d2ff0b9	0.04295418
73	0x3d08a01d	0.03335582
74	0x3e0a4593	0.13503103
75	0x3e5b47f4	0.21414167
76	0x3e0d2ca3	0.13786559
77	0x3e0b8155	0.13623555
78	0x3d8c2205	0.06842426
79	0xbd7b7458	-0.06139025
80	0xbda6fce3	-0.08153703
81	0xbd25a7bc	-0.040443167
82	0x3cfdac69	0.030966
83	0xbd8aa62c	-0.06769976
84	0x3d20e423	0.039280068
85	0xbc2e578a	-0.010640988
86	0xbce126fe	-0.027484413
87	0x3d85b85a	0.06529303
88	0x3dbedfdf	0.09320044
89	0xbd3525b8	-0.044225425
90	0x3c336c99	0.010951185
91	0x3d5b479f	0.0535351
92	0xbe13b8af	-0.1442592
93	0xbe3a1112	-0.18170574
94	0x3d716ccf	0.05894166
95	0xbdc9a284	-0.098454505
96	0x3c1bb4f0	0.009503588
97	0x3e89b8ee	0.26898903
98	0x3e492c08	0.19645703
99	0xbe1e0382	-0.15431026
100	0xbdaaee21	-0.08346201
101	0xbd94edaa	-0.07271893
102	0xbd93f56e	-0.072245464
103	0xbc0336ce	-0.008008672
104	0x3e019410	0.12654138
105	0xbe28b641	-0.16475774
106	0x3e753cb2	0.23948935
107	0x3ea9b643	0.33146867
108	0xbe059be3	-0.13047747
109	0x3d3b3b96	0.045711122
110	0x3e2c1eb3	0.16808586
111	0x3e419d92	0.18907765
112	0x3ef7737e	0.483303
113	0xbe191a77	-0.14951502
114	0xbd99275b	-0.074782096
115	0x39f249eb	0.0004621291
116	0x3d590be9	0.052989874
117	0xbca61c92	-0.020277295
118	0xbc27fa93	-0.010252613
119	0xbe044c05	-0.12919624
120	0x3e964854	0.29352057
121	0x3d11addb	0.035566192
122	0x3da27440	0.07932329
123	0x3e4231bf	0.18964289
124	0xbd2f4ef1	-0.042799894
125	0x3c79f350	0.015255764
126	0x3d55f627	0.052236702
127	0x3cc81478	0.024423823
128	0xbd53d8e0	-0.0517205
129	0xbe65991d	-0.2242169
130	0x3e00ed88	0.12590611
131	0x3dbd6a81	0.0924883
132	0xbe161bb6	-0.14659008
133	0x3e610bb8	0.21977127
134	0x3dd2b9d6	0.10289352
135	0x3aa75bd0	0.0012768451
136	0xbe2dbb61	-0.1696601
137	0xbdb2ac7e	-0.087243065
138	0x3d696cda	0.056988575
139	0x3e63b94c	0.22238654
140	0xbd7f9a41	-0.062402967
141	0xbe0d49e1	-0.13797714
142	0xbd279cf6	-0.040921174
143	0x3e1727be	0.14761254
144	0x3c71a651	0.014749126
145	0xbdd85b35	-0.10564271
146	0xbe0c579e	-0.13705298
147	0xbc0e4986	-0.008684522
148	0x3d989c9e	0.07451747
149	0xbd535e0a	-0.051603355
150	0xbe70979f	-0.23495339
151	0x3e4de77f	0.2010784
152	0x3e18377b	0.14864914
153	0xbd294467	-0.041325

post_mp.layer_post_mp.model.0.Layer_0.post_layer.0.running_var f4 [154]
0	0x3bc1eb5b	0.005917949
1	0x3c13c633	0.009019422
2	0x3c40200b	0.01172639
3	0x3c1e4f8d	0.009662521
4	0x3c00eddd	0.007869211
5	0x3bcf31d4	0.0063230786
6	0x3be6d9cf	0.007045008
7	0x3c4786a5	0.012178098
8	0x3c2ae886	0.0104314145
9	0x3c516ecc	0.012782764
10	0x3bfabb97	0.007651757
11	0x3bd509f0	0.006501429
12	0x3bb211d3	0.0054342537
13	0x3bf400ff	0.007446408
14	0x3c0e4b33	0.008684921
15	0x3beb42d7	0.007179599
16	0x3c1cc21b	0.009567763
17	0x3c1515a5	0.009099399
18	0x3c2c338f	0.010510339
19	0x3c052ee0	0.008128852
20	0x3c068c2f	0.008212133
21	0x3c36bff9	0.011154168
22	0x3be13094	0.006872246
23	0x3c241f94	0.010017294
24	0x3b9d0389	0.004791681
25	0x3c1c3d10	0.009536043
26	0x3c2db885	0.010603075
27	0x3bd9cc52	0.0066466713
28	0x3c10060b	0.008790503
29	0x3bbf1465	0.0058312886
30	0x3c16d28f	0.0092054745
31	0x3bade576	0.005306895
32	0x3c0b4ab1	0.008501695
33	0x3c1f5b71	0.009726391
34	0x3c1dd66f	0.0096336445
35	0x3c257d49	0.010100671
36	0x3bc536ab	0.00601848
37	0x3c3e545c	0.0116167925
38	0x3bf4c026	0.007469195
39	0x3bac26db	0.0052536554
40	0x3c038a72	0.008028613
41	0x3c10ee06	0.008845812
42	0x3c3d0d4b	0.011538814
43	0x3c20d057	0.009815297
44	0x3c28e28b	0.010307918
45	0x3c16db7e	0.009207604
46	0x3b9569e9	0.0045597446
47	0x3c25ccab	0.010119597
48	0x3bf460c7	0.007457826
49	0x3bffed6d	0.007810286
50	0x3bfa2516	0.0076338155
51	0x3c278039	0.010223442
52	0x3bbf12ca	0.0058310973
53	0x3c3af110	0.011410013
54	0x3c15b018	0.009136222
55	0x3c121f08	0.008918531
56	0x3c0f1fec	0.008735638
57	0x3c124794	0.008928198
58	0x3b9bf858	0.0047598295
59	0x3c0c5f65	0.008567666
60	0x3c01584e	0.007894589
61	0x3c2d494e	0.010576559
62	0x3c2a2702	0.010385277
63	0x3c2a8c3e	0.010409413
64	0x3c0df7da	0.008665049
65	0x3bdddcba	0.0067706974
66	0x3be9e962	0.007138417
67	0x3c071ee1	0.008247108
68	0x3bdbe8b5	0.0067110904
69	0x3c092abd	0.008372006
70	0x3bf7704b	0.007551228
71	0x3c2b2188	0.010445006
72	0x3bb9c07b	0.0056686974
73	0x3bb7763b	0.005598811
74	0x3bc5165c	0.0060146283
75	0x3c13fbe5	0.009032224
76	0x3be69b2e	0.007037542
77	0x3c01ba74	0.007917989
78	0x3bd3de0c	0.006465679
79	0x3c0f927a	0.00876295
80	0x3bd3515a	0.006448907
81	0x3bbe94b2	0.0058160657
82	0x3bba0a36	0.005677487
83	0x3bed2fe9	0.0072383774
84	0x3c0f748f	0.008755817
85	0x3c460642	0.012086453
86	0x3bdb804c	0.006698644
87	0x3bd9f2b6	0.006651248
88	0x3c2069ad	0.00979082
89	0x3bdbcdaf	0.006707869
90	0x3bfaa9a6	0.007649618
91	0x3c3cdd1f	0.011527329
92	0x3c0aeee4	0.0084798075
93	0x3c344ea6	0.011005079
94	0x3bc45fb9	0.0059928563
95	0x3c053bda	0.0081319455
96	0x3bd111b9	0.0063802865
97	0x3bd9137b	0.0066246367
98	0x3bcfc944	0.0063411314
99	0x3bdbbf70	0.0067061707
100	0x3bb4b516	0.005514751
101	0x3c2be9de	0.01049277
102	0x3bf21883	0.007388176
103	0x3bdbf0bf	0.006712049
104	0x3c02a4e4	0.007973883
105	0x3bdd4c49	0.0067534787
106	0x3baf91de	0.005357965
107	0x3c327444	0.010891978
108	0x3be106cc	0.0068672653
109	0x3bf0cd1c	0.0073486697
110	0x3c01a027	0.007911718
111	0x3c5289f7	0.012850276
112	0x3c1db783	0.009626272
113	0x3ba55657	0.005045693
114	0x3c2f584f	0.010702207
115	0x3b80af01	0.003927112
116	0x3c096acf	0.008387282
117	0x3bc9e843	0.006161721
118	0x3c2d28af	0.010568782
119	0x3c34946a	0.011021713
120	0x3c1da2ba	0.009621317
121	0x3c01cf8f	0.007923021
122	0x3becab33	0.007222557
123	0x3bc872d5	0.0061172047
124	0x3bf1e385	0.007381859
125	0x3c033272	0.008007633
126	0x3be260ba	0.0069085034
127	0x3c108123	0.008819851
128	0x3c0b9ab0	0.008520767
129	0x3bf3339e	0.0074219247
130	0x3bf9d995	0.0076248148
131	0x3bf5cacc	0.007500982
132	0x3c14b6d2	0.009076791
133	0x3bd690f2	0.0065480405
134	0x3c07086f	0.008241757
135	0x3bff7e25	0.00779702
136	0x3c2d8760	0.010591358
137	0x3bcfd670	0.0063427016
138	0x3be40b64	0.0069593657
139	0x3c002dbd	0.007823405
140	0x3c07514f	0.008259132
141	0x3bcc68fe	0.006238102
142	0x3c238ba5	0.009982024
143	0x3c07c73a	0.008287245
144	0x3c217a01	0.009855748
145	0x3bedace2	0.0072532753
146	0x3baa0983	0.005189122
147	0x3bd65b93	0.006541678
148	0x3c0ad3e0	0.0084733665
149	0x3c14486f	0.009050473
150	0x3be2d878	0.0069227777
151	0x3bae9c1d	0.0053286687
152	0x3c1513f6	0.009098997
153	0x3c1a3e3a	0.00941425

post_mp.layer_post_mp.model.1.model.weight f4 [28, 154]
0	0xbc601d2b	-0.013678829
1	0xbc9a8389	-0.018861549
2	0xbcb24863	-0.021763032
3	0xbc86f14f	-0.016472487
4	0xbc6ed535	-0.0145772
5	0xbc8e0c7a	-0.017339934
6	0xbc8fa245	-0.01753343
7	0xbc96c5a5	-0.018404791
8	0xbc7f5e9b	-0.015586521
9	0xbc9f22e1	-0.019425811
10	0xbc79974b	-0.015233825
11	0xbc69ca66	-0.014269447
12	0xbc45e735	-0.01207905
13	0xbc76dc05	-0.015067105
14	0xbc858739	-0.01629983
15	0xbc88e726	-0.016711783
16	0xbc62a296	-0.013832709
17	0xbc973335	-0.018457035
18	0xbc91f728	-0.017818049
19	0xbc85919b	-0.016304782
20	0xbc8973de	-0.016778883
21	0xbc88876f	-0.016666142
22	0xbc87febc	-0.016600959
23	0xbc909459	-0.017648863
24	0xbc471b00	-0.012152433
25	0xbc96e9d8	-0.018422052
26	0xbca16a89	-0.01970412
27	0xbc60c5f9	-0.013719075
28	0xbc7f606e	-0.0155869555
29	0xbc9efbba	-0.019407142
30	0xbc763452	-0.015027123
31	0xbc58ed91	-0.013240234
32	0xbc785333	-0.015156555
33	0xbc9a022e	-0.018799867
34	0xbc85c818	-0.016330764
35	0xbc903e82	-0.017607931
36	0xbc908ba3	-0.017644709
37	0xbc91ade6	-0.017783117
38	0xbc96a49b	-0.018389037
39	0xbc585f96	-0.013206383
40	0xbc8c6b95	-0.017141143
41	0xbc93ed7a	-0.018057574
42	0xbc91d5e2	-0.017802183
43	0xbc8805a6	-0.016604256
44	0xbc93c347	-0.018037451
45	0xbc63a6df	-0.013894766
46	0xbc614113	-0.013748425
47	0xbc8c007c	-0.017090075
48	0xbc8f0cbb	-0.017462125
49	0xbc8309b2	-0.015995834
50	0xbc90980a	-0.017650623
51	0xbc9fedb3	-0.019522524
52	0xbc86be7d	-0.016448254
53	0xbc8a1181	-0.01685405
54	0xbc956686	-0.018237364
55	0xbc8df8a5	-0.017330477
56	0xbc7a3792	-0.015272038
57	0xbcad1d66	-0.021132182
58	0xbc435fa5	-0.011924659
59	0xbca6e151	-0.020371111
60	0xbc6c5e23	-0.014426741
61	0xbc9fb531	-0.019495578
62	0xbc850f09	-0.01624252
63	0xbc8bd77b	-0.017070523
64	0xbc864974	-0.016392447
65	0xbc54f582	-0.012997987
66	0xbc8d2735	-0.01723061
67	0xbc7edc2b	-0.015555422
68	0xbc7c3134	-0.01539259
69	0xbc7999cd	-0.015234423
70	0xbc89777b	-0.016780606
71	0xbc8b0c5c	-0.016973667
72	0xbc634e66	-0.013873672
73	0xbc5597e0	-0.013036698
74	0xbc9b0ea0	-0.018927872
75	0xbca9619e	-0.02067643
76	0xbc808498	-0.015688226
77	0xbc6f83d8	-0.014618836
78	0xbc4c6398	-0.012474917
79	0xbcb44ba5	-0.022008726
80	0xbc6fda8e	-0.01463951
81	0xbc47cfc6	-0.012195533
82	0xbc632338	-0.013863377
83	0xbca0f37f	-0.019647358
84	0xbc8fc734	-0.017551042
85	0xbc9a3987	-0.01882626
86	0xbc80dfc6	-0.015731703
87	0xbc88323e	-0.01662552
88	0xbc8f4a7d	-0.017491573
89	0xbc8bf908	-0.01708652
90	0xbc802d1b	-0.015646508
91	0xbc98fd09	-0.018675344
92	0xbc82553a	-0.01590978
93	0xbca4e829	-0.020130234
94	0xbc8cde40	-0.01719582
95	0xbc7b78be	-0.015348611
96	0xbc68da40	-0.014212191
97	0xbc610fe6	-0.013736701
98	0xbc674e7a	-0.014117831
99	0xbc86fa50	-0.01647678
100	0xbc5c8477	-0.013459316
101	0xbc8e0d0e	-0.01734021
102	0xbc772ca6	-0.015086329
103	0xbc8f2c3b	-0.017477145
104	0xbc8b683b	-0.017017474
105	0xbc84ec12	-0.016225848
106	0xbc5e378d	-0.013563049
107	0xbca8f080	-0.020622492
108	0xbc84629f	-0.016160307
109	0xbc6d547a	-0.014485473
110	0xbc8891d1	-0.016671093
111	0xbcae613e	-0.021286603
112	0xbc7db9d5	-0.0154862
113	0xbc7b6b5b	-0.01534542
114	0xbc9caf83	-0.01912666
115	0xbc4a8ef4	-0.012363184
116	0xbc89f502	-0.016840462
117	0xbc81877a	-0.01581167
118	0xbc86b1ec	-0.016442262
119	0xbcccb8d3	-0.024990475
120	0xbcaa5171	-0.020790787
121	0xbc75b8df	-0.01499769
122	0xbc75f88a	-0.01501287
123	0xbca0824f	-0.019593386
124	0xbc888f7e	-0.016669985
125	0xbc73ac58	-0.014872633
126	0xbc936f76	-0.017997485
127	0xbc91ee89	-0.017813938
128	0xbc8f9dac	-0.017531238
129	0xbc82dff0	-0.015975922
130	0xbc6e89c1	-0.01455921
131	0xbc7e9dd9	-0.0155405635
132	0xbc6ec315	-0.014572878
133	0xbc910b64	-0.017705627
134	0xbc833695	-0.016017238
135	0xbc73e2b4	-0.014885593
136	0xbc8bdbd6	-0.0170726
137	0xbc81a602	-0.015826229
138	0xbc62778c	-0.0138224475
139	0xbc8705bb	-0.016482225
140	0xbc7c169b	-0.015386249
141	0xbc68167a	-0.014165515
142	0xbc9b4056	-0.018951576
143	0xbcabbb3c	-0.020963304
144	0xbc7c8c0b	-0.015414248
145	0xbc84617d	-0.016159767
146	0xbc4c2d64	-0.012461994
147	0xbc666d2d	-0.0140641155
148	0xbc8e075e	-0.017337497
149	0xbca9281d	-0.02064901
150	0xbc73e60f	-0.014886393
151	0xbc55a3aa	-0.013039509
152	0xbc8f7c3c	-0.017515294
153	0xbc80fef5	-0.015746573
154	0xbe3eca93	-0.18631963
155	0x3e75919b	0.23981325
156	0xbdc37f4e	-0.09545766
157	0xbec5177a	-0.38494474
158	0x3f01b27c	0.5066297
159	0x3e936d7e	0.28794473
160	0xbdbcbf26	-0.09216146
161	0x3ed9f69c	0.4257096
162	0xbe922b14	-0.2854849
163	0xbd65bc3e	-0.056087725
164	0x3eb79d01	0.35861972
165	0x3d8e4c6e	0.069481716
166	0xbee4ee8a	-0.4471324
167	0xbdafdb59	-0.08586759
168	0xbdb6ad38	-0.089197576
169	0xbee7cb3f	-0.45272252
170	0xbdde7cd2	-0.10863651
171	0xbe70f30b	-0.23530214
172	0x3f2b404c	0.66894984
173	0xbe9762b9	-0.29567507
174	0xbec31792	-0.3810392
175	0xbf095b2d	-0.5365475
176	0x3f2bbd04	0.6708529
177	0xbd5fae59	-0.05460963
178	0xbe60a45a	-0.21937695
179	0xbe14ca56	-0.1453031
180	0xbe971a2a	-0.2951215
181	0xbe9f67ae	-0.3113379
182	0xbef1623d	-0.47145262
183	0x3eb31641	0.34977916
184	0x3e0da017	0.138306
185	0xbe9ecd3d	-0.3101596
186	0xbe80bbb6	-0.25143212
187	0x3f30e3db	0.6909768
188	0xbe0788c9	-0.13235773
189	0xbeee182e	-0.46502823
190	0x3e093378	0.1339854
191	0xbdca3533	-0.09873428
192	0xbe383d9d	-0.17992254
193	0x3d0a3b87	0.033748176
194	0x3e08a6d2	0.13344887
195	0x3e2a44b6	0.16627774
196	0x3e82a58f	0.25516936
197	0x3ea25f4c	0.3171333
198	0xbdbdb451	-0.09262908
199	0x3d0ea189	0.03482202
200	0xbe8dbc86	-0.27682894
201	0xbd8cd2d9	-0.068761535
202	0x3f301710	0.6878519
203	0x3f249c9c	0.64301467
204	0xbd875601	-0.06608201
205	0xbeca19c7	-0.39472792
206	0x3efb410a	0.49073058
207	0x3cc3f60e	0.023921039
208	0xbe53ee7d	-0.20696445
209	0x3e67671a	0.22597924
210	0xbea5b40a	-0.3236392
211	0x3f13f0cc	0.577893
212	0x3ced2cfe	0.028952118
213	0x3e23abef	0.15983556
214	0x3e989832	0.29803616
215	0xbea3578a	-0.31902725
216	0xbe068896	-0.13138041
217	0xbf01cfff	-0.50708
218	0x3efd9a4d	0.49531785
219	0x3e40fabb	0.18845646
220	0xbdfacff2	-0.12246694
221	0x3e06570f	0.13119148
222	0xbd871f0a	-0.06597717
223	0xbe23ca39	-0.1599511
224	0x3e9269e2	0.28596407
225	0xbdeed675	-0.11661998
226	0x3eff1592	0.49821144
227	0x3e893108	0.2679522
228	0xbe2a3e06	-0.16625223
229	0xbe162683	-0.14663129
230	0xbf056400	-0.5210571
231	0x3c35cb52	0.011095839
232	0xbedd41e7	-0.43214342
233	0x3d27ffa7	0.041015293
234	0x3e844bdb	0.25839123
235	0x3e4483dc	0.19190925
236	0xbea7e52d	-0.32792035
237	0xbf0ef649	-0.5584455
238	0xbda3bba9	-0.07994778
239	0xbed34f71	-0.41271546
240	0xbe847152	-0.25867707
241	0xbec37b51	-0.3818002
242	0xbd7904b7	-0.060795512
243	0x3edbac2c	0.42904794
244	0xbc74023c	-0.014893111
245	0x3f07e436	0.530826
246	0x3f2c1aea	0.6722857
247	0xbe47d537	-0.19514929
248	0x3c883145	0.016625056
249	0x3e2e79f1	0.17038704
250	0xbe721aca	-0.23643032
251	0xbe053df2	-0.13011912
252	0x3ed7c324	0.42141068
253	0x3ec92c12	0.39291435
254	0x3f0bd300	0.54618835
255	0xbf215baf	-0.63030523

post_mp.layer_post_mp.model.1.model.bias f4 [28]
0	0xbca6ea2f	-0.02037534
1	0xbd1b5c46	-0.037929796
2	0xbd96e8b1	-0.07368601
3	0x3e1c7ec6	0.15282735
4	0x3d4b98a6	0.049706124
5	0x3d3566e3	0.044287574
6	0xbd965ebb	-0.07342287
7	0xbdc29f2b	-0.09503015
8	0x3d669ded	0.056302954
9	0xbcba47e5	-0.02273936
10	0xbca6ea2f	-0.02037534
11	0xbca6ea2f	-0.02037534
12	0x3c2aafd7	0.0104179
13	0xbca6ea30	-0.020375341
14	0x3cc1a838	0.023639783
15	0x3e0dc74e	0.1384556
16	0xbd2f459f	-0.042791005
17	0xbc92996c	-0.017895423
18	0x3aa96ab3	0.0012925476
19	0xbca6ea2e	-0.020375337
20	0xbcf345ba	-0.029696334
21	0xbc992b50	-0.01869741
22	0x3e0ee847	0.13955794
23	0x3d8483c7	0.06470447
24	0xbd0c4cec	-0.034253046
25	0x3c6ea792	0.014566319
26	0xbc96ec14	-0.018423118
27	0xbd35da17	-0.04439744
