predict_omitted/ctrl_embeddings_1_iter/2/ckpt/999.ckpt (torch_old, 352682 bytes, 25 tensors)

mp.layer0.post_layer.0.weight f4 [154]
-0.004868756 0.74855584 0.6498559 0.8418677 -2.872944e-20 1.3272231e-15 0.4275646 0.0039221025
0.5549018 0.497024 0.8288403 -6.174532e-19 0.6777957 0.87779933 0.4304569 -0.012082681
0.52133983 0.75974023 -0.0066208984 8.027332e-23 5.566306e-16 0.80478305 9.2411705e-05 0.8632818
-0.002292174 0.5592307 -2.2719417e-12 0.50238806 0.7097325 0.570179 0.16292685 0.68222076
-0.0016713705 0.61562914 0.00107011 1.4229935 0.7117041 -0.022223687 0.88595074 0.1749941
0.7107506 1.9198586 0.47977093 -0.0073954174 -0.005834565 0.38456184 0.7538483 0.45435637
-0.0008973469 0.41058376 0.0007103792 0.7424182 0.5990333 -0.0011685201 0.52068853 -0.013133031
0.4603883 -0.0015119083 -0.0016159748 -0.0149235595 0.000495104 0.5517974 0.79288507 0.0039429874
5.468267e-19 8.4647764e-27 0.58978695 0.7803088 0.6435287 -0.022614365 0.82560104 9.915561e-16
-0.010053442 -0.026792461 -0.0069610467 -0.0050735837 0.19292538 0.002396186 -0.0002725668 -7.967592e-09
3.702809e-26 0.9569821 0.00015380057 0.79162526 0.0008255721 0.84908277 1.7261991e-25 -0.0017694829
-0.0010272553 -0.0033232276 0.82096577 0.35637242 -0.011709132 0.0020385378 -1.926445e-22 -4.839986e-06
0.9227659 0.8242508 -0.0021915645 -0.016798053 0.4226598 8.3601615e-12 -0.0007138558 -0.002505998
0.0012578081 0.82734174 -0.007310223 0.0011650298 -9.881177e-05 -5.5914683e-12 -3.7668127e-13 0.9343863
0.8235724 -3.6762835e-06 -0.0016896394 0.6704993 6.4106614e-20 -0.014057194 -0.00046620436 -0.0006953136
-0.025604295 -0.0047073816 0.0019333761 -0.0152204055 2.7108536 1.5864995 1.015359 0.86172837
0.010666261 -0.013884906 0.31994662 -0.006417318 -0.00040056094 -0.00030184787 -0.0019211463 0.00013862796
-0.0022874274 1.0057596 1.1293997 1.0317299 1.1337687 1.1429145 0.88629055 0.7022797
1.0382569 0.5729099 -2.361e-42 0.7591895 -0.0020844205 -0.00080055225 1.1087703 0.51166624
0.0038342222 1.0639335
00000000: 168a 9fbb 5ba1 3f3f f55c 263f a484 573f
00000010: c3ab 079f e445 bf26 bfe9 da3e fb84 803b
00000020: 0b0e 0e3f ee79 fe3e e12e 543f 723d 36a1
00000030: 0584 2d3f 75b7 603f d964 dc3e 70f6 45bc
00000040: 8776 053f 567e 423f 1ff4 d8bb c716 c21a
00000050: 1770 2026 4306 4e3f 28cd c138 0900 5d3f
00000060: 4c38 16bb be29 0f3f aadf 1fac 819c 003f
00000070: 07b1 353f 40f7 113f 4cd6 263e 05a6 2e3f
00000080: e311 dbba df99 1d3f ef42 8c3a a724 b63f
00000090: 3d32 363f 730e b6bc abcd 623f a731 333e
000000a0: c0f3 353f edbd f53f 89a4 f53e 4255 f2bb
000000b0: e12f bfbb 4ae5 c43e 34fc 403f 66a1 e83e
000000c0: ee3b 6bba 0938 d23e be38 3a3a 1f0f 3e3f
000000d0: 3f5a 193f 0729 99ba d84b 053f ed2b 57bc
000000e0: 04b8 eb3e 392b c6ba 1ecf d3ba f281 74bc
000000f0: dec9 013a 9842 0d3f 84fa 4a3f 2d34 813b
00000100: 0f65 2121 84a9 2714 47fc 163f 51c2 473f
00000110: 4cbe 243f c341 b9bc 975a 533f f7e5 8e26
00000120: 31b7 24bc dd7b dbbc 7e19 e4bb 4e40 a6bb
00000130: 3b8e 453e 5509 1d3b 4ce7 8eb9 d7e1 08b2
00000140: ae5a 3715 c7fc 743f 8745 2139 f4a7 4a3f
00000150: 356b 583a 7d5d 593f 6fb1 5516 feed e7ba
00000160: f8a4 86ba 82ca 59bb d02a 523f 7276 b63e
00000170: a9d7 3fbc fd98 053b 96e4 689b 2a67 a2b6
00000180: 633a 6c3f 1a02 533f 5aa0 0fbb 129c 89bc
00000190: de66 d83e d212 132d 0d22 3bba ab3b 24bb
000001a0: 09dd a43a abcc 533f 988a efbb eab3 983a
000001b0: 2a39 cfb8 78bb c4ac 7e0d d4aa f133 6f3f
000001c0: a4d5 523f 12b6 76b6 e476 ddba d8a5 2b3f
000001d0: 125e 971f 2550 66bc e46c f4b9 b545 36ba
000001e0: 19c0 d1bc 6140 9abb 5669 fd3a 025f 79bc
000001f0: a07e 2d40 6a12 cb3f 49f7 813f 3b9a 5c3f
00000200: 8bc1 2e3c 847d 63bc 0bd0 a33e 5d48 d2bb
00000210: 6102 d2b9 5641 9eb9 f9ce fbba a95c 1139
00000220: aae8 15bb bbbc 803f 2b90 903f ba0f 843f
00000230: 551f 913f 064b 923f f0e3 623f 9ac8 333f
00000240: 9ae5 843f 39aa 123f 9506 0080 3e5a 423f
00000250: c69a 08bb 27dc 51ba 2fec 8d3f 8ffc 023f
00000260: 9347 7b3b f92e 883f

mp.layer0.post_layer.0.bias f4 [154]
0.0076842955 0.05730062 0.26195034 0.9613223 3.7461262e-10 1.8216982e-05 -0.46555617 -0.0063456427
1.1087666 -0.23109846 0.44016957 6.834864e-09 0.07836626 0.7491654 -0.69355494 0.014677798
-0.47736084 0.88484186 0.021479594 1.8468288e-19 1.3974637e-12 0.5352069 0.00034057358 0.19234248
0.0089500025 -0.05627898 -1.5886797e-09 -0.6935756 0.63538533 0.12872088 -0.21960434 0.008274561
0.0051687984 0.36564988 0.00067742186 -0.9265312 0.007988925 0.016698634 0.5805765 0.23750715
0.58459455 0.7467061 0.08549987 0.008092029 0.013531416 -0.228818 0.3601789 0.2688198
0.0049884063 -0.8387469 0.0022181864 0.67709494 -0.187859 0.010018237 -0.59279126 -0.0014411631
0.7928185 0.001959209 0.0064895526 0.010485708 0.0032618516 -0.048902843 0.5490575 -0.0034274545
5.8975774e-10 4.8596923e-18 -0.15902396 0.6587851 0.44557709 0.008989084 0.25086245 2.980598e-07
0.009068003 0.018213738 0.007828258 0.0059337886 -0.14749031 0.01191204 0.0027485476 0.0023095447
9.172928e-21 0.5905089 0.00094320235 0.39742446 0.008255056 0.014206893 3.0800923e-20 0.0013541318
0.0024305384 0.0044170734 0.5562047 -0.05287872 0.0021972824 0.009042305 3.4217966e-18 0.016781233
0.75821334 -0.06351536 0.010041546 0.0025540737 0.14976883 1.7579355e-08 0.0028556818 0.012240421
0.006469844 0.5495797 -0.002060662 0.0041134576 0.0004163279 -3.2546155e-10 9.8148774e-11 0.90008783
-0.073742986 0.0008903862 0.009068084 0.26921853 4.201838e-18 0.0032706691 0.0018296066 0.00299489
-0.00035957145 -0.00065605657 0.005233455 0.001079357 0.5732797 0.26276702 0.1808805 0.7566159
0.014106449 0.0013296828 -0.65897536 0.0017569673 0.001284297 0.0006785909 0.0031568655 0.00095179956
0.005527882 1.3704071 0.33008566 0.58636844 -0.20319656 0.08781392 0.42362508 -0.23865214
0.55500484 0.050453175 2.654791e-16 0.087578416 0.0002902197 0.004554454 0.6029613 -0.100634694
-0.0036454448 0.8908846
00000000: 8bcc fb3b 0eb4 6a3d 5b1e 863e 3819 763f
00000010: 0af2 cd2f acd0 9837 615d eebe 1cef cfbb
00000020: 10ec 8d3f 13a5 6cbe e85d e13e 19d8 ea31
00000030: 7d7e a03d 4ec9 3f3f d18c 31bf 267b 703c
00000040: a468 f4be ff84 623f f9f5 af3c fa08 5a20
00000050: f0ac c42b 5203 093f 038f b239 6df5 443e
00000060: 08a3 123c ca84 66bd b358 dab0 2c8e 31bf
00000070: 9da8 223f 68cf 033e f6df 60be 0692 073c
00000080: 065f a93b 7636 bb3e 0395 313a 2631 6dbf
00000090: fbe3 023c 93cb 883c a9a0 143f 1335 733e
000000a0: fda7 153f 2228 3f3f 8e1a af3d 6e94 043c
000000b0: dfb2 5d3c 444f 6abe 5e69 b83e c0a2 893e
000000c0: c975 a33b 1eb8 56bf fe5e 113b 1856 2d3f
000000d0: 1c5e 40be 8823 243c 2bc1 17bf 69e5 bcba
000000e0: 27f6 4a3f 1366 003b 50a6 d43b 3fcc 2b3c
000000f0: cac4 553b 594e 48bd 088f 0c3f 259f 60bb
00000100: 831c 2230 7f4a b322 2dd7 22be 24a6 283f
00000110: ae22 e43e f346 133c 0b71 803e 0705 a034
00000120: f691 143c fa34 953c 1842 003c 3a70 c23b
00000130: b307 17be b82a 433c fa20 343b bb5b 173b
00000140: 8f45 2d1e 972b 173f 3d41 773a 387b cb3e
00000150: 3740 073c 07c4 683c 0874 111f 207d b13a
00000160: ab49 1f3b 19bd 903b 6e63 0e3f 5b97 58bd
00000170: 4800 103b 2d26 143c e97b 7c22 cc78 893c
00000180: 451a 423f 5714 82bd 4c85 243c 3f62 273b
00000190: 005d 193e 6901 9732 6426 3b3b 0c8c 483c
000001a0: fc00 d43b 41b1 0c3f 2c0c 07bb 2fca 863b
000001b0: 9646 da39 a4ec b2af d9d4 d72e 286c 663f
000001c0: 9006 97bd ce68 693a 4d92 143c 03d7 893e
000001d0: 3d05 9b22 b958 563b 69cf ef3a eb45 443b
000001e0: dd84 bcb9 36fb 2bba 677d ab3b 3679 8d3a
000001f0: 75c2 123f 6689 863e bd38 393e 94b1 413f
00000200: bc1e 673c c048 ae3a 9cb2 28bf 0a4a e63a
00000210: db55 a83a 77e3 313a 6ae3 4e3b 3082 793a
00000220: 3c23 b53b 8069 af3f fd00 a93e 3e1c 163f
00000230: c212 50be c9d7 b33d 63e5 d83e 3a61 74be
00000240: cc14 0e3f fda7 4e3d cd09 9925 505c b33d
00000250: a128 9839 873d 953b ac5b 1a3f 9019 cebd
00000260: 6ae8 6ebb 0311 643f

mp.layer0.post_layer.0.running_mean f4 [154]
3.5564466 3.5564466 14.417103 14.417103 6.757096e-15 6.757096e-15 2.9307492 2.9307492
3.5564466 14.417103 2.9307492 6.757096e-15 6.169706 6.169706 6.169706 4.556234
4.556234 25.583096 25.583096 1.1676753e-08 1.1676753e-08 3.2536826 3.2536826 4.556234
25.583096 3.2536826 1.1676753e-08 20.898031 20.898031 20.898031 7.1287556 7.1287556
50.89984 50.89984 5.1340692e-05 5.1340692e-05 3.9963748 3.9963748 7.1287556 50.89984
3.9963748 5.1340692e-05 117.47706 117.47706 117.47706 9.231379 9.231379 74.36636
74.36636 0.0040000053 0.0040000053 3.9053218 3.9053218 9.231379 74.36636 3.9053218
0.0040000053 158.93379 158.93379 158.93379 6.8307896 6.8307896 50.10938 50.10938
4.1825016e-14 4.1825016e-14 3.8903174 3.8903174 6.8307896 50.10938 3.8903174 4.1825016e-14
115.642494 115.642494 115.642494 10.563883 10.563883 98.53983 98.53983 8.055889e-12
8.055889e-12 4.2004857 4.2004857 10.563883 98.53983 4.2004857 8.055889e-12 152.36513
152.36513 152.36513 16.513948 16.513948 149.29298 149.29298 2.1743267e-08 2.1743267e-08
4.7023873 4.7023873 16.513948 149.29298 4.7023873 2.1743267e-08 167.9189 167.9189
167.9189 24.820772 24.820772 141.12473 141.12473 1.5410988e-06 1.5410988e-06 4.684755
4.684755 24.820772 141.12473 4.684755 1.5410988e-06 174.79514 174.79514 174.79514
29.447886 29.447886 123.150955 123.150955 4.251274e-05 4.251274e-05 4.525731 4.525731
29.447886 123.150955 4.525731 4.251274e-05 176.47949 176.47949 176.47949 178.07481
380.97357 1.872993 0.66917586 0.8115504 0.9177704 1.0131766 25.705723 23.76462
14.070951 0.0001327227 0.0 0.0005686488 0.99929863 396.37653 40.313663 1069.7714
149922.86 2.2279618
00000000: d29c 6340 d29c 6340 74ac 6641 74ac 6641
00000010: 3673 f327 3673 f327 6591 3b40 6591 3b40
00000020: d29c 6340 74ac 6641 6591 3b40 3673 f327
00000030: 3b6e c540 3b6e c540 3b6e c540 abcc 9140
00000040: abcc 9140 2eaa cc41 2eaa cc41 e79a 4832
00000050: e79a 4832 563c 5040 563c 5040 abcc 9140
00000060: 2eaa cc41 563c 5040 e79a 4832 2b2f a741
00000070: 2b2f a741 2b2f a741 c41e e440 c41e e440
00000080: 7099 4b42 7099 4b42 a656 5738 a656 5738
00000090: 9bc4 7f40 9bc4 7f40 c41e e440 7099 4b42
000000a0: 9bc4 7f40 a656 5738 41f4 ea42 41f4 ea42
000000b0: 41f4 ea42 bab3 1341 bab3 1341 94bb 9442
000000c0: 94bb 9442 7a12 833b 7a12 833b cbf0 7940
000000d0: cbf0 7940 bab3 1341 94bb 9442 cbf0 7940
000000e0: 7a12 833b 0def 1e43 0def 1e43 0def 1e43
000000f0: d495 da40 d495 da40 0170 4842 0170 4842
00000100: f65c 3c29 f65c 3c29 f6fa 7840 f6fa 7840
00000110: d495 da40 0170 4842 f6fa 7840 f65c 3c29
00000120: f548 e742 f548 e742 f548 e742 aa05 2941
00000130: aa05 2941 6514 c542 6514 c542 80b8 0d2d
00000140: 80b8 0d2d 616a 8640 616a 8640 aa05 2941
00000150: 6514 c542 616a 8640 80b8 0d2d 795d 1843
00000160: 795d 1843 795d 1843 911c 8441 911c 8441
00000170: 014b 1543 014b 1543 f3c5 ba32 f3c5 ba32
00000180: f579 9640 f579 9640 911c 8441 014b 1543
00000190: f579 9640 f3c5 ba32 3deb 2743 3deb 2743
000001a0: 3deb 2743 f190 c641 f190 c641 ee1f 0d43
000001b0: ee1f 0d43 c0d7 ce35 c0d7 ce35 83e9 9540
000001c0: 83e9 9540 f190 c641 ee1f 0d43 83e9 9540
000001d0: c0d7 ce35 8ecb 2e43 8ecb 2e43 8ecb 2e43
000001e0: 4595 eb41 4595 eb41 4a4d f642 4a4d f642
000001f0: b54f 3238 b54f 3238 cad2 9040 cad2 9040
00000200: 4595 eb41 4a4d f642 cad2 9040 b54f 3238
00000210: c07a 3043 c07a 3043 c07a 3043 2713 3243
00000220: 9e7c be43 3cbe ef3f 1c4f 2b3f c4c1 4f3f
00000230: 00f3 6a3f c5af 813f 52a5 cd41 f11d be41
00000240: 9e22 6141 7a2b 0b39 0000 0000 6011 153a
00000250: 09d2 7f3f 3230 c643 3141 2142 afb8 8544
00000260: b768 1248 ed96 0e40

mp.layer0.post_layer.0.running_var f4 [154]
3.1140635 3.1140635 2.3357987 2.3357987 4.9918622e-26 4.9918622e-26 2.4549668 2.4549668
3.1140635 2.3357987 2.4549668 4.9918622e-26 2.7980754 2.7980754 2.7980754 3.623213
3.623213 16.165533 16.165533 2.2063877e-13 2.2063877e-13 2.8205223 2.8205223 3.623213
16.165533 2.8205223 2.2063877e-13 104.412964 104.412964 104.412964 12.471593 12.471593
218.86647 218.86647 6.47142e-07 6.47142e-07 8.65332 8.65332 12.471593 218.86647
8.65332 6.47142e-07 13201.819 13201.819 13201.819 14.73358 14.73358 960.45197
960.45197 0.0011828574 0.0011828574 7.9796495 7.9796495 14.73358 960.45197 7.9796495
0.0011828574 23480.635 23480.635 23480.635 32.02531 32.02531 1370.8457 1370.8457
2.0702069e-24 2.0702069e-24 21.64576 21.64576 32.02531 1370.8457 21.64576 2.0702069e-24
26421.217 26421.217 26421.217 53.81134 53.81134 6648.117 6648.117 4.0107752e-19
4.0107752e-19 14.477408 14.477408 53.81134 6648.117 14.477408 4.0107752e-19 25506.328
25506.328 25506.328 132.64656 132.64656 16429.248 16429.248 4.1066315e-13 4.1066315e-13
14.576044 14.576044 132.64656 16429.248 14.576044 4.1066315e-13 24285.352 24285.352
24285.352 360.98093 360.98093 14988.294 14988.294 5.4147026e-10 5.4147026e-10 7.680673
7.680673 360.98093 14988.294 7.680673 5.4147026e-10 23769.855 23769.855 23769.855
526.9711 526.9711 11438.426 11438.426 6.3617485e-08 6.3617485e-08 6.3717017 6.3717017
526.9711 11438.426 6.3717017 6.3617485e-08 23601.707 23601.707 23601.707 23500.287
93147.0 1.4645107 0.10285719 0.16099383 0.22365604 0.30547416 384.02243 359.77637
54.60005 0.00013248224 6e-45 0.00056670996 0.00069853675 95213.836 464.14133 1.7225362e+06
6.8554805e+10 0.5533594
00000000: d14c 4740 d14c 4740 ba7d 1540 ba7d 1540
00000010: 5f2f 7715 5f2f 7715 2d1e 1d40 2d1e 1d40
00000020: d14c 4740 ba7d 1540 2d1e 1d40 5f2f 7715
00000030: ab13 3340 ab13 3340 ab13 3340 b9e2 6740
00000040: b9e2 6740 0353 8141 0353 8141 cc6a 782a
00000050: cc6a 782a 7083 3440 7083 3440 b9e2 6740
00000060: 0353 8141 7083 3440 cc6a 782a 70d3 d042
00000070: 70d3 d042 70d3 d042 a58b 4741 a58b 4741
00000080: d1dd 5a43 d1dd 5a43 42b7 2d35 42b7 2d35
00000090: 0074 0a41 0074 0a41 a58b 4741 d1dd 5a43
000000a0: 0074 0a41 42b7 2d35 4747 4e46 4747 4e46
000000b0: 4747 4e46 bebc 6b41 bebc 6b41 ed1c 7044
000000c0: ed1c 7044 1c0a 9b3a 1c0a 9b3a 4a59 ff40
000000d0: 4a59 ff40 bebc 6b41 ed1c 7044 4a59 ff40
000000e0: 1c0a 9b3a 4571 b746 4571 b746 4571 b746
000000f0: eb19 0042 eb19 0042 105b ab44 105b ab44
00000100: ac2c 2018 ac2c 2018 842a ad41 842a ad41
00000110: eb19 0042 105b ab44 842a ad41 ac2c 2018
00000120: 6f6a ce46 6f6a ce46 6f6a ce46 d03e 5742
00000130: d03e 5742 f0c0 cf45 f0c0 cf45 1fc1 ec20
00000140: 1fc1 ec20 77a3 6741 77a3 6741 d03e 5742
00000150: f0c0 cf45 77a3 6741 1fc1 ec20 a844 c746
00000160: a844 c746 a844 c746 85a5 0443 85a5 0443
00000170: 7f5a 8046 7f5a 8046 cc2e e72a cc2e e72a
00000180: 7a37 6941 7a37 6941 85a5 0443 7f5a 8046
00000190: 7a37 6941 cc2e e72a b4ba bd46 b4ba bd46
000001a0: b4ba bd46 8f7d b443 8f7d b443 2d31 6a46
000001b0: 2d31 6a46 95d6 1430 95d6 1430 13c8 f540
000001c0: 13c8 f540 8f7d b443 2d31 6a46 13c8 f540
000001d0: 95d6 1430 b6b3 b946 b6b3 b946 b6b3 b946
000001e0: 27be 0344 27be 0344 b4b9 3246 b4b9 3246
000001f0: 159e 8833 159e 8833 fbe4 cb40 fbe4 cb40
00000200: 27be 0344 b4b9 3246 fbe4 cb40 159e 8833
00000210: 6a63 b846 6a63 b846 6a63 b846 9398 b746
00000220: 80ed b547 1675 bb3f caa6 d23d 91db 243e
00000230: 1706 653e 1c67 9c3e df02 c043 60e3 b343
00000240: 7466 5a42 eeea 0a39 0400 0000 438f 143a
00000250: 021e 373a ebf6 b947 1712 e843 4245 d249
00000260: f562 7f51 f6a8 0d3f

post_mp.layer_post_mp.model.0.Layer_0.layer.model.weight f4 [154, 154]
0.0027108348 -0.07529394 0.11938969 -0.071555674 -9.932417e-12 -7.2864386e-06 -0.2220197 -0.0050136806
-0.30148968 -0.06338342 0.1833443 1.8591382e-09 0.41594663 -0.20112696 0.2682425 -0.0018499334
0.039731536 0.058507405 -0.0022871315 -2.1150299e-20 -9.0784666e-14 0.03242486 -0.000105886145 -0.23151803
-0.0010777465 0.04158255 -4.1409912e-10 -0.053329438 -0.32575467 0.16015041 -0.13288954 -0.17387024
-0.0021788862 -0.13310543 0.00018610449 -0.24597543 -0.29712206 -0.015321921 0.2174508 0.041735172
0.3179745 0.21298775 -0.023931142 0.0048824768 -0.00023954189 -0.27477854 0.0029045374 -0.27570567
-0.0005489517 -0.21612412 -5.2918465e-05 0.38860485 -0.15760043 0.0004030021 -0.06541881 0.0039574057
0.034925908 -0.00038281284 -0.0014164366 0.01186385 0.0006426872 -0.035487056 -0.40774757 1.7230283e-06
2.3013983e-11 -3.3300516e-19 -0.042740025 0.115205765 -0.14446242 -0.005741487 -0.22796708 -5.5588224e-08
0.006433162 0.024386529 0.005044044 0.0038320234 -0.01836812 -0.0011278739 -0.0006304738 -0.0010096488
7.9114267e-22 -0.25264505 0.00013472239 -0.061130762 -0.0015170029 0.22814845 -9.081022e-22 -0.00025777568
-0.00017743696 -0.0014167016 0.28145197 0.20264405 1.6803166e-05 -0.0020110356 5.1126524e-19 -0.0067796665
-0.351769 0.25065756 -0.00042894192 0.0041132285 0.29026213 -6.2636683e-09 0.00036917828 0.006473165
0.00024164503 -0.4498195 0.0006886031 0.0031819255 -4.6361587e-05 -1.5334194e-10 -2.7371199e-11 -0.06485798
-0.02836445 -0.00015243712 -0.00027789891 0.051754948 -7.1258813e-19 0.0026269916 -0.00020784124 -0.00048301372
0.0055453684 0.003207961 0.0006578034 7.804866e-05 -0.42404917 -0.25068638 0.27073333 -0.093885385
0.0081641255 0.00027405468 0.26793426 0.0011688996 -0.00015826909 -7.070066e-05 -5.9203332e-05 -0.00022100772
-0.00034551587 -0.00456045 -0.11456529 -0.37617117 0.2013784 0.029294463 -0.04923215 -0.34166998
-0.047568817 -0.019061595 -5.137051e-17 -0.13005984 -0.00026631745 0.00030073925 0.2674398 0.19037609
0.00035473373 0.24012047 0.000474395 0.04736282 0.113205664 0.01476899 9.417823e-11 -4.5710185e-05
-0.091135584 -0.0028683757 -0.06487352 -0.2987008 0.13151622 1.9954551e-09 0.097146906 0.42429942
0.14518192 0.0018127812 -0.12281122 0.06659287 0.00036349325 4.529603e-20 3.5462464e-13 -0.023632685
0.000103798055 -0.011961073 0.0013514463 -0.13623033 6.2558647e-10 -0.06300537 -0.0672985 -0.015346523
-0.1034227 0.32940277 0.00040764347 -0.18691997 0.00035865247 0.386329 -0.10490883 -0.0067611695
0.19934408 -0.12038686 -0.22280298 -0.33182576 0.08434069 0.001983744 0.0018384041 0.11374733
0.00821816 0.09949614 0.00041689095 -0.051962234 0.0006756202 -0.03224832 0.031192416 0.0024485919
-0.31644297 -0.0030433426 -0.016249193 0.0002908897 0.0008014104 0.004068608 -0.0023028448 -0.016915085
0.14374001 0.006351539 1.6523395e-10 1.175858e-18 -0.29393604 0.40032214 -0.10653206 0.0045565795
-0.038166698 2.5324113e-08 0.003787277 0.012682618 0.00428234 0.0032526925 -0.04587813 0.0037560184
0.0010752364 0.00044354214 2.6567393e-21 0.3185637 0.0004147885 0.077701986 0.0016795822 -0.11750065
7.792466e-21 7.8300436e-05 0.0005058081 0.0017047127 -0.023668488 0.026803683 0.000443943 0.0013422094
1.0100642e-18 -0.0025702578 -0.11249014 -0.0036020095 0.0027143527 -0.0009204724 0.06523099 8.97743e-09
00000000: 43a8 313b b633 9abd 9582 f43d c88b 92bd
00000010: a1bb 2ead 087e f4b6 2259 63be cd49 a4bb
00000020: db5c 9abe 2bcf 81bd 9cbe 3b3e 9c84 ff30
00000030: f5f6 d43e 3af4 4dbe 1557 893e 7779 f2ba
00000040: 89bd 223d 76a5 6f3d b3e3 15bb 49c2 c79e
00000050: cc6d cca9 eecf 043d 310f deb8 1013 6dbe
00000060: 2c43 8dba 7752 2a3d 45a7 e3af f86f 5abd
00000070: 51c9 a6be 78fe 233e 3214 08be 0a0b 32be
00000080: a5cb 0ebb ca4c 08be 0b25 4339 fce0 7bbe
00000090: 6220 98be cb08 7bbc 6cab 5e3e 80f2 2a3d
000000a0: 8ecd a23e 7619 5a3e 3e0b c4bc 2ffd 9f3b
000000b0: 892d 7bb9 c6af 8cbe 0d5a 3e3b 4b29 8dbe
000000c0: 86e7 0fba a44f 5dbe c5f4 5db8 37f7 c63e
000000d0: 0262 21be 074a d339 4cfa 85bd 20ad 813b
000000e0: 780e 0f3d 45b4 c8b9 baa7 b9ba 9860 423c
000000f0: 027a 283a e05a 11bd 4ac4 d0be cd42 e735
00000100: e26e ca2d 5192 c4a0 2a10 2fbd 00f1 eb3d
00000110: f5ed 13be 1523 bcbb 3470 69be e6bf 6eb3
00000120: 46cd d23b 42c6 c73c 8248 a53b af22 7b3b
00000130: bd78 96bc 2bd5 93ba 6146 25ba 3156 84ba
00000140: b31b 6f1c b15a 81be 4444 0d39 4064 7abd
00000150: 2cd6 c6ba bf9f 693e 813a 899c 1126 87b9
00000160: 5f0e 3ab9 9eb0 b9ba 791a 903e ec81 4f3e
00000170: 86f4 8c37 94cb 03bb 1ce6 1621 f727 debb
00000180: 111b b4be 3056 803e 9ce3 e0b9 43c8 863b
00000190: 3d9d 943e cf37 d7b1 458e c139 d81c d43b
000001a0: 1862 7d39 be4e e6be 5f83 343a da87 503b
000001b0: 6074 42b8 eb99 28af 76c2 f0ad 43d4 84bd
000001c0: 905c e8bc 87d7 1fb9 f6b2 91b9 fffc 533d
000001d0: a351 52a1 9b29 2c3b f5ef 59b9 013d fdb9
000001e0: ecb5 b53b a83c 523b 7070 2c3a 0eae a338
000001f0: f91c d9be f759 80be 8f9d 8a3e fb46 c0bd
00000200: d3c2 053c ffae 8f39 ae2e 893e c335 993a
00000210: 09f5 25b9 2145 94b8 1851 78b8 4fbe 67b9
00000220: 5b26 b5b9 d46f 95bb 35a1 eabd 8299 c0be
00000230: 2436 4e3e f1fa ef3c a7a7 49bd 5eef aebe
00000240: 85d7 42bd 1027 9cbc 98e7 6ca4 682e 05be
00000250: 86a0 8bb9 8aac 9d39 dfed 883e f3f1 423e
00000260: 8efb b939 24e2 753e 38b8 f839 84ff 413d
00000270: 5fd8 e73d a2f9 713c a119 cf2e f0b8 3fb8
00000280: 4ba5 babd 5cfb 3bbb 68dc 84bd 50ef 98be
00000290: 30ac 063e 6b20 0931 f5f4 c63d c63d d93e
000002a0: 92aa 143e d89a ed3a 7384 fbbd d861 883d
000002b0: 3d93 be39 8ae7 551f cca2 c72a 5599 c1bc
000002c0: 28ae d938 60f8 43bc 0323 b13a f77f 0bbe
000002d0: bcf5 2b30 f608 81bd ccd3 89bd fc6f 7bbc
000002e0: 48cf d3bd 7ba7 a83e fbb8 d539 f367 3fbe
000002f0: 8509 bc39 eacc c53e 71da d6bd cd8c ddbb
00000300: db20 4c3e 638d f6bd 7726 64be 11e5 a9be
00000310: d0ba ac3d b401 023b 9bf6 f03a 5cf4 e83d
00000320: 76a5 063c a2c4 cb3d 2892 da39 5ad6 54bd
00000330: 1b1c 313a d016 04bd 3d87 ff3c 8e78 203b
00000340: d004 a2be d172 47bb 071d 85bc 8e82 9839
00000350: be15 523a f551 853b 53eb 16bb 8191 8abc
00000360: 9530 133e 9220 d03b 39ad 352f a986 ad21
00000370: c97e 96be 06f7 cc3e 7b2d dabd 5c4f 953b
00000380: af54 1cbd 5088 d932 f733 783b c1ca 4f3c
00000390: df52 8c3b 202b 553b b5ea 3bbd 8827 763b
000003a0: f2ee 8c3a 388b e839 d0bc 481d c81a a33e
000003b0: f877 d939 3822 9f3d 6d25 dc3a 2ea4 f0bd
000003c0: 0e32 131e 3a35 a438 3598 043a ab70 df3a
000003d0: 6be4 c1bc 6693 db3c 05c1 e839 13ed af3a
000003e0: 260f 9521 c571 28bb 3b61 e6bd b10f 6cbb
000003f0: 48e3 313b db4b 71ba d397 853d 283b 1a32

post_mp.layer_post_mp.model.0.Layer_0.post_layer.0.weight f4 [154]
0.9565601 0.88425535 0.8710152 0.92212546 0.88787556 0.78825164 0.91293156 0.9626602
0.86379176 0.8094673 0.9778388 0.7804282 0.9964629 0.9488664 0.9844042 1.0068749
0.90989655 0.9412319 0.96014786 0.8674221 0.8584842 0.81216097 1.0687333 0.9712727
1.0245783 0.946238 0.95369655 0.9769392 0.9769217 0.8957435 0.99869347 0.92169863
0.9983928 0.7592495 0.8111904 0.9563708 0.9371104 0.9383455 0.83843523 0.9341862
1.0716757 0.9898395 0.8941714 0.92516494 0.7679099 0.809223 1.0149686 0.8906385
1.0203846 0.9056922 0.9899492 1.00383 0.6052663 1.1465069 0.85438246 0.7844278
0.7771911 0.96511126 0.881539 0.9202357 0.93156594 0.74867547 0.9758141 0.9522717
0.870878 0.77310675 0.74629825 0.88918924 1.0038438 0.95079935 1.0331911 0.98383576
0.8680963 0.8208863 0.9204012 0.9840972 0.87341255 0.78118664 0.93986475 1.035471
0.72559655 0.8662456 0.68446445 1.0999652 0.7752682 0.8436026 0.8566535 0.83682
0.8926435 0.9413555 1.0389389 0.82561344 1.0061306 0.94948566 0.88761723 1.0463732
0.88365304 0.95024705 0.984824 0.8882516 0.8217611 1.0323819 0.9955117 0.88838553
0.84212166 0.81557906 0.9465932 0.8989095 0.92089295 0.83549017 0.8754694 0.9860464
0.95259637 1.0020413 0.822024 0.7702712 0.9915483 0.87031984 0.8145772 0.944068
0.97079486 0.86700785 0.9367765 0.98728 0.87562686 1.0379589 0.896326 0.9787492
0.83162147 0.93342525 1.0031843 0.94478196 0.8769528 0.83463115 1.04443 0.73166156
0.8514236 0.79121906 0.983352 0.87297726 0.9475324 0.9349385 1.0125933 0.97866875
1.2274845 0.77344924 1.1578425 0.96702003 1.0393748 0.9520331 1.0249276 1.065715
0.9600527 1.0137173
00000000: 1fe1 743f 8f5e 623f dafa 5e3f 6a10 6c3f
00000010: d04b 633f dcca 493f e2b5 693f e670 763f
00000020: 7521 5d3f 4039 4f3f a553 7a3f 24ca 473f
00000030: 3118 7f3f e9e8 723f ea01 7c3f 47e1 803f
00000040: fbee 683f 93f4 703f 40cc 753f 600f 5e3f
00000050: 9fc5 5b3f c8e9 4f3f 41cc 883f 54a5 783f
00000060: 6225 833f a73c 723f 7525 743f b018 7a3f
00000070: 8a17 7a3f 724f 653f 60aa 7f3f 71f4 6b3f
00000080: ac96 7f3f 2d5e 423f 2daa 4f3f b7d4 743f
00000090: 78e6 6f3f 6937 703f b1a3 563f d426 6f3f
000000a0: ab2c 893f 1f66 7d3f 6be8 643f 9cd7 6c3f
000000b0: be95 443f 3d29 4f3f 7eea 813f e200 643f
000000c0: f69b 823f 72db 673f 506d 7d3f 807d 803f
000000d0: bbf2 1a3f bdc0 923f cfb8 5a3f 43d0 483f
000000e0: fff5 463f 8811 773f 8aac 613f 9194 6b3f
000000f0: 1b7b 6e3f 32a9 3f3f f4ce 793f 14c8 733f
00000100: dcf1 5e3f 53ea 453f 670d 3f3f e8a1 633f
00000110: f47d 803f 9667 733f 9b3f 843f a9dc 7b3f
00000120: 8f3b 5e3f 9b25 523f 6a9f 6b3f cbed 7b3f
00000130: f797 5f3f d9fb 473f fa9a 703f 508a 843f
00000140: b2c0 393f 46c2 5d3f 1039 2f3f a9cb 8c3f
00000150: fa77 463f 57f6 573f a54d 5b3f d639 563f
00000160: 4984 643f adfc 703f f3fb 843f 675b 533f
00000170: e3c8 803f 7e11 733f e23a 633f 8fef 853f
00000180: 1637 623f 6443 733f 6d1d 7c3f 7564 633f
00000190: ef5e 523f 1725 843f dbd9 7e3f 3c6d 633f
000001a0: 4995 573f cac9 503f ef53 723f ef1e 663f
000001b0: a4bf 6b3f afe2 553f c31e 603f 896d 7c3f
000001c0: 5bdd 733f e442 803f 2a70 523f 7e30 453f
000001d0: 1cd6 7d3f 48cd 5e3f 2288 503f 71ae 713f
000001e0: 0386 783f 3af4 5d3f 96d0 6f3f 62be 7c3f
000001f0: 1529 603f d6db 843f 9f75 653f 4f8f 7a3f
00000200: 25e5 543f f5f4 6e3f 5868 803f 3bdd 713f
00000210: fb7f 603f 63aa 553f e2af 853f 2c4e 3b3f
00000220: e6f6 593f 558d 4a3f f5bc 7b3f 707b 5f3f
00000230: 7c91 723f 2158 6f3f a89c 813f 098a 7a3f
00000240: 361e 9d3f c500 463f 2f34 943f a08e 773f
00000250: 3c0a 853f 71b8 733f d430 833f 5969 883f
00000260: 04c6 753f 7dc1 813f

post_mp.layer_post_mp.model.0.Layer_0.post_layer.0.bias f4 [154]
0.21177617 0.41584668 0.20223781 0.2692347 0.45237017 0.35545105 0.049608953 0.26570356
0.25621918 -0.025750289 -0.017974444 -0.16072883 0.4201293 0.23354915 0.24689968 0.62088126
-0.09720329 0.2939651 -0.34945056 0.43426824 0.5126365 -0.20639323 0.32398245 0.24688083
0.48973238 0.3209613 0.0005689731 0.071158126 -0.25858268 0.5869555 -0.20734571 -0.23352896
0.49435705 -0.17908598 0.13212101 0.40483463 0.1160394 0.37499195 0.6703697 0.29773137
0.3029485 0.27714744 0.1902676 0.34125736 -0.011415958 0.43938354 0.13632521 0.18846574
-0.03913384 0.24336563 0.34209394 0.31381464 -0.08715496 0.35137334 -0.12903363 0.15947513
-0.0015853577 0.16823982 0.4863188 0.32144234 0.6246268 -0.29024082 0.3736256 0.3549232
-0.20465475 0.23974122 -0.2095981 0.11559094 0.17869563 -0.037998788 -0.008978661 0.058942966
-0.046331692 0.3547822 -0.13373686 0.45878047 0.23807247 -0.29084638 0.52587306 0.3786755
-0.20498754 0.17736706 0.15744376 0.36216575 0.885948 -0.12202864 -0.16240929 0.3714635
-0.21896797 0.6605222 0.4404746 -0.0067878608 0.4993121 -0.11409302 0.25595272 0.18126275
0.48539388 0.18343706 0.19674532 0.4400614 0.4610257 0.34699643 0.48088104 0.21218292
-0.18237299 0.0771317 0.5847363 0.21357101 -0.11004176 0.25247478 0.42260554 -0.31756535
0.5172622 0.34913635 0.3966001 -0.34305957 0.2948398 -0.0011505862 0.5160695 0.6033689
0.49934176 0.25837278 0.18059252 0.47499615 0.48536947 0.5645557 0.33882523 0.31402108
-0.045963954 0.14782137 -0.24682875 0.011537693 0.285354 0.054341253 0.35367608 0.5656595
0.1810538 0.43113187 0.36905232 0.4029636 0.30383232 0.44263276 0.5755425 0.21373916
0.71545583 0.050040763 0.58218443 0.72833216 0.26732183 0.2634698 0.017735375 0.32551205
0.10687916 0.03972797
00000000: dadb 583e dbe9 d43e 6e17 4f3e 21d9 893e
00000010: 109d e73e aefd b53e c232 4b3d 4c0a 883e
00000020: 292f 833e 45f2 d2bc 243f 93bc 1996 24be
00000030: 301b d73e 8227 6f3e 45d3 7c3e 13f2 1e3f
00000040: 8512 c7bd 9882 963e 2feb b2be 6858 de3e
00000050: 253c 033f bf58 53be 07e1 a53e 54ce 7c3e
00000060: 34be fa3e 0a55 a43e 2327 153a 5abb 913d
00000070: f364 84be b742 163f 6f52 54be 3722 6fbe
00000080: 5e1c fd3e 5162 37be bb4a 073e 7c46 cf3e
00000090: 11a6 ed3d f2fe bf3e 599d 2b3f 3f70 983e
000000a0: 111c 9b3e 45e6 8d3e 82d5 423e 49b9 ae3e
000000b0: 000a 3bbc e1f6 e03e d698 0b3e 2afd 403e
000000c0: ce4a 20bd d734 793e f026 af3e 50ac a03e
000000d0: 4d7e b2bd 35e7 b33e 6421 04be 734d 233e
000000e0: c7cb cfba 0f47 2c3e c7fe f83e 1794 a43e
000000f0: 8be7 1f3f 729a 94be db4b bf3e 7eb8 b53e
00000100: 0491 51be b97e 753e e2a0 56be f1ba ec3d
00000110: fdfb 363e 9ea4 1bbd 3c1b 13bc 2e6e 713d
00000120: 4dc6 3dbd 03a6 b53e 51f2 08be 46e5 ea3e
00000130: 45c9 733e d1e9 94be 9e9f 063f c1e1 c13e
00000140: 41e8 51be b69f 353e f038 213e ca6d b93e
00000150: 7dcd 623f 27ea f9bd 9f4e 26be 7730 be3e
00000160: 2439 60be fc17 293f e385 e13e b46c debb
00000170: d6a5 ff3e 9aa9 e9bd 3c0c 833e f19c 393e
00000180: 8c85 f83e edd6 3b3e 9b77 493e ba4f e13e
00000190: 900b ec3e 84a9 b13e 0a36 f63e 7b46 593e
000001a0: fcbf 3abe 3af7 9d3d 47b1 153f 5cb2 5a3e
000001b0: 935d e1bd 6044 813e c15f d83e ed97 a2be
000001c0: 4c6b 043f 00c2 b23e 2b0f cb3e 81a5 afbe
000001d0: 3ef5 963e 44cf 96ba 211d 043f 6276 1a3f
000001e0: b9a9 ff3e 7049 843e 3fed 383e b232 f33e
000001f0: 5982 f83e b986 103f 807a ad3e 5fc7 a03e
00000200: b344 3cbd 7c5e 173e adc0 7cbe 9808 3d3c
00000210: eb19 923e ef94 5e3d 0815 b53e 10cf 103f
00000220: 2b66 393e 51bd dc3e 6df4 bc3e 3f51 ce3e
00000230: e98f 9b3e c3a0 e23e c156 133f 70de 5a3e
00000240: 1d28 373f 8bf7 4c3d 0a0a 153f fa73 3a3f
00000250: 68de 883e 83e5 863e c749 913c 84a9 a63e
00000260: 76e3 da3d ccb9 223d

post_mp.layer_post_mp.model.0.Layer_0.post_layer.0.running_mean f4 [154]
-0.1569001 0.031447437 -0.08998423 0.15130791 -0.07366522 -0.09327784 -0.12523913 -0.13377698
-0.17662808 0.048207067 -0.025014771 0.006037537 0.055819903 0.22049762 0.17388044 -0.0959833
0.06454875 -0.17625237 -0.0007818219 0.063808344 -0.061736472 0.22195715 -0.021870594 0.044240486
-0.048099842 0.055357806 0.19110979 -0.1120924 0.033364594 0.12245714 0.005325634 -0.062598
-0.21500108 -0.28192323 0.0669861 -0.01583976 -0.2136391 -0.14989792 0.09060354 -0.29732323
-0.21430375 0.03247617 -0.16648756 -0.16835557 -0.101424955 0.09571686 0.12459664 -0.08410835
-0.11452435 -0.23076572 0.16249716 0.107253104 -0.017729979 -0.14544763 0.20505594 -0.13883187
0.15662678 0.032409973 -0.26888844 -0.070199355 -0.108530164 -0.17261666 0.08872204 0.12508684
-0.20614825 0.14145176 -0.16076471 0.116123095 -0.06159504 -0.062695645 0.108801275 -0.07459439
0.09572209 -0.02547854 -0.18381932 -0.12268477 0.09538548 -0.059334233 0.13699618 -0.15391785
-0.1312336 -0.028038532 -0.020350577 0.056775756 -0.021714825 -0.23546848 0.22082263 -0.032640424
0.16844751 -0.009720142 -0.029414201 -0.120015755 0.16374166 0.093144484 0.08142769 -0.0968749
0.015248342 -0.04245208 0.043366306 -0.2289448 0.002610963 0.07465059 0.23302953 0.037836332
-0.19624397 0.051855475 -0.080881506 -0.1071091 -0.027786545 -0.019820126 0.23430324 0.2172477
0.036432244 -0.07897284 0.0017406557 -0.004326037 0.20412828 -0.047593944 -0.016252259 0.066208206
0.032483783 0.10366973 -0.10888691 -0.07479718 -0.10059983 -0.0719371 0.1537748 -0.2204363
0.06687172 -0.11354841 -0.046885215 0.14592882 -0.1297064 -0.041555163 -0.042177677 -0.021381315
-0.0062040314 -0.08971965 -0.12088844 -0.124661386 0.06758403 -0.066071644 0.010400555 -0.19224009
0.13080794 0.17643026 -0.012816513 -0.16025598 -0.2094953 -0.07546072 0.061516613 0.006081736
0.06590644 0.08237824
00000000: 6baa 20be 07cf 003d a749 b8bd 76f0 1a3e
00000010: cadd 96bd 7408 bfbd b03e 00be d5fc 08be
00000020: fedd 34be c674 453d c7eb ccbc 88d6 c53b
00000030: 69a3 643d 21ca 613e b70d 323e e492 c4bd
00000040: 2332 843d 807b 34be 2ef3 4cba f3ad 823d
00000050: 62df 7cbd bc48 633e f629 b3bc 8335 353d
00000060: 5704 45bd debe 623d 49b2 433e b390 e5bd
00000070: 50a9 083d cfca fa3d a882 ae3b 6133 80bd
00000080: 3e29 5cbe 3e58 90be 0230 893d 62c2 81bc
00000090: 35c4 5abe d77e 19be 598e b93d c03a 98be
000000a0: 7172 5bbe bc05 053d b77b 2abe 6765 2cbe
000000b0: e3b7 cfbd 3307 c43d 862c ff3d 0041 acbd
000000c0: be8b eabd d94d 6cbe a865 263e 84a7 db3d
000000d0: 763e 91bc 39f0 14be 2ffa 513e f129 0ebe
000000e0: c562 203e 52c0 043d bfab 89be aec4 8fbd
000000f0: 1045 debd 6cc2 30be e7b3 b53d c416 003e
00000100: 8718 53be bbd8 103e 819f 24be f2d1 ed3d
00000110: 154b 7cbd 9366 80bd 34d3 de3d f2c4 98bd
00000120: f109 c43d 5fb8 d0bc 223b 3cbe 2742 fbbd
00000130: 7659 c33d 7408 73bd ba48 0c3e a49c 1dbe
00000140: 1a62 06be 10b1 e5bc 41b6 a6bc b28d 683d
00000150: 4ae3 b1bc a61e 71be 541f 623e f7b1 05bd
00000160: 817d 2c3e 3b41 1fbc 0df6 f0bc d2ca f5bd
00000170: e5ab 273e 89c2 be3d 90c3 a63d 5966 c6bd
00000180: 2fd4 793c 3be2 2dbd dea0 313d 8170 6abe
00000190: b11c 2b3b 69e2 983d 4b9f 6e3e 45fa 1a3d
000001a0: 2ef4 48be 6866 543d 34a5 a5bd 045c dbbd
000001b0: 9ca0 e3bc d15d a2bc 30ed 6f3e 2e76 5e3e
000001c0: fa39 153d 83bc a1bd b726 e43a 6ec1 8dbb
000001d0: 0107 513e def1 42bd 7523 85bc 2b98 873d
000001e0: b70d 053d cc50 d43d 1a00 dfbd 442f 99bd
000001f0: 4907 cebd c253 93bd 2477 1d3e 0eba 61be
00000200: 0af4 883d 128c e8bd b60a 40bd 5d6e 153e
00000210: c1d1 04be bf35 2abd 80c2 2cbd de27 afbc
00000220: 304b cbbb f0be b7bd 5c94 f7bd 784e ffbd
00000230: 7f69 8a3d 9250 87bd 1767 2a3c 96da 44be
00000240: 84f2 053e 22aa 343e 5afc 51bc 251a 24be
00000250: f085 56be 268b 9abd d8f8 7b3d 4d49 c73b
00000260: f5f9 863d ecb5 a83d

post_mp.layer_post_mp.model.0.Layer_0.post_layer.0.running_var f4 [154]
0.008483838 0.008219969 0.010082419 0.00648197 0.007558179 0.007986242 0.011875017 0.012253736
0.008969394 0.009162137 0.006991428 0.00895586 0.011398879 0.009710481 0.010927894 0.010577555
0.009260747 0.010441005 0.011653958 0.008292269 0.00835974 0.008925407 0.01424841 0.015151534
0.010304995 0.009009395 0.013824712 0.011134546 0.013923101 0.0083391685 0.016183913 0.0110959355
0.01301837 0.00968698 0.0068959626 0.010718076 0.008945603 0.009950537 0.009105711 0.006896267
0.012257993 0.009749955 0.0071347756 0.008984754 0.008317105 0.0076443087 0.008091589 0.006858449
0.015846739 0.009302699 0.008184812 0.009652435 0.004686352 0.012107942 0.010672522 0.0070668594
0.009340916 0.008741191 0.011621181 0.0094585465 0.009667169 0.007313982 0.009318358 0.010306823
0.012296101 0.005738504 0.009831694 0.008790409 0.010356382 0.012456435 0.011922527 0.008986443
0.009730258 0.009147985 0.0109244315 0.014039907 0.011066891 0.008537511 0.007952709 0.010724124
0.009216894 0.0077001727 0.006006223 0.012801163 0.0083658565 0.008147958 0.008395675 0.006290673
0.009422361 0.00898073 0.011027752 0.009670667 0.0109644355 0.010296897 0.0130595695 0.009750517
0.00670577 0.010088601 0.007266223 0.007830972 0.007120859 0.015384612 0.011512122 0.011221458
0.0105983475 0.0073301382 0.010930094 0.009433309 0.010429197 0.010126746 0.008195664 0.012511497
0.008345481 0.012383632 0.009039069 0.00872391 0.009695935 0.007853767 0.0054291724 0.010543912
0.008726855 0.0069406955 0.011455044 0.010142244 0.008751775 0.010078656 0.0072573414 0.009998744
0.007977778 0.010629812 0.012561487 0.010357403 0.008233172 0.008631429 0.010275892 0.006120618
0.00747128 0.0077472897 0.011068792 0.005991074 0.008711971 0.012957885 0.009076325 0.011707023
0.01513665 0.0063536633 0.018520715 0.009004232 0.010049921 0.009387141 0.013341731 0.009902029
0.007726635 0.010834088
00000000: ccff 0a3c 0dad 063c bb30 253c b566 d43b
00000010: 9aaa f73b bad8 023c 6e8f 423c e5c3 483c
00000020: 5df4 123c ca1c 163c 5918 e53b 99bb 123c
00000030: 5dc2 3a3c b618 1f3c e90a 333c 7b4d 2d3c
00000040: 63ba 173c c010 2b3c 3ef0 3e3c 4cdc 073c
00000050: 4af7 083c df3b 123c 2a72 693c 243e 783c
00000060: 48d6 283c 249c 133c 0b81 623c ac6d 363c
00000070: b81d 643c 02a1 083c 2094 843c bacb 353c
00000080: 004b 553c 24b6 1e3c 87f7 e13b de9a 2f3c
00000090: 9490 123c 9407 233c 1f30 153c 15fa e13b
000000a0: c0d5 483c 46be 1f3c d6ca e93b ca34 133c
000000b0: 7744 083c 1c7d fa3b 9692 043c d7bc e03b
000000c0: 05d1 813c 596a 183c 9719 063c 3f25 1e3c
000000d0: f88f 993b 6460 463c cddb 2e3c 1d91 e73b
000000e0: a40a 193c 3637 0f3c c466 3e3c 05f8 1a3c
000000f0: 0c63 1e3c 21aa ef3b 07ac 183c f3dd 283c
00000100: 9675 493c 100a bc3b 1d15 213c a605 103c
00000110: d0ad 293c 1316 4c3c b456 433c e03b 133c
00000120: a96b 1f3c 6ee1 153c 63fc 323c a307 663c
00000130: e851 353c ebe0 0b3c 144c 023c 3cb4 2f3c
00000140: 7502 173c bb51 fc3b dacf c43b f8bb 513c
00000150: f210 093c 037f 053c 038e 093c fd21 ce3b
00000160: 3f60 1a3c e923 133c bfad 343c b871 1e3c
00000170: 2da4 333c 51b4 283c cef7 553c a2c0 1f3c
00000180: 13bc db3b a94a 253c 7f19 ee3b 7a4d 003c
00000190: 1856 e93b bd0f 7c3c 579d 3c3c 35da 373c
000001a0: b1a4 2d3c a831 f03b 2314 333c 2a8e 1a3c
000001b0: 39df 2a3c a7ea 253c 1b47 063c 06fd 4c3c
000001c0: 7cbb 083c b8e4 4a3c 9a18 143c bbee 0e3c
000001d0: b3db 1e3c 16ad 003c 33e7 b13b 5fc0 2c3c
000001e0: 15fb 0e3c c66e e33b f0ad 3b3c a82b 263c
000001f0: 9b63 0f3c f220 253c fece ed3b c6d1 233c
00000200: 3ab5 023c aa28 2e3c b2ce 4d3c 19b2 293c
00000210: 6de4 063c d66a 0d3c 375c 283c 778f c83b
00000220: a4d1 f43b fadc fd3b e159 353c c550 c43b
00000230: a8bc 0e3c 4f4d 543c deb4 143c d0ce 3f3c
00000240: b6ff 773c 6432 d03b c1b8 973c 7c86 133c
00000250: 6da8 243c 86cc 193c 4797 5a3c 1f3c 223c
00000260: b62f fd3b 7581 313c

post_mp.layer_post_mp.model.1.model.weight f4 [28, 154]
-0.011812326 -0.011450082 -0.012558489 -0.011758746 -0.011312129 -0.011036722 -0.011488642 -0.014971669
-0.011597267 -0.016083134 -0.013501112 -0.012306854 -0.013004 -0.011365105 -0.01468029 -0.012991918
-0.01242974 -0.013130619 -0.027044358 -0.010722575 -0.013550686 -0.0120503185 -0.013573124 -0.016564611
-0.013576901 -0.013504938 -0.01345381 -0.012231056 -0.021855857 -0.010921522 -0.020423476 -0.018126976
-0.010853067 -0.013146343 -0.011127605 -0.011891908 -0.014720179 -0.012604261 -0.015093102 -0.01219062
-0.013067179 -0.016601056 -0.011732805 -0.01346889 -0.0132521875 -0.0149083305 -0.015048504 -0.01168845
-0.016581707 -0.012150359 -0.014535637 -0.016709728 -0.00861349 -0.015137886 -0.011495497 -0.009994458
-0.011574575 -0.0135642905 -0.010163047 -0.013226368 -0.012444047 -0.010556509 -0.014566308 -0.012727495
-0.021106262 -0.010184391 -0.014201294 -0.011422424 -0.015990244 -0.021098152 -0.014290128 -0.012849957
-0.01239012 -0.010682485 -0.01604048 -0.015072936 -0.014798942 -0.013086904 -0.011269225 -0.017373206
-0.01859101 -0.011792121 -0.010079415 -0.014038886 -0.011310947 -0.014781618 -0.012424024 -0.010155798
-0.012003617 -0.013920216 -0.013540119 -0.013859609 -0.013582318 -0.015412155 -0.014702632 -0.013364899
-0.013594346 -0.014900141 -0.013324058 -0.011539684 -0.010481587 -0.014774762 -0.01368977 -0.011621413
-0.01838788 -0.012089062 -0.011796519 -0.012347845 -0.01939225 -0.011626659 -0.010453831 -0.017590802
-0.013119964 -0.015881704 -0.01221213 -0.016597226 -0.012989541 -0.013899048 -0.012166788 -0.014979984
-0.013265151 -0.013010022 -0.012865641 -0.012675992 -0.0112576755 -0.012529937 -0.013760809 -0.012329672
-0.0118854465 -0.01511163 -0.01690135 -0.012758584 -0.012310003 -0.011211202 -0.015262603 -0.011599451
-0.011593693 -0.011024755 -0.01263944 -0.011515177 -0.011668338 -0.011003206 -0.013056861 -0.013081357
-0.0155585725 -0.009949923 -0.01678268 -0.012935924 -0.013428408 -0.011679039 -0.016877543 -0.013434757
-0.012425139 -0.014225809 -0.470813 -0.016174931 -0.5150545 -0.6937899 0.055243753 0.59785813
0.35495204 0.00646062 -0.07527842 -0.429558 0.23553126 0.4226515 -0.44922966 0.5417738
0.2705533 0.81470203 0.2012064 -0.12950747 0.1788324 -0.1516154 -0.066646405 0.12572666
0.95093924 -0.06665104 -0.15937774 -0.43825853 -0.32810366 0.26017997 -0.03809558 -0.3717663
-0.036295723 -0.33250275 -0.14866073 0.33190712 0.27599195 -0.34812236 0.48668104 -0.1869686
-0.287189 0.5580224 -0.24469045 -0.012452108 -0.043506533 -0.3976118 0.14029683 0.17803825
-0.07795557 0.15535279 0.7454095 -0.19792539 0.124327056 -0.4434783 -0.04831924 0.19602504
0.32925022 0.12825315 -0.2116322 -0.1894656 0.506922 -0.018164057 -0.10936655 0.084995195
-0.063416064 -0.2958755 0.2180501 0.17751041 0.4375783 -0.28293055 -0.4069339 -0.22804229
-0.2185588 -0.42882508 0.0043682526 0.16001225 0.38408083 0.06378558 -0.095670745 0.14539519
-0.5169145 -0.074526384 0.13498051 -0.017603971 -0.022464018 0.17111872 0.7208256 -0.36060646
0.28921878 -0.43161255 0.25977466 0.27721596 -0.5784856 0.22683987 -0.23409224 -0.6432072
0.4282404 -0.05987426 0.39336964 0.03142944 -0.36013967 0.0917835 -0.20906182 -0.46303168
00000000: 7c88 41bc 2099 3bbc 1fc2 4dbc c1a7 40bc
00000010: 8256 39bc 5ed3 34bc db3a 3cbc bb4b 75bc
00000020: 7702 3ebc c7c0 83bc c533 5dbc b0a2 49bc
00000030: bb0e 55bc b534 3abc 9985 70bc 0edc 54bc
00000040: 1ca6 4bbc cf21 57bc 218c ddbc bdad 2fbc
00000050: b203 5ebc b36e 45bc cf61 5ebc 82b2 87bc
00000060: a671 5ebc d143 5dbc 5e6d 5cbc c464 48bc
00000070: 0e0b b3bc 2ff0 32bc 224f a7bc 067f 94bc
00000080: 10d1 31bc c263 57bc 8f50 36bc 47d6 42bc
00000090: e82c 71bc 1a82 4ebc 0f49 77bc 2bbb 47bc
000000a0: b917 56bc f0fe 87bc f33a 40bc 9fac 5cbc
000000b0: b41f 59bc 1242 74bc 008e 76bc ea80 3fbc
000000c0: 5cd6 87bc 4d12 47bc e126 6ebc d7e2 88bc
000000d0: 981f 0dbc e504 78bc 9c57 3cbc ccbf 23bc
000000e0: 49a3 3dbc c23c 5ebc e982 26bc 69b3 58bc
000000f0: 1ee2 4bbc 35f5 2cbc 86a7 6ebc fc86 50bc
00000100: 0ae7 acbc 6fdc 26bc 8bac 68bc 1e25 3bbc
00000110: f9fd 82bc 08d6 acbc 2421 6abc a088 52bc
00000120: eeff 4abc 9705 2fbc 5367 83bc 7af4 76bc
00000130: 4377 72bc 746a 56bc 8ea2 38bc 4152 8ebc
00000140: 2c4c 98bc be33 41bc 2124 25bc 5b03 66bc
00000150: 8d51 39bc 992e 72bc 228e 4bbc 8164 26bc
00000160: d2aa 44bc 9e11 64bc 60d7 5dbc 6a13 63bc
00000170: 5f88 5ebc 4383 7cbc 4fe3 70bc 73f8 5abc
00000180: d2ba 5ebc b91f 74bc 264d 5abc f110 3dbc
00000190: f6ba 2bbc d811 72bc 0f4b 60bc bd67 3ebc
000001a0: 2ea2 96bc 3311 46bc 3046 41bc 9e4e 4abc
000001b0: 7fdc 9ebc be7d 3ebc 8c46 2bbc 961a 90bc
000001c0: 1ef5 56bc 591a 82bc 6315 48bc e8f6 87bc
000001d0: 15d2 54bc d5b8 63bc 3557 47bc 9b6e 75bc
000001e0: 1356 59bc fd27 55bc 69ca 52bc f7ae 4fbc
000001f0: 1d72 38bc 5d4a 4dbc 0475 61bc 6502 4abc
00000200: 2dbb 42bc c596 77bc b374 8abc 6109 51bc
00000210: e5af 49bc 30af 37bc ff0f 7abc a00b 3ebc
00000220: 79f3 3dbc 2da1 34bc a715 4fbc 27aa 3cbc
00000230: 8f2c 3fbc ca46 34bc 72ec 55bc 3053 56bc
00000240: 62e9 7ebc 0005 23bc d57b 89bc 33f1 53bc
00000250: d302 5cbc 7159 3fbc c642 8abc 741d 5cbc
00000260: cf92 4bbc 5e13 69bc 670e f1be 4a81 84bc
00000270: 9dda 03bf 379c 31bf 4647 623d 3b0d 193f
00000280: 46bc b53e 9cb3 d33b 922b 9abd 07ef dbbe
00000290: 1b2f 713e c765 d83e 6e01 e6be b0b1 0a3f
000002a0: f685 8a3e 5090 503f 0d09 4e3e 9b9d 04be
000002b0: d71f 373e 1141 1bbe e97d 88bd 7dbe 003e
000002c0: c170 733f 5780 88bd eb33 23be 6c63 e0be
000002d0: 34fd a7be 4f36 853e 1c0a 1cbd 2758 bebe
000002e0: d3aa 14bd cd3d aabe 853a 18be bbef a93e
000002f0: d14e 8d3e 183d b2be 422e f93e b274 3fbe
00000300: 700a 93be 8eda 0e3f 2290 7abe ed03 4cbc
00000310: e833 32bd c693 cbbe f9a9 0f3e a94f 363e
00000320: 2ba7 9fbd cd14 1f3e 28d3 3e3f f4ac 4abe
00000330: 2f9f fe3d 960f e3be 65ea 45bd caba 483e
00000340: 7c93 a83e cb54 033e 1db6 58be 4503 42be
00000350: a4c5 013f cacc 94bc 92fb dfbd f611 ae3d
00000360: 48e0 81bd fe7c 97be 8748 5f3e 4ac5 353e
00000370: 430a e03e 46dc 90be a459 d0be eb83 69be
00000380: e1cd 5fbe f68e dbbe 8f23 8f3b 40da 233e
00000390: 3ea6 c43e 04a2 823d 06ef c3bd 7ae2 143e
000003a0: 8254 04bf 4aa1 98bd 5538 0a3e 3436 90bc
000003b0: 7606 b8bc bf39 2f3e 0788 383f 69a1 b8be
000003c0: 7c14 943e 52fc dcbe 2f01 853e 40ef 8d3e
000003d0: a217 14bf b648 683e e0b5 6fbe 3aa9 24bf
000003e0: 5342 db3e b63e 75bd bf67 c93e 28bc 003d
000003f0: 3a64 b8be fdf8 bb3d 4d14 56be 7d12 edbe

post_mp.layer_post_mp.model.1.model.bias f4 [28]
-0.014732563 0.08701231 -0.116629206 0.24533476 0.050080348 0.19770558 0.06661292 -0.11806389
0.0438265 -0.08415908 -0.014732564 -0.014732564 0.07665708 -0.014732564 -0.021076411 0.05541692
-0.027022783 0.05417437 0.030891165 -0.014732568 -0.050507687 -0.15784173 0.0070585823 -0.05956049
-0.043221038 0.011999679 -0.01803351 -0.011288713
00000000: d960 71bc 8333 b23d 4bdb eebd 0939 7b3e
00000010: 0d21 4d3d 5573 4a3e 5b6c 883d 7bcb f1bd
00000020: 6b83 333d 995b acbd da60 71bc da60 71bc
00000030: 63fe 9c3d da60 71bc 70a8 acbc dafc 623d
00000040: e25e ddbc f2e5 5d3d 780f fd3c de60 71bc
00000050: 26e1 4ebd 43a1 21be ae4b e73b b3f5 73bd
00000060: 8b08 31bd 4d9a 443c 03bb 93bc 4bf4 38bc

exp_avg f4 [154]
-0.00016241401 -0.0023781736 0.009956202 -0.059479702 2.09731e-22 4.429172e-18 -0.00543129 -0.00014758926
0.0011110506 0.07277254 0.014314904 3.3566591e-21 -0.00850974 0.0116526075 -0.016041404 0.0001193225
-0.034299195 -0.01494307 -0.00037516013 5.908302e-26 4.500984e-19 0.028811097 -5.900021e-07 0.033122968
-0.00020934256 -0.0009969623 -1.8005708e-15 0.020691514 0.027326971 0.014293848 -0.0040863655 -0.0022001045
-9.700409e-05 0.040473744 -8.387461e-08 -0.0008905556 -0.0006415885 -0.00014997946 -0.024314497 -0.0015611929
-0.011718255 0.0008400836 0.0066119255 1.2880453e-05 -0.00036084183 0.010378346 -0.010067102 -0.008389828
-5.2082512e-05 -0.00922259 -2.2675142e-05 0.01867478 0.009333278 8.721521e-05 -0.09008581 -0.00019373401
0.0025688144 -6.2228515e-05 -0.0002027573 -5.2402094e-05 -0.00017628125 0.008576997 -0.0017090595 -0.0004093691
5.8528173e-22 6.932272e-30 -0.0034667703 0.007469146 0.0011712245 -0.0001464569 0.0044445326 5.3747115e-19
-0.00015159506 -0.0011898456 0.00040263377 9.447065e-06 -0.000754865 6.302414e-05 -5.4974706e-05 -3.7881603e-12
1.8972638e-29 -0.048684455 5.3312e-05 0.012193919 8.452199e-05 0.06205769 8.821355e-29 7.67684e-05
-5.2404495e-05 3.840562e-05 0.01275413 -0.007816213 -0.00061980786 2.4321562e-05 5.446272e-24 1.3086367e-08
-0.003984982 0.012670884 -0.00010356171 -0.00074148906 0.006702092 3.5293915e-14 -3.5089713e-05 -0.00022723629
-5.058622e-05 0.009417524 0.00015984963 0.00014450854 -1.1965075e-05 4.4072456e-14 -4.329771e-15 -0.031211508
0.0015741149 -1.120987e-05 -0.00018413491 0.005553756 -2.4331595e-22 -0.0001606224 -5.5603094e-05 -7.25674e-05
-0.0002755092 -7.475927e-05 0.0001260463 -0.0007540011 -0.00085899106 -0.00046523038 0.0025113148 0.0017961446
-0.0008368948 -0.00039279534 0.002117936 -3.195664e-06 -2.3944267e-06 -2.0881609e-05 -7.839715e-05 2.4040139e-05
-5.582067e-05 -0.0004900124 -0.01813285 -0.009229742 0.00071000546 0.03693993 0.00250914 -0.011184122
-0.0029693684 -0.00018901347 -1e-45 0.0001837779 -1.8746774e-06 3.9219954e-05 -0.007838943 0.006406448
0.00020821791 -0.0031809683
00000000: ae4d 2ab9 22db 1bbb 561f 233c fda0 73bd
00000010: 9a8c 7d1b 5968 a322 f6f8 b1bb 31c2 1ab9
00000020: aca0 913a c509 953d 0f89 6a3c 3b9f 7d1d
00000030: 706c 0bbc 94ea 3e3c 4369 83bc c83c fa38
00000040: 507d 0cbd c7d3 74bc 24b1 c4b9 5048 9215
00000050: 79d8 0421 4005 ec3c a360 1eb5 f3ab 073d
00000060: f782 5bb9 81ac 82ba abbe 01a7 4081 a93c
00000070: d0dc df3c be30 6a3c ebe6 85bb a12f 10bb
00000080: ad6e cbb8 ccc7 253d 8e1e b4b3 2d74 69ba
00000090: 4630 28ba ce43 1db9 322f c7bc f1a0 ccba
000000a0: ecfd 3fbc 0e39 5c3a daa8 d83b 2019 5837
000000b0: 5f2f bdb9 f009 2a3c 7cf0 24bc 7d75 09bc
000000c0: 2c73 5ab8 591a 17bc 7f36 beb7 dafb 983c
000000d0: 9bea 183c 4fe7 b638 e97e b8bd 1425 4bb9
000000e0: 8e59 283b ae80 82b8 409b 54b9 52ca 5bb8
000000f0: 23d8 38b9 8886 0c3c 8502 e0ba 97a0 d6b9
00000100: fbe3 301c 6a9a 0c0f c132 63bb bdbf f43b
00000110: c683 993a 3a92 19b9 71a3 913b 2ca2 1e21
00000120: 7df5 1eb9 98f4 9bba 9718 d339 d67e 1e37
00000130: 22e2 45ba d42b 8438 a494 66b8 b748 85ac
00000140: c967 c00f 5a69 47bd 539b 5f38 01c9 473c
00000150: 6641 b138 3430 7e3d dea5 df10 b9fe a038
00000160: e6cc 5bb8 b815 2138 b3f6 503c 930f 00bc
00000170: 9a7a 22ba 2806 cc37 44b1 d218 73d2 6032
00000180: 7494 82bb 8a99 4f3c 452f d9b8 7d60 42ba
00000190: 399d db3b 1df3 1e29 4b2d 13b8 4746 6eb9
000001a0: 8a2c 54b8 f54b 1a3c 4f9d 2739 3787 1739
000001b0: 9bbd 48b7 157c 4629 17ff 9ba7 47af ffbc
000001c0: 8852 ce3a 0612 3cb7 5714 41b9 48fc b53b
000001d0: 5213 939b bf6c 28b9 5e37 69b8 542f 98b8
000001e0: 3872 90b9 14c8 9cb8 4c2b 0439 28a8 45ba
000001f0: ea2d 61ba 2aea f3b9 df94 243b 9d6c eb3a
00000200: 0f63 5bba 19f0 cdb9 12cd 0a3b 1775 56b6
00000210: f0af 20b6 ea2a afb7 2669 a4b8 cea9 c937
00000220: fd20 6ab8 2d74 00ba 588b 94bc 5838 17bc
00000230: a91f 3a3a 534e 173d 6270 243b 9c3d 37bc
00000240: bc99 42bb eb31 46b9 0100 0080 81b4 4039
00000250: 6d9d fbb5 1b80 2438 e96e 00bc 2eed d13b
00000260: 1255 5a39 cb77 50bb
